models/TorchScript/C-FCN.pth (torch, 7183 bytes, 8 tensors)

weight f4 [5, 3, 3, 3]
0	0xbe3c49f9	-0.18387593
1	0xbcfd7afe	-0.030942436
2	0x3c2b09c1	0.010439337
3	0x3d0c7169	0.034287844
4	0x3d7ab74f	0.061209973
5	0xbd9a7756	-0.07542293
6	0xbdb2a385	-0.08722595
7	0x3d79777d	0.06090497
8	0xbed660fa	-0.41870862
9	0xbe9f544a	-0.31118995
10	0x3e378b7e	0.17924306
11	0x3d422678	0.047399968
12	0xbe4e6602	-0.201561
13	0x3e809e5f	0.25120828
14	0xbe5158b4	-0.20443994
15	0xbe35cf96	-0.17754969
16	0x3da0de1c	0.07854864
17	0xbea75f2b	-0.32689795
18	0x3e4ca5f8	0.19985187
19	0x3e693840	0.22775364
20	0x3ea57400	0.32315063
21	0xbd9664fa	-0.073434785
22	0x3e1a3d2e	0.150624
23	0xbd631dbb	-0.055448275
24	0x3e4d4b25	0.20048197
25	0x3e973864	0.2953521
26	0xbdb7ce69	-0.089749165
27	0x3d0c7aa0	0.03429663
28	0xbdea75a1	-0.11448217
29	0xbdd833cf	-0.10556757
30	0x3daaac73	0.08333673
31	0xbe0b5328	-0.1360594
32	0xbd5419ca	-0.051782407
33	0xbd66d6a9	-0.05635706
34	0xbe1f51f9	-0.15558614
35	0x3e370584	0.17873198
36	0xbe52e387	-0.20594607
37	0xbdf41912	-0.11918844
38	0xbdb33532	-0.087503806
39	0x3d332b51	0.04374248
40	0xbe2bed4e	-0.16789743
41	0x3e55bb4d	0.20872231
42	0x3cb0970f	0.021556405
43	0xbcb53ce3	-0.02212376
44	0x3e64335d	0.22285219
45	0xbe12f1e7	-0.14350091
46	0xbea23439	-0.31680468
47	0x3c890987	0.016728176
48	0xbe205b60	-0.15659857
49	0xbc80fc8a	-0.01574542
50	0x3dfa873c	0.12232825
51	0xbc7432c6	-0.014904683
52	0xbdd2e340	-0.10297251
53	0x3e8ce9b8	0.27522063
54	0xbd4430cb	-0.047898095
55	0xbdb979be	-0.090564236
56	0x3e931349	0.2872565
57	0x3dbee372	0.093207255
58	0x3e3512d4	0.17682964
59	0xbd4edb44	-0.050502077
60	0x3e952374	0.2912861
61	0x3eacb43a	0.33731252
62	0x3e2c4a17	0.16825138
63	0x3e202ee9	0.15642895
64	0xbd073ab3	-0.033014964
65	0x3e5dd041	0.21661474
66	0xbcf67ffe	-0.030090328
67	0x3dcf14fc	0.10111424
68	0x3cb6550f	0.022257356
69	0x3ec8bb32	0.3920532
70	0x3e94c0e0	0.29053402
71	0xbd52015b	-0.051270824
72	0xbebdfc95	-0.37106767
73	0xbe5bdd7c	-0.21471208
74	0xbdf19733	-0.11796417
75	0xbec3fad3	-0.382773
76	0xbecf2903	-0.40460977
77	0xbefdfdaf	-0.49607608
78	0xbdcfbc13	-0.10143294
79	0xbeb9f23f	-0.36317632
80	0xbeaf696c	-0.34260118
81	0xbe21fdcf	-0.15819477
82	0x3daa9da5	0.083308496
83	0x3d9cdc21	0.07659174
84	0xbebe8200	-0.37208557
85	0xbeb3190b	-0.34980044
86	0xbeba836a	-0.36428386
87	0xbeac8904	-0.33698285
88	0xbebd92cb	-0.37026057
89	0xbe95dbac	-0.2926916
90	0x3e55c603	0.20876317
91	0x3e9c349d	0.3050889
92	0x3e979274	0.29603922
93	0x3e75eb21	0.24015476
94	0xbb54f10d	-0.003249231
95	0x3e94e633	0.29081878
96	0x3e86be76	0.26317185
97	0x3ea25734	0.31707156
98	0x3e41dd8b	0.18932168
99	0x3d840cca	0.06447752
100	0x3d4e8b68	0.050425917
101	0xbd1a8047	-0.03771999
102	0xbd2765d4	-0.040868595
103	0xbe8a1eb6	-0.26976556
104	0xbe350a94	-0.17679816
105	0xbe239113	-0.1597331
106	0x3d4dea64	0.05027236
107	0xbe7613b4	-0.24030954
108	0xbe15388c	-0.14572352
109	0x3e2c4b6b	0.16825645
110	0xbe1f69d0	-0.15567708
111	0xbd4f68e4	-0.05063714
112	0xbe1ba8a6	-0.15201053
113	0xbd44ad64	-0.04801692
114	0xbe1014e5	-0.1407047
115	0x3db87d3e	0.09008263
116	0x3dfe399e	0.12413333
117	0x3e1ea449	0.15492357
118	0xbe08924a	-0.13337055
119	0x3e3edb71	0.18638398
120	0xbd498578	-0.04919955
121	0xbe133f02	-0.14379504
122	0x3d3cc220	0.04608357
123	0xbe320b06	-0.17387018
124	0xbddcd409	-0.1078263
125	0x3c95cd78	0.018286452
126	0xbc6d5540	-0.014485657
127	0xbdf62aa6	-0.12019853
128	0xbdfa3d45	-0.122187175
129	0xbc1a96f0	-0.0094354
130	0xbe18b65f	-0.14913319
131	0xbe34cbf5	-0.17655928
132	0x3e20bad3	0.15696268
133	0x3dfda762	0.12385441
134	0x3ca21900	0.019787312

bias f4 [5]
0	0xbcb6c3e2	-0.022310201
1	0x3da78df7	0.081813745
2	0x3e0a24fa	0.13490668
3	0x3e0935da	0.13399449
4	0xbe1610a7	-0.1465479

weight f4 [2, 5, 3, 3]
0	0x3f74a071	0.95557314
1	0x3fb14686	1.3849647
2	0x3fcb3b93	1.5877556
3	0xbe7c59ef	-0.24643682
4	0xbf15eb1f	-0.5856189
5	0xbe776c46	-0.24162397
6	0x3f0a79ab	0.540919
7	0x3f3853ad	0.7200268
8	0x3f883cd8	1.0643568
9	0xbf564f8d	-0.83715135
10	0xbf4b0a07	-0.79312176
11	0xbdf8144b	-0.121132456
12	0xbed43454	-0.41446173
13	0xbef4caf5	-0.47811094
14	0x3e85a975	0.26105848
15	0xbf17f748	-0.59361696
16	0xbdb3e7fe	-0.087844834
17	0x3ec7ed68	0.39048314
18	0x3f151317	0.58232254
19	0x3e39f0f5	0.18158324
20	0x3ec5afcc	0.38610685
21	0x3f1f2e71	0.6218024
22	0x3f2fbc5a	0.68646777
23	0x3ec0215a	0.37525445
24	0x3edc2362	0.42995745
25	0x3e8dda90	0.27705812
26	0x3ef2d45d	0.47427645
27	0x3eac9794	0.33709395
28	0x3f8cacdc	1.0990252
29	0x3fcdfe54	1.609324
30	0xbed5f4ca	-0.41788322
31	0x3f095a74	0.53653646
32	0x3f43da1b	0.7650468
33	0xbe935529	-0.2877591
34	0x3e7f1532	0.24910429
35	0x3f213d86	0.629845
36	0xbc966140	-0.01835692
37	0xbdae599d	-0.08513186
38	0xbd3e674e	-0.046485238
39	0x3d0b633c	0.034030184
40	0x3e03abc9	0.128585
41	0x3dc963c8	0.09833485
42	0x3ddc9fca	0.10772665
43	0xbdc0929c	-0.094029635
44	0x3dfeb4ee	0.12436853
45	0x3fcc3828	1.5954638
46	0x3fac2abe	1.3450544
47	0x3f89ad1c	1.0755954
48	0x3ecfe39a	0.40603334
49	0x3ec2ea4b	0.38069376
50	0x3f098872	0.53723824
51	0x3f885f58	1.0654097
52	0x3e476760	0.19473028
53	0xbd45bf57	-0.04827818
54	0xbf2ad04c	-0.66724086
55	0xbec34f47	-0.3814642
56	0xbefbc6da	-0.4917515
57	0xbec0fd21	-0.37693122
58	0xbee9e19c	-0.4567994
59	0xbec770bb	-0.38953194
60	0xbed6df49	-0.41967228
61	0xbe60863b	-0.21926205
62	0x3e21a6c0	0.15786266
63	0x3ec824f3	0.3909069
64	0x3edc347e	0.43008798
65	0x3ef2e3cc	0.4743942
66	0x3f0b779a	0.5447937
67	0x3f1d1a31	0.6136809
68	0x3edb9b32	0.42891842
69	0x3f7df803	0.9920656
70	0x3f754a18	0.95816183
71	0x3f3318e7	0.6995987
72	0x3e1491d2	0.14508751
73	0x3f5402b1	0.82816607
74	0x3f940b11	1.1565877
75	0xbec3d607	-0.38249227
76	0x3f12592d	0.5716732
77	0x3f4980ab	0.78711957
78	0xbf4bdf44	-0.7963755
79	0xbea9db76	-0.33175248
80	0x3f0af857	0.54285187
81	0xbd784f5a	-0.06062255
82	0xbe07bfd2	-0.13256767
83	0x3e04bd7f	0.12962912
84	0xbdb8f9e2	-0.09032036
85	0xbc726ee0	-0.0147969425
86	0xbe0a6ad0	-0.13517308
87	0x3c3bb560	0.011456817
88	0x3d3a246c	0.04544489
89	0xbd62f822	-0.05541242

bias f4 [2]
0	0xbd172a2a	-0.036905445
1	0xbd0b4c15	-0.034008104

weight f4 [2, 2, 3, 3]
0	0xbe075154	-0.13214618
1	0xbe755cd0	-0.23961186
2	0x3ddc79c7	0.10765415
3	0xbf49ece1	-0.78877074
4	0xbfc1ddfc	-1.5145869
5	0xbf1cba9d	-0.6122225
6	0xbf534a87	-0.82535595
7	0xbfa11922	-1.2585795
8	0xbe8be976	-0.27326554
9	0xbec579d9	-0.38569525
10	0xbe3348c2	-0.17508224
11	0x3e7eca31	0.24881817
12	0xbf7abaea	-0.9794146
13	0xbf9abbf3	-1.2088608
14	0xbf26fde7	-0.65231174
15	0xbf0d6199	-0.5522705
16	0xbf895714	-1.0729699
17	0xbecb8502	-0.39749914
18	0x3f88100f	1.0629901
19	0x3fb95ce3	1.4481472
20	0x3f8c18a5	1.0945021
21	0x3f89b411	1.0758077
22	0x3f89302b	1.0717825
23	0x3f90f762	1.1325495
24	0x3ec84434	0.39114535
25	0x3f6ac299	0.9170318
26	0x3f3138eb	0.69227475
27	0x3fb014ee	1.3756387
28	0x3f8b2778	1.087142
29	0x3f7b7419	0.98224026
30	0x3f93fa91	1.1560842
31	0x3f574185	0.8408435
32	0x3f277c80	0.65424347
33	0x3f13946d	0.57648355
34	0x3f549515	0.8303998
35	0x3f317a25	0.69327

bias f4 [2]
0	0x3fe60975	1.7971636
1	0x3d64fafb	0.055903416

weight f4 [2, 2, 1, 1]
0	0xc090a38c	-4.519964
1	0x3fbb7c80	1.4647369
2	0x4093533e	4.6039114
3	0xbfba3f2b	-1.4550527

bias f4 [2]
0	0xbf8e9186	-1.113816
1	0x3f8a4795	1.0803095
