models/TorchScript/C-UNet.pth (torch, 955279 bytes, 44 tensors)

weight f4 [32, 3, 3, 3]
000000 2f c9 57 3e 30 11 36 3e bf 73 84 3d ee 26 c0 bc
       0.21072839 0.17779994 0.06467389 -0.023456063
000010 f0 4c cb 3d 4d 0d af 3d b0 62 8f 3d e4 3b 33 3e
       0.09926784 0.08547459 0.07001245 0.17503315
000020 a5 96 63 3d 2a ea 0c be a1 23 57 be c1 bb ff bd
       0.055563588 -0.13761202 -0.21009685 -0.12486983
000030 b1 f4 7d bb d5 ac 62 bc 22 b4 13 be f1 8d 98 3d
       -0.0038750584 -0.013835152 -0.14424184 0.07448948
000040 b7 93 37 be 8a 84 3a be 28 28 ad 3e 6b cd d4 3c
       -0.17927442 -0.18214622 0.338197 0.025976857
000050 54 9a 8a bd ce ad 44 3d 5b 19 34 be 86 23 93 bd
       -0.06767717 0.048017316 -0.17587797 -0.0718451
000060 ab db d3 bd 98 24 65 be 97 58 34 be 15 72 03 3d
       -0.10344633 -0.2237724 -0.1761192 0.03209122
000070 e5 a3 84 be c4 5c 91 be e4 94 4a be 58 fb 3b 3d
       -0.25906292 -0.28391087 -0.1978336 0.045893997
000080 80 1f f0 3c 75 26 20 bd ef ec 6e be 2f a5 39 be
       0.029311895 -0.039099175 -0.2333257 -0.18129419
000090 c4 6b 2b 3e 8d b0 66 bd ea bd 1c be a4 1d 48 3d
       0.16740328 -0.056320716 -0.15306821 0.048856393
0000a0 1b 38 af bc c9 73 2c 3e 03 0c 2b 3e 1e 5c 35 3e
       -0.021389058 0.16841044 0.16703801 0.17710921
0000b0 64 db 50 3e 22 f4 f9 3c f3 5d 4c be d3 8d 30 be
       0.20396191 0.03051192 -0.19957714 -0.17241602
0000c0 91 4d 57 3e 31 f1 29 3e f5 51 11 3e e1 0d 07 3e
       0.21025683 0.16595913 0.1419142 0.13188888
0000d0 0f cf 73 bd 30 9e b4 3d e1 04 6d be f1 65 82 3d
       -0.05952364 0.08819234 -0.23146392 0.063671
0000e0 7d bd 9c bd 0e 7d 11 be 78 ca 9a ba 5a 58 6b be
       -0.076533295 -0.14207861 -0.0011809608 -0.22982922
0000f0 3f 64 ea 3d ac d9 8c be c4 1a 7f be f8 5b ea 3c
       0.11444902 -0.2750982 -0.24912554 0.028608307
000100 64 f1 8a 3e fa 6a 1a be 07 d5 c5 bd c5 d3 be bd
       0.2713729 -0.15079871 -0.09659772 -0.093177356
000110 17 e4 bf 3d 69 0d 21 3e 0f ef 98 bc e0 60 42 3e
       0.093696766 0.15727772 -0.01866868 0.18982267
000120 82 22 1c be 80 d8 27 3e b5 a4 00 be 96 1c 3b bd
       -0.15247539 0.16391182 -0.12562831 -0.04568156
000130 bb f8 d6 bc 5c 54 ab 3d 4e 6b a8 3d 92 c8 d1 3d
       -0.02624165 0.083657 0.08223592 0.10243334
000140 58 fd cf 3d 1c af 81 3c df e0 c1 bd 8e 4a 16 be
       0.10155743 0.015830569 -0.09466719 -0.14676878
000150 3e 8a 1c be d1 c9 c5 bd ba a0 bb 3c a2 cb 00 bd
       -0.1528711 -0.09657634 0.022903789 -0.0314442
000160 03 8a aa bd ea d8 8c 3d 23 48 3d 3e 45 ea 79 3e
       -0.08327105 0.068773106 0.18484549 0.24405773
000170 e1 8e 8c 3e 68 bd 64 3e 95 25 98 3d ed 3e 7e 3e
       0.27452758 0.22337878 0.07429043 0.24828692
000180 9f 0c 18 3e 83 60 69 3d db 9b 48 bd 68 03 82 be
       0.14848565 0.056976806 -0.04897676 -0.25393224
000190 55 95 14 be e9 5a 70 bd d2 15 53 bd 1d 0e ce 3d
       -0.1451009 -0.05868045 -0.05153448 0.10061286
0001a0 62 8f 7c be 28 ae 66 bd 93 f5 9a 3d ec 96 2f bd
       -0.24664071 -0.056318432 0.07566371 -0.04286854
0001b0 27 2d 62 3d 19 5b fa bc 4b 20 c2 bd fe 10 a4 3d
       0.055218842 -0.030561017 -0.09478816 0.080110535
0001c0 d0 11 a7 3d ac 5f 14 be b9 11 1a 3e df cf 80 ba
       0.08157694 -0.14489621 0.15045823 -0.0009827575
0001d0 7e 06 c9 3c 39 9a 31 be cd 07 27 be f7 bc 57 3c
       0.024539229 -0.17343988 -0.1631157 0.013167611
0001e0 e7 c5 a4 bd 66 21 2a be 13 8f bd bd 19 b8 9d 3e
       -0.080455594 -0.16614303 -0.09255805 0.30804518
0001f0 60 f3 0e be 5b 56 54 3e 7e 8e ca bc 22 41 77 3e
       -0.13960028 0.20736067 -0.024726149 0.2414594
000200 67 1c 28 bc 86 25 0a 3e 8f 38 a1 bc 54 8d e1 bc
       -0.010260678 0.13490877 -0.01968029 -0.02753321
000210 30 43 b4 3e 8d 97 1c 3e c5 8f 90 3d ee ed e0 3d
       0.3520751 0.15292187 0.07058672 0.109828815
000220 f8 1c 08 3d c6 8a ec bd cb ad 8d bd 6d 55 d6 bd
       0.03323075 -0.115499064 -0.06917914 -0.104655124
000230 f9 67 de bc 2f dd 24 3d f6 17 b7 bd 34 99 32 bd
       -0.027149187 0.04025 -0.08940117 -0.043603137
000240 d7 dc 4a 3c 57 b7 ae 3d c1 08 2c 3e cc 01 9b 3d
       0.012381754 0.08531063 0.16800214 0.07568702
000250 3c 9e 37 3e e9 c6 5e 3e 05 23 3a bd b3 76 5c 3d
       0.17931455 0.21755566 -0.045443553 0.053824138
000260 8f c1 85 3e af 13 00 be 18 1f 58 be 14 1a cb bd
       0.26124236 -0.12507509 -0.21105611 -0.099170834
000270 e4 4a ab bb 82 0d d1 bd 38 b6 87 be 9c 56 89 3d
       -0.0052274335 -0.102076545 -0.2650621 0.067059726
000280 57 0c af bd c8 06 86 be c5 b5 00 bd 7a d9 96 3d
       -0.085472755 -0.2617705 -0.03142335 0.07365699
000290 ba 3e d5 3a 41 5b b3 bc 51 2b 10 3e c5 fd 7d bb
       0.0016269304 -0.0218941 0.14079024 -0.0038755995
0002a0 34 fb 63 3e c0 b1 8f 3e 98 49 5c 3e 02 5c b4 bd
       0.22263795 0.280653 0.21512449 -0.088066116
0002b0 12 55 1d bd 3f 9b 6c be e9 36 3a 3d 80 57 22 be
       -0.038411207 -0.23106097 0.045462523 -0.15853691
0002c0 f6 e4 17 3d e1 70 e2 3d 0f 20 bb bd 66 47 c7 3d
       0.03708359 0.11056686 -0.09136974 0.09730415
0002d0 3e c6 1f 3e a1 48 86 bc 02 b6 60 be 72 4f 64 3e
       0.15602967 -0.016392054 -0.2194443 0.22295931
0002e0 1e 1b 14 3d a1 f3 37 be af f5 e9 3c dc 0e d3 3d
       0.036158673 -0.17964031 0.028559534 0.103055686
0002f0 2b 74 54 3e 36 a1 d4 bd 9f b7 27 3d a4 3f a4 bd
       0.2074744 -0.10382311 0.0409466 -0.08019951
000300 6a 78 3b bd 90 5c 81 3e 4f 5b 03 3e 13 2b 1e be
       -0.045769133 0.25265932 0.128278 -0.15446119
000310 0d 8c 25 3e c2 86 1f be 7c 21 d0 bb 55 be 69 bd
       0.16166706 -0.1557875 -0.006351648 -0.05706628
000320 f4 8b fd bd 03 8c c5 3c 54 d5 11 3e 49 f1 95 3d
       -0.123802096 0.024114614 0.14241534 0.07321412
000330 50 b1 16 be 58 75 62 3e c3 8a 06 be c6 8c 4e 3d
       -0.14716077 0.22115076 -0.13138871 0.05042722
000340 c7 cf c3 bd 58 6f 1e 3d 96 ec 59 3c 78 61 62 3e
       -0.09561115 0.038680404 0.013301035 0.22107494
000350 8c d7 b8 bd a7 3b 4f be a7 46 af bd a4 48 1d be
       -0.09025487 -0.202376 -0.08558398 -0.15359741
000360 35 63 79 be 91 6e 0f 3d ae 9e 1a 3e fb 8a cb bd
       -0.2435425 0.035017554 0.15099594 -0.09938618
000370 6c 92 01 3e 26 bd 6b be 28 1b c8 bd c5 1b e2 bd
       0.12653512 -0.23021373 -0.09770805 -0.11040453
000380 d8 ac 7b be 59 aa 40 3c fe 11 6a 3e f4 3c 55 3e
       -0.24577653 0.011759364 0.22858426 0.20824033
000390 82 a6 1f be 53 67 12 3e de 5f 09 bd de 79 d4 bd
       -0.15590861 0.14297228 -0.03353869 -0.10374807
0003a0 22 ab 42 be 4f 16 5d be f0 9a 90 3d 07 22 20 3e
       -0.19010594 -0.21590541 0.07060802 0.1563798
0003b0 e8 d0 6b 3e d5 73 2b 3e fc 38 da 3c fc ef e9 3d
       0.2302891 0.16743405 0.0266385 0.114227265
0003c0 9a f2 5b 3d 02 a9 87 bd 60 a1 8a 3d cb 89 b6 3d
       0.05369816 -0.066240326 0.06769061 0.08913001
0003d0 d3 4f 4c 3d 1d 3d 75 bd 3a 97 39 3e 33 8e c3 3d
       0.049880814 -0.059872735 0.18124095 0.09548607
0003e0 ab 2c 42 3e 67 96 85 3e 24 a9 db 3d 8c 82 11 3e
       0.18962352 0.2609131 0.107256204 0.14209956
0003f0 d1 e0 60 bd e3 33 b8 bd 94 a6 aa 3d 81 e6 06 be
       -0.0549019 -0.089942716 0.083325535 -0.13173868

bias f4 [32]
000000 b4 89 72 3c 41 9a 91 be 8b 6f a2 3e 39 2b 9d bc
       0.014803339 -0.28438 0.31725726 -0.01918565
000010 46 7c 54 3d 7d d4 3b be 3c 5b 98 3d 54 84 0a 3e
       0.05187633 -0.18342777 0.074392766 0.13527042
000020 8e 66 ea 3b f8 b7 6a 3e 4f d6 b9 be ea bf 7e be
       0.0071533388 0.22921741 -0.36296317 -0.24877897
000030 ea 2e 44 be eb d8 41 bd d1 0e 2b 3e 3e e9 cc bd
       -0.19158521 -0.04732601 0.16704871 -0.10005425
000040 43 e7 26 be af 48 c7 3e 94 04 00 be 2e e1 8f 3d
       -0.16299157 0.3892264 -0.12501746 0.070253715
000050 1f c5 02 be fc bc e5 bb 86 07 c3 3d 74 ad 20 3e
       -0.12770508 -0.007011054 0.09522919 0.15691167
000060 5f 15 02 3e cc aa 23 bd 8a e9 b1 bd da 82 d5 bc
       0.12703465 -0.039957806 -0.08687122 -0.026063371
000070 43 6d 1b 3c 05 2d 28 3e 1c f7 41 be 56 e1 bb bd
       0.009486499 0.16423424 -0.18941921 -0.09173839

weight f4 [32]
000000 15 d8 63 3f b1 e2 8c 3f d2 a5 88 3f 06 99 6a 3f
       0.8900159 1.1006681 1.0675604 0.91639745
000010 83 be 15 3f 53 3d 62 3f 5e 06 5f 3f d3 55 3b 3f
       0.5849382 0.88374823 0.8711909 0.7317783
000020 e4 0a 92 3f de 1f 65 3f 3f 58 45 3f 9e c0 30 3f
       1.1409574 0.8950175 0.7708778 0.6904391
000030 d3 42 75 3f f6 ff 9f 3f 69 72 5c 3f 30 5c 42 3f
       0.9580509 1.2499988 0.86112076 0.75921917
000040 5f 52 63 3f e7 bb 87 3f 39 22 5b 3f c3 09 5e 3f
       0.88797563 1.0604218 0.85599095 0.86733645
000050 d8 12 59 3f 34 ba 93 3f 0a bc 92 3f 31 c4 5d 3f
       0.8479438 1.15412 1.1463635 0.8662749
000060 6e 37 84 3f 29 07 5e 3f 89 7b 49 3f 47 05 6b 3f
       1.0329416 0.86729676 0.78704125 0.9180493
000070 3f 7f 87 3f 67 d3 9a 3f f2 79 28 3f 69 18 5f 3f
       1.0585707 1.2095765 0.65811074 0.8714662

bias f4 [32]
000000 2e ca 0b bd bc 07 2e 3f f5 10 2f 3d ec fe 2c 3e
       -0.03412836 0.6798055 0.04274078 0.1689412
000010 1c ee ac bd 9c 79 1c be 2a cd 3a be 95 5b 21 be
       -0.08443853 -0.15280765 -0.18242326 -0.15757592
000020 c6 18 28 3f bf 21 a4 bd 8e 25 f7 bd 68 ae bb be
       0.656628 -0.08014249 -0.1206771 -0.366565
000030 4d 08 fe 3d e3 e8 bd bd b1 0e 14 3e b9 f6 ba bd
       0.12403927 -0.09272935 0.1445873 -0.0912909
000040 00 d7 c2 3c ec d8 02 3f e0 0d 45 3e 50 f6 62 3e
       0.02378416 0.51112247 0.19243574 0.22164273
000050 ab 9c eb bd c4 7b 32 3f 4c f5 8b bd 41 b3 a5 be
       -0.115044914 0.697201 -0.06833896 -0.32363322
000060 65 7d 2b 3d 48 49 2a be 24 a1 93 3c 0d 63 58 3e
       0.041867632 -0.16629517 0.018021174 0.21131535
000070 7c d4 87 bc 84 80 4a 3e c6 ef 0f be 71 0c 3f 3e
       -0.016580813 0.19775587 -0.1405631 0.1865709

running_mean f4 [32]
000000 0f 53 92 bd bb 80 97 be 68 a2 65 3e 63 d8 4a 3c
       -0.071447484 -0.295904 0.22425234 0.012380692
000010 44 af 50 3e 28 d2 87 be b8 e8 86 3e db e5 a2 3d
       0.20379359 -0.26527524 0.26349425 0.07953998
000020 c2 92 30 3c de 04 bb 3e c9 ac e7 be 28 64 40 bd
       0.010777177 0.3652715 -0.45249012 -0.046970516
000030 a2 14 79 be 97 bc d6 bd 1a b6 14 bd 22 fb 80 bd
       -0.24324277 -0.104851894 -0.036306478 -0.062979
000040 38 79 18 bc c4 e2 d1 3e dd 42 59 3e 9f 1e 0b 3f
       -0.009306245 0.4099332 0.21216913 0.543436
000050 8a 98 8e 3b d2 5f 32 bc 30 30 aa bb 9a 04 ab 3e
       0.00435168 -0.010887103 -0.0051937327 0.33401948
000060 1f 15 f7 bc 82 b3 f5 3c 7e a0 58 be 0c 1b a6 3e
       -0.030161439 0.029992823 -0.21154973 0.3244251
000070 7f 41 20 3d c3 d4 a3 3d f0 e7 b5 3c a6 db 7c be
       0.039124962 0.079995655 0.022205323 -0.24693164

running_var f4 [32]
000000 7f 12 68 3b 02 b5 46 3a 83 13 a0 3b 33 a3 13 3a
       0.0035411415 0.0007580073 0.0048851385 0.00056319236
000010 d1 c0 36 3c 6a e8 42 3b 9e a0 95 3c 1e c9 d8 3a
       0.011154369 0.002974058 0.018265065 0.001653943
000020 9c ca 7f 3a 86 71 16 3c 7b 80 7d 3b f2 b2 9d 3c
       0.0009757669 0.0091823395 0.0038681317 0.019250367
000030 17 bf ac 3a ef d6 09 3b d0 52 ab 3c e5 f9 36 3a
       0.0013179508 0.0021032651 0.020913512 0.0006979986
000040 8b a0 3f 3c 00 90 27 3a e9 e4 57 3d 40 aa e3 3d
       0.011695991 0.0006392002 0.05270854 0.11116457
000050 a2 cd 02 3c 62 e9 84 3a 40 0f c7 3b 3a cc 61 3c
       0.007983597 0.0010140354 0.006074816 0.013781602
000060 1e c4 55 3c 9f 02 26 3b 34 7f ef 3b 44 8b 5d 3d
       0.013047246 0.0025331152 0.007308865 0.054087892
000070 95 e6 21 3a e1 20 6c 3b 85 f9 b5 3c e1 02 39 3c
       0.0006176022 0.003603034 0.022213707 0.01129219

weight f4 [64, 32, 3, 3]
000000 15 25 a5 3d fd ca 66 3d 94 77 fd 3c 3a 91 68 3c
       0.080637135 0.05634593 0.030940808 0.014194781
000010 71 20 4d bd c7 1b ad bc 88 e5 28 3d 35 d8 a7 bd
       -0.050079767 -0.02113141 0.041234523 -0.08195535
000020 48 8c b7 bd 80 75 a6 3b 9b 12 62 3d 77 fd 4e be
       -0.089623034 0.005079925 0.055193525 -0.20213877
000030 bc e9 71 3e 50 ba a8 3e 5e 7c 7a 3d bd b4 8b bd
       0.23624319 0.32954645 0.061153762 -0.068215825
000040 1d a7 e0 3a a5 32 b8 bd fb 6b a5 bc 64 dc 15 bd
       0.0017139647 -0.08994035 -0.02019309 -0.036587134
000050 46 e4 12 3b c7 c1 40 bd 12 c8 1b bd 1e bf ba 3d
       0.0022413894 -0.0470598 -0.0380326 0.09118484
000060 c0 59 ae 3d eb d9 9e 3b 48 b8 3b 3d a7 33 12 3e
       0.08513212 0.004847755 0.04583004 0.14277516
000070 19 41 d2 3d 6a 99 6d 3d 36 04 ab 3c 3e 51 e2 bc
       0.10266323 0.058007635 0.020876031 -0.02762663
000080 0a f3 21 3c cf 62 0e bd 11 f1 f0 bc 00 87 0f bd
       0.009884605 -0.0347622 -0.029411824 -0.035040855
000090 48 df 67 3e b4 3b 59 3e f2 9c 6a 3e 2b 13 f4 3d
       0.22643769 0.21214181 0.22911432 0.119177185
0000a0 09 e2 79 bc 90 89 c1 3d b0 04 e1 3d e4 29 fb 3d
       -0.015251645 0.09450066 0.10987222 0.122638494
0000b0 d3 6f 95 3d 9e b7 95 3d 8f ca 04 3e 10 ef 47 3d
       0.072967194 0.07310413 0.12967895 0.048811972
0000c0 9a 62 ae 3d 7b 25 5a 3d dc 1d 47 bd cd 9d 07 3b
       0.085149005 0.0532584 -0.04861246 0.0020693422
0000d0 2d 39 44 bd 75 cc bc bd 8f 2d d6 3d 76 05 5c 3d
       -0.04790609 -0.092186846 0.10457908 0.053716145
0000e0 29 b5 aa 3c 30 2e 07 3e 65 16 a8 3d ac d7 28 3d
       0.020838337 0.13201213 0.082073964 0.041221306
0000f0 46 75 41 bd 9c 67 ea bd c7 a9 00 3d 11 64 8c 3c
       -0.04723098 -0.11445543 0.031411912 0.01713756
000100 71 f4 73 3d 02 63 60 3b cf f8 6e 3d 89 b5 27 bd
       0.05955929 0.00342387 0.05834275 -0.04094461
000110 d7 cd 68 3b cf 7a 20 3b 0b 4b ec 3c db 93 c2 3d
       0.003552308 0.0024487262 0.028844377 0.095008574
000120 43 c6 72 3e e6 8f a5 3e fb 5e 11 3e 1f a7 2b 3c
       0.23708443 0.32336348 0.14196388 0.0104768565
000130 6a 42 ab 3c a4 c9 cc bd b7 c2 2c be 62 df d6 bd
       0.020905692 -0.099993974 -0.16871153 -0.10491826
000140 8b 57 fa bd 88 69 eb 3d e8 7b c0 3d f8 7f 39 3d
       -0.12223729 0.11494738 0.09398633 0.045288056
000150 6f 64 8d 3d 1f 30 bf 3b d4 2d d1 3c 42 4e 40 3d
       0.06903922 0.005834594 0.025534548 0.046949632
000160 e3 d9 5d 3d bc 36 9b 3d 18 0b 18 3e ab 45 bf 3d
       0.05416287 0.07578799 0.14847982 0.0933946
000170 fe 3e f7 3d 25 55 a0 3d dc bb 99 3d 06 24 a5 3d
       0.12072562 0.0782874 0.075065345 0.080635116
000180 8b 41 42 bc 70 45 97 bb bf eb a4 3d 22 c3 a5 3d
       -0.011856447 -0.004616432 0.080527775 0.08093859
000190 fa 2d 0b 3d e6 6c ea 3d b2 7a cd 3d 4d 38 88 3d
       0.033979394 0.11446552 0.10033168 0.066513635
0001a0 45 04 ab 3d db 74 a0 3d c0 e2 b0 3d 99 b4 e3 3d
       0.08350424 0.078347884 0.08636999 0.11118431
0001b0 2c 0a 03 3d 0e ff ff 3d ab 16 46 bb 3a 36 2c bd
       0.031992123 0.1249982 -0.0030225914 -0.042043902
0001c0 6d 3c 4a 3d 68 89 b1 bd 07 2c 26 bd 09 bc cd bd
       0.049374033 -0.08668786 -0.04056933 -0.100456305
0001d0 23 0c 1a bd 75 a3 39 bd a1 93 3d bd 67 31 52 bd
       -0.03760923 -0.0453219 -0.046283368 -0.051316645
0001e0 e7 a8 a6 bd 7c 49 dd bd 7f cc 89 bd 89 23 4d 3d
       -0.08137684 -0.10805032 -0.06728458 0.050082717
0001f0 57 f9 89 bd 70 c0 2c 3d f0 cc 53 3e 6d be 2b 3e
       -0.06737011 0.04217571 0.20683646 0.1677186
000200 a7 11 45 3e c0 39 13 3e c6 e6 24 3e df 8d 0b 3e
       0.19245015 0.14377499 0.16103658 0.13628338
000210 65 b2 ea 3b 9d 74 89 bd 92 29 d4 bc f3 20 02 be
       0.0071623796 -0.06711695 -0.025898729 -0.12707882
000220 4e 32 dc bc 23 38 0e 3d a3 2f 1e bd af 89 05 be
       -0.026879456 0.034721505 -0.03861965 -0.13040803
000230 59 72 2c bd 90 6c 54 3d 44 3b 6c 3c d0 2c 30 3c
       -0.042101238 0.051861346 0.014418427 0.010752872
000240 1d 02 1d 3d a5 ad 88 3d 05 d9 a3 3d 40 f4 9a bd
       0.038332094 0.06673745 0.080003776 -0.07566118
000250 2d 81 ca bb 5d 66 9f bd 12 29 5f 3d 71 b0 95 3c
       -0.0061799497 -0.07783196 0.054482527 0.01827261
000260 a8 45 1f bc 9e d1 3d bc f2 32 9d 3b a5 50 de bd
       -0.009721197 -0.011585621 0.004797333 -0.108552255
000270 89 68 2e be 73 ed 3f be 4b 56 08 be aa 42 dc be
       -0.17032064 -0.18742923 -0.13314168 -0.4301961
000280 07 75 a7 be 29 11 88 be 2e 02 aa 3d 1d 0b 48 3e
       -0.32706472 -0.26575592 0.08301197 0.1953549
000290 17 3c e2 3d 9d 98 da 3d be 65 07 bd 61 bb 36 3d
       0.110466175 0.1067364 -0.033056013 0.044612292
0002a0 e3 2c b2 3d 9d 83 8f bd 82 73 6d 3b 4b a1 df 3d
       0.08699968 -0.07007525 0.0036232178 0.10919436
0002b0 51 58 e0 3d 65 57 a3 3d 94 85 f9 38 68 5a 38 bd
       0.10954345 0.079756536 0.00011898126 -0.045008093
0002c0 aa 59 8c bd a2 37 eb 3c 60 ad f3 bd fc 41 15 3c
       -0.068530396 0.028713051 -0.11898303 0.00910997
0002d0 53 29 ee 3d f8 99 cc 3d f2 88 01 3e 21 ed 5d bc
       0.11628976 0.09990305 0.12649897 -0.0135453055
0002e0 67 a8 1f bd bb 2a d2 3d a4 58 df 3d 39 8b 3a 3c
       -0.03897896 0.102620564 0.10905579 0.011385732
0002f0 e5 02 de 3d 66 d1 08 bd 7c 5c 15 bd 8c 29 9b bd
       0.10840396 -0.033402823 -0.036465153 -0.07576284
000300 16 4f 5b ba 68 3c 27 be c4 a1 ee bd 1d 74 73 be
       -0.0008365972 -0.16331637 -0.11651948 -0.23774762
000310 92 49 92 be a4 5e 86 be 45 01 01 be 55 fb 09 bd
       -0.28571755 -0.2624408 -0.1259814 -0.033686955
000320 5a 87 a8 3d 2e 5b d6 3b 73 6b 35 ba a3 c6 c3 3d
       0.08228941 0.006541631 -0.0006920613 0.09559371
000330 f7 43 f0 bc 28 3f 25 bd 93 1f 87 3d d0 66 85 3e
       -0.029329283 -0.040343434 0.06597819 0.26055002
000340 aa dd 53 3e ee 3c 2c 3e 86 1b 72 3e fd 51 18 3e
       0.20690027 0.16820118 0.23643312 0.14875026
000350 fd e1 41 3e bb 17 7b 3e e4 29 2c 3e a7 3f 16 3e
       0.18933864 0.24520771 0.16812855 0.14672719
000360 bb 6f ad 3d 72 88 dd 3d 45 53 6b 3d 34 de 68 3d
       0.084685765 0.108170405 0.05745246 0.056852534
000370 a1 2d fc 3c 60 16 1e 3d a3 ff 88 3d 20 ff aa bc
       0.030783476 0.038595557 0.06689384 -0.020873606
000380 d4 93 8f 3d c1 02 e4 3d 67 bd 34 3d 16 c3 80 bc
       0.07010618 0.11133338 0.04412594 -0.015718024
000390 4c 65 d8 3c 13 d5 97 bd b2 65 80 3c 65 e9 88 3d
       0.02641549 -0.074136876 0.015673492 0.066851415
0003a0 0e 7e 42 3c 5b a2 38 bd 55 f8 3e 3e d6 90 eb 3d
       0.011870874 -0.04507671 0.18649419 0.11502235
0003b0 88 ea 0b 3e 27 56 89 bd 8d 79 00 bd 4e 49 cf bd
       0.13663685 -0.067058854 -0.03136592 -0.10121404
0003c0 57 60 dd bc ff 35 bd bc 7d 58 91 bd 82 54 22 3e
       -0.027023477 -0.023097036 -0.07096956 0.1585255
0003d0 41 e6 b8 3d a9 ee 10 3e 85 b6 e6 3d 3f 17 e9 3c
       0.090282924 0.14153542 0.112652816 0.028453467
0003e0 93 a1 06 3c 75 5e d7 3d 9e c0 0d bd d9 9b 69 3d
       0.008217233 0.10516063 -0.034607522 0.057033394
0003f0 2e db 79 3e 2c ce bd 3e f3 3e 79 3e 0f 73 51 3d
       0.24400017 0.3707136 0.2434042 0.05113512

bias f4 [64]
000000 68 c1 1f 3d a1 be 65 bc 28 47 80 3c c8 ff ef bb
       0.039002806 -0.0140225 0.01565893 -0.0073241927
000010 b5 26 fc bb f0 e4 26 3d a0 cc 6f 3d b5 69 27 bd
       -0.007695044 0.040745676 0.058544755 -0.040872294
000020 42 62 70 bd 83 da 19 3d fb 19 2e 3c c9 60 63 bd
       -0.058687456 0.037561905 0.010626311 -0.055512223
000030 a3 d2 6c 3d b2 69 4b 3d d1 ef 5c 3c 7e 1b 71 3d
       0.057818066 0.049661346 0.013484911 0.05886411
000040 88 c4 34 3d 4a b2 77 bd 95 5c cb ba b0 1d 8e bb
       0.04413274 -0.060472764 -0.0015515262 -0.004337035
000050 fc a2 11 bd f0 a0 13 bd 78 d9 e9 bc a6 2d b0 3a
       -0.035555825 -0.036042154 -0.02854608 0.0013441339
000060 ad b5 70 bc 0c e0 8e 3d ba 41 b1 3c c2 49 31 3d
       -0.014691752 0.06976327 0.021637786 0.04328323
000070 95 6d e3 3c 28 bf 22 3d 06 09 1d bd 75 53 80 bc
       0.027762214 0.039733082 -0.038338684 -0.015664795
000080 ec 1b a8 3a d0 b6 17 bc bd 1f 09 bc d1 e7 1d bd
       0.0012825704 -0.0092598945 -0.008369383 -0.038551155
000090 47 ca 5b 3d db ef 9d 3c bc 1d 0f bd c1 f1 e4 bc
       0.053659704 0.019279411 -0.034940466 -0.027947308
0000a0 ce 16 1b 3d a1 43 1e 3b 3b 53 49 bd bc dd aa 3c
       0.037863545 0.0024149197 -0.04915164 0.020857684
0000b0 65 6c 41 3d b7 f2 e1 bc 83 13 11 3c c9 ac de bc
       0.047222514 -0.027581556 0.00885475 -0.027182
0000c0 18 97 ab 3c d4 7d 5c 3d bc 9d 08 3d 89 56 3a bd
       0.02094607 0.053830937 0.033353552 -0.045492683
0000d0 c9 ae 86 bd b7 40 f9 ba 31 a7 26 3d 3a f0 f8 3c
       -0.065763064 -0.0019016479 0.04068679 0.030387986
0000e0 09 88 d1 bc af 4e 49 bd 49 02 b2 3c 39 7f af bc
       -0.025577562 -0.049147304 0.021729605 -0.02142297
0000f0 a8 3c 09 3d 48 44 82 bb 46 51 dd 3c bd a1 06 3d
       0.033505112 -0.003975425 0.027016293 0.03286909

weight f4 [64]
000000 50 45 6c 3f ee fe 60 3f cf bc 87 3f 62 c4 74 3f
       0.9229326 0.8788899 1.0604495 0.95612156
000010 05 94 99 3f ee 07 51 3f cf 23 6e 3f ff e5 54 3f
       1.1998297 0.81652725 0.9302339 0.83163446
000020 d9 8e 7c 3f bf 6e 63 3f 8f aa 5f 3f 88 65 73 3f
       0.9865547 0.8884086 0.87369627 0.950768
000030 95 f1 72 3f 18 15 6d 3f bd 60 89 3f 9a 1e 80 3f
       0.94899875 0.9261031 1.0732647 1.0009339
000040 46 15 8b 3f c8 72 66 3f 80 25 8b 3f 7b 7d 76 3f
       1.0865867 0.9001889 1.0870819 0.9628522
000050 76 f3 58 3f ef ae 65 3f 7d 99 46 3f a7 13 7b 3f
       0.8474649 0.8972005 0.77577955 0.9807686
000060 38 82 96 3f 5a 15 8f 3f aa 3c 94 3f 95 56 71 3f
       1.175849 1.1178391 1.1581013 0.9427274
000070 4c e7 79 3f 29 48 57 3f a7 26 7d 3f ba c4 47 3f
       0.97618556 0.8409448 0.98887104 0.78034556
000080 50 09 40 3f f1 0f 83 3f ce 94 88 3f 77 de 64 3f
       0.7501421 1.023924 1.0670412 0.89401954
000090 92 f7 66 3f 1c 99 83 3f 91 1d 84 3f 78 7a 8c 3f
       0.9022151 1.02811 1.0321523 1.0974874
0000a0 34 80 72 3f 3d 8d a7 3f b9 94 7f 3f fb 65 3f 3f
       0.9472687 1.3089978 0.9983631 0.74764985
0000b0 8f de 66 3f da d5 5a 3f b7 2d 6d 3f b6 67 70 3f
       0.9018335 0.8548256 0.9264788 0.9390825
0000c0 c6 c6 75 3f 2b d4 88 3f d0 f7 8b 3f 43 e0 94 3f
       0.9600643 1.0689749 1.0935001 1.1630939
0000d0 8e 58 57 3f fa 60 83 3f 58 d0 77 3f 56 c1 99 3f
       0.841195 1.026397 0.9680228 1.2012126
0000e0 26 64 8b 3f 60 c5 75 3f ab 60 63 3f 2a 47 72 3f
       1.0889938 0.96004295 0.8881938 0.9463984
0000f0 dc c8 66 3f bb 23 97 3f 94 97 72 3f 93 49 74 3f
       0.9015024 1.1807779 0.9476254 0.95424765

bias f4 [64]
000000 76 a6 6e be e1 aa ee 3b 91 3d 1d 3b 2e 0b 95 be
       -0.23305687 0.007283554 0.0023992995 -0.29110092
000010 1d dc 5b 3d 04 02 5b be 2c 92 b9 be ba ec 9f be
       0.053676713 -0.21387488 -0.36244333 -0.31235296
000020 51 fb ce 3d 5b 22 17 be eb 75 cb bd 98 29 78 be
       0.101065286 -0.147592 -0.099346004 -0.24234617
000030 2b 99 b4 be c4 42 65 be 53 5b 43 be cc 99 45 be
       -0.35273108 -0.2238875 -0.19077806 -0.1929695
000040 a4 37 a9 3e 77 bf c8 bd da 1f f0 3d ce cb 72 be
       0.33050263 -0.09802144 0.11724825 -0.23710558
000050 66 dc b7 be 92 97 d2 bd 67 88 89 be 69 e9 80 be
       -0.35910338 -0.10282816 -0.2686188 -0.25178078
000060 7e 2d 2b 3e 46 44 87 3c 8d 98 87 be a0 da 1a be
       0.16716573 0.016512047 -0.26483575 -0.15122461
000070 3a d6 3b be 2b 8d 9c 3d a4 1f 20 bd 4a 25 a0 bd
       -0.1834344 0.07644113 -0.039092675 -0.07819612
000080 ff 3a 95 be ba d3 e4 be 24 64 51 3e 10 73 d1 be
       -0.29146573 -0.44692785 0.20448357 -0.40908098
000090 ae 40 a9 be 97 10 f5 bd 29 b9 53 be 2d d0 f0 bc
       -0.3305716 -0.11966055 -0.20676102 -0.029396141
0000a0 ce 77 49 be 17 d0 a6 3e 2e f2 62 be 83 d1 07 be
       -0.19674608 0.32580635 -0.22162697 -0.13263516
0000b0 72 0d 2f be 5d 0c 92 bd 39 be ab bd 5a 3d 9f be
       -0.17094973 -0.07131264 -0.083858915 -0.31101495
0000c0 1e 74 a3 be f9 a9 3c 3c 51 93 a6 bc 9c 9a 5d 3c
       -0.31924528 0.011515134 -0.020333918 0.013525631
0000d0 59 6d 9e be b5 f8 16 bd 33 00 89 be f1 4b c4 bc
       -0.309428 -0.03685828 -0.26757964 -0.023961993
0000e0 3c 53 de be 8d 56 fb bc 4a 1c aa bd 6a 83 a3 3d
       -0.43422878 -0.030680919 -0.08306177 0.079840496
0000f0 bf f8 a2 be e7 d1 3a bd 94 bd 9c be cd c7 4b be
       -0.31830403 -0.045610335 -0.30613387 -0.19900437

running_mean f4 [64]
000000 09 28 b9 3f bd f9 ca c0 ad 04 93 bf e1 c8 2a 40
       1.4465343 -6.3429856 -1.1485802 2.6685107
000010 77 99 5c bf 9f 1f 89 c0 18 7c 73 40 20 67 b3 c0
       -0.8617167 -4.28511 3.804449 -5.6063385
000020 f9 94 e1 c0 e9 1f 97 c0 22 77 bb bf 5a 80 05 c0
       -7.049435 -4.7226453 -1.4645731 -2.085959
000030 17 e7 38 40 be e1 41 c0 21 4e 22 bf fa 8e d0 3e
       2.8891046 -3.0294032 -0.63400465 0.40734082
000040 89 6c 30 bf 5f 5f 93 c0 13 31 95 3f 83 d6 e8 be
       -0.6891561 -4.605392 1.1655601 -0.4547616
000050 13 a6 f6 c0 c5 e3 3d 3f 73 9b 99 c0 51 84 46 40
       -7.7077727 0.74175674 -4.8002257 3.101826
000060 d0 96 1d 40 18 45 62 3d a4 83 40 40 89 76 88 c0
       2.4623299 0.055241674 3.0080347 -4.2644696
000070 98 00 92 40 66 d2 fd c0 98 91 70 c0 a8 36 2b c1
       4.5625725 -7.9319334 -3.7588863 -10.700844
000080 64 dc f6 bf c9 16 9b 40 e4 e5 32 3e 8e 85 33 c0
       -1.9286008 4.8465314 0.17470509 -2.8050265
000090 ac 1b c8 c0 09 86 50 c0 dc f8 53 bf 20 1a f2 3d
       -6.253378 -3.2581809 -0.82801604 0.11821389
0000a0 86 8c 1a 41 32 48 59 c0 50 db 35 c0 0c 33 05 c1
       9.6593075 -3.3950315 -2.8415108 -8.324963
0000b0 25 23 1f c0 df b1 d6 c0 16 1a a3 c0 a7 48 23 c0
       -2.48652 -6.709213 -5.0969343 -2.5513093
0000c0 c0 41 da c0 25 30 b9 c0 1d 97 91 3e 7b d0 ee bf
       -6.820526 -5.787127 0.28435603 -1.8657373
0000d0 59 df 88 bf 5a f8 86 be 9f e9 af c0 51 1b 5c 3f
       -1.069316 -0.26361352 -5.497268 0.8597918
0000e0 e0 35 e3 40 93 31 3c 3f 84 fb 2c c0 d5 49 a9 3f
       7.1003265 0.73513144 -2.7028513 1.3225657
0000f0 d1 b2 f3 40 1f 0e e8 bf 91 c9 ed c0 11 0c a8 c0
       7.615578 -1.812931 -7.4308553 -5.251473

running_var f4 [64]
000000 7a ad 0b 41 ca ad fd 41 f7 b5 4d 41 22 2a d1 40
       8.729853 31.709858 12.856925 6.536393
000010 16 45 83 40 b2 8f ac 41 34 c3 83 41 2b eb 9c 41
       4.1021833 21.570164 16.470314 19.614828
000020 35 bf 84 41 c6 65 56 41 b5 c8 d7 40 65 07 51 41
       16.593363 13.399847 6.7432504 13.064305
000030 40 68 8a 41 ca a1 a6 41 6d c0 be 41 ae c0 c1 41
       17.300903 20.828999 23.843958 24.219082
000040 79 29 65 40 1b 9b 1f 41 3f 50 39 41 64 21 a6 41
       3.5806563 9.975368 11.582091 20.766304
000050 b7 91 f8 41 a7 cc 15 41 65 76 7e 41 42 0c 12 41
       31.07115 9.362464 15.903905 9.127993
000060 8a b7 38 41 e1 32 23 41 13 b0 c6 41 34 83 0c 41
       11.544809 10.199922 24.835974 8.782032
000070 69 64 80 41 8b c6 a1 41 c4 fb 40 41 96 a4 c8 41
       16.049028 20.221945 12.061466 25.080364
000080 45 bf e7 41 dd b0 8d 41 5b 7b 15 41 37 28 88 41
       28.968393 17.711359 9.342616 17.019636
000090 4b d0 83 41 3f ef 9e 41 8b d9 b0 41 3f ea 49 41
       16.476706 19.86682 22.106222 12.619689
0000a0 41 fb f7 41 41 85 7b 41 01 53 68 41 fd 18 c8 41
       30.997683 15.720033 14.520265 25.012201
0000b0 b6 17 3c 41 f2 29 c2 41 51 64 af 41 2c 7c 91 41
       11.755789 24.270481 21.923983 18.18563
0000c0 70 42 af 41 70 3a 63 41 05 e1 ae 40 e5 0f cd 40
       21.90744 14.201767 5.464968 6.4081903
0000d0 c5 93 a9 40 36 ae 19 41 ea 5f 78 41 55 75 f6 40
       5.2992883 9.605032 15.5234165 7.7018228
0000e0 92 bc ed 41 a9 21 c1 40 ff 70 c1 40 85 0b a1 40
       29.717075 6.035359 6.0450435 5.032656
0000f0 83 6f da 41 ab 1a 29 41 49 6d 34 42 4e d9 43 41
       27.30445 10.569011 45.106724 12.240553

weight f4 [128, 64, 3, 3]
000000 bc 34 ae 3d 8c 18 c4 3d c2 4d 51 3d 18 ca a5 bc
       0.08506152 0.095749944 0.051099546 -0.020237967
000010 80 e0 53 bc 81 ce 4d bc a8 8e a4 3c 83 71 21 bd
       -0.012931943 -0.012561441 0.020087555 -0.039414894
000020 76 73 05 3d df cb a3 bd a0 1b 79 bd 2a 62 e4 3a
       0.032580815 -0.0799787 -0.06081736 0.0017424275
000030 7e df c4 bd 5f 84 6b bd a4 4f 29 3d 44 4a 93 bd
       -0.0961294 -0.057499286 0.041335717 -0.071918994
000040 5c e0 55 bd 37 3a d0 3c b6 98 35 3d ce e1 3b 3d
       -0.05221592 0.025418384 0.04433509 0.04586964
000050 68 af ac 3c a4 f2 ed 3c 5e 02 40 3d 48 4e 05 bd
       0.021079734 0.029046364 0.046877258 -0.032545358
000060 6b 6b 6f bc e2 dc 12 bd 23 07 bc ba b8 e7 6f 3d
       -0.014613013 -0.03585518 -0.0014345389 0.058570594
000070 d2 66 e8 bd a9 6d 35 bd 8e 13 ab 3c c6 cc 00 bd
       -0.113477364 -0.044294033 0.020883348 -0.031445287
000080 cd ca 4c bd 39 f1 9f 3c 02 66 b4 3c d3 c5 a6 bb
       -0.049998093 0.019524204 0.022021297 -0.0050895005
000090 a3 91 0f 3d 1f 13 f0 bd 1d fe 09 3e 98 56 22 be
       0.035051 -0.11722397 0.13475843 -0.15853345
0000a0 db 40 0a be 28 8b e3 3d 1b 10 23 bd 43 6f cc bc
       -0.13501303 0.11110526 -0.03981028 -0.024955397
0000b0 cc d9 6e 3e 60 7c 0e be 0e f3 b9 bd 15 70 b6 bd
       0.2332527 -0.13914633 -0.09079562 -0.08908097
0000c0 4e fc 3e be 9d 02 fa bd 4c 1b 7b bd 6d b9 0d be
       -0.18650934 -0.1220753 -0.06130533 -0.13840266
0000d0 d8 3e 0b be 82 e8 ff bd 3c 11 95 bd be 50 d4 bd
       -0.13598192 -0.12495519 -0.07278678 -0.10366963
0000e0 95 39 01 3d aa 72 82 bc d9 59 14 3b 98 4c c4 3b
       0.031549055 -0.015923817 0.0022636561 0.005990576
0000f0 90 78 d7 3b fb 17 ed 3c 5c 70 8e 3d 14 cc 60 be
       0.0065756515 0.028942099 0.069550246 -0.2195285
000100 b9 a4 47 be 25 6f 3c be 31 2a 3e be 7e e8 1b be
       -0.1949643 -0.18401773 -0.18570782 -0.15225407
000110 77 43 cf bd 7c 2a 0b be 86 91 c4 bd 35 3c a3 bd
       -0.1012029 -0.13590425 -0.09598069 -0.07970468
000120 24 c5 71 bd e2 93 89 3c 78 e2 23 3d c9 a8 a6 bd
       -0.0590259 0.016794149 0.0400109 -0.08137662
000130 d7 7b 39 bc 9b 08 55 3d d2 19 e7 3a 73 d7 1e bc
       -0.01132103 0.05201016 0.0017631596 -0.009694922
000140 a3 a8 9f 3d 56 de d0 bd f3 3a 5e 3c f6 5b d7 bb
       0.07795837 -0.10198657 0.013563859 -0.006572242
000150 da 36 fe bd 7b 6f 9b bd d6 1b 36 3c e8 42 ad bd
       -0.12412806 -0.075896226 0.011115035 -0.08460027
000160 c0 d2 af bd b9 58 a7 bc 8c a5 2e be 3c ca d6 bd
       -0.08585119 -0.020428048 -0.17055339 -0.10487792
000170 03 58 b0 bd 21 ef b8 bd a1 78 93 bd 9d 37 f0 bd
       -0.08610537 -0.09029985 -0.072007425 -0.117293574
000180 88 5a a8 bd 30 17 a2 bd 90 35 da bd bc bd 49 bc
       -0.082203925 -0.07914579 -0.106547475 -0.012313303
000190 69 32 b1 bb 96 5a 25 3d 69 bc d4 bc 9d 9e 6d 3c
       -0.0054076207 0.040369593 -0.025968747 0.014503148
0001a0 6b 61 62 3d 9e 95 b2 3d 8f d4 9e 3d b1 93 b8 3d
       0.055268686 0.087199435 0.07755386 0.09012545
0001b0 86 1e 85 bd ab a7 ad bd 0b cf b3 bd 9e 46 61 bd
       -0.064999625 -0.08479246 -0.08779725 -0.054998986
0001c0 5d 8b 87 bd bb 6a 17 bd 45 56 c8 bb 0c 5a d7 3b
       -0.06618378 -0.03696702 -0.0061137998 0.0065720137
0001d0 ba 39 87 bb cc 13 d5 bd e3 b9 f8 bd 92 dd b9 bc
       -0.0041267546 -0.104041666 -0.1214483 -0.02268866
0001e0 b0 b4 95 bd ce 53 b5 bd 25 d9 eb bc b7 a0 ec bd
       -0.07309854 -0.08853875 -0.028790066 -0.115540914
0001f0 1c 98 80 bd 4a 09 4d 3c f8 cf ee bd 81 61 e6 bd
       -0.062790126 0.012514422 -0.11660761 -0.11249066
000200 d3 60 89 bd fd 34 10 bd b4 20 b9 bd 82 d1 78 bd
       -0.06707921 -0.035206784 -0.09039441 -0.060746677
000210 c7 3a 45 bc 7a c4 dd bc 02 14 81 bd 67 74 d8 bd
       -0.012037939 -0.027071226 -0.06302644 -0.10569077
000220 e7 ad ee bd 25 20 0a bd 28 bf 9b 3a 10 01 88 bc
       -0.11654263 -0.03372206 0.001188253 -0.01660207
000230 72 c4 87 bd 7b 1e 47 3d a1 1c eb 3c 20 f4 2b bd
       -0.06629266 0.048613053 0.028700175 -0.041980863
000240 4c 01 c1 3e 25 3d 44 3e 28 7d 80 3e c5 ef 3e 3e
       0.37696302 0.1916395 0.25095487 0.18646152
000250 f6 ae 9a 3d 8d ba 31 3e b2 25 c3 3d ea 5b 65 3d
       0.075529024 0.1735632 0.09528674 0.05599586
000260 8c 8d 28 3e 54 f2 1d be d2 61 fd bd dd b3 9e bd
       0.16460246 -0.15424472 -0.12372173 -0.0774915
000270 b0 6a 09 be 7d da 2a be 89 71 c0 bd 32 25 0d be
       -0.13419604 -0.16684909 -0.09396655 -0.1378372
000280 c4 a8 b9 bd 7b f7 92 bd b0 79 2a 3e 2a c7 8e 3d
       -0.090653926 -0.071761094 0.16647983 0.06971581
000290 dc 29 77 3d c5 85 f3 3c 2b 2d 4c 3d 44 d9 60 3c
       0.060342655 0.029726872 0.049847763 0.013723675
0002a0 f8 57 e0 3d 4c 88 41 3d 76 2a 32 bc cb 98 61 3d
       0.10954279 0.047249123 -0.010874381 0.055077355
0002b0 a6 a3 fd bb 3f 8a 69 3c cd 55 bc 3d 04 19 85 bc
       -0.0077404557 0.014254152 0.09196053 -0.01624728
0002c0 c7 47 0a 3d 14 1c e1 3c 95 c9 95 3c f3 b8 62 bb
       0.03375986 0.027479209 0.018284598 -0.0034595102
0002d0 b6 34 cd bd e1 99 1d be 12 04 06 be 8e ff b5 bd
       -0.100198194 -0.15390731 -0.1308749 -0.08886634
0002e0 a5 d1 cd bd 56 df ae bd 9f 6d c5 bd 5c c1 75 bd
       -0.10049752 -0.08538692 -0.09640049 -0.059998855
0002f0 ae b4 d8 bd 7d d5 b0 bd dd 05 9a bd d9 6e a0 bd
       -0.10581337 -0.0863447 -0.075206496 -0.078336425
000300 3a ba 02 be d3 72 06 be c1 03 18 be ae 5a 97 bd
       -0.12766352 -0.1312974 -0.14845182 -0.07390343
000310 38 ef c3 bd 04 3f 90 bd 42 3f d6 bb 68 10 8b 3c
       -0.09567112 -0.07043269 -0.0065383026 0.016975597
000320 28 45 18 3d 17 00 9a 3c f7 df df bc 01 7b b4 ba
       0.037175328 0.018798871 -0.027328474 -0.0013769568
000330 92 2f 77 bd 63 62 90 bc 37 fa b8 bc 8f 0a 2c bd
       -0.0603481 -0.01762504 -0.02258025 -0.042002257
000340 c0 85 e7 bc d4 f4 da 3c cf 56 72 bc 65 92 7a 3c
       -0.02826202 0.026728071 -0.014791205 0.015293692
000350 05 93 80 bc 78 ae 57 3d 2e 37 4f 3d 25 ba 44 bc
       -0.015695104 0.05265662 0.050589733 -0.012007271
000360 41 8e c7 3e d1 b6 96 3e 4f 43 19 3e 93 cf 76 3e
       0.3897572 0.29436353 0.14967082 0.24102621
000370 23 c2 58 3e d8 08 bf 3d 74 72 78 3e 1e e4 56 3e
       0.21167807 0.09327859 0.2426241 0.20985457
000380 98 9d 46 3e 89 be ac 3b 81 9e af bd fe 0c fd 3b
       0.19396055 0.005271737 -0.08575154 0.007722496
000390 da 86 36 bd ca 73 8e bd b9 30 4e bd c7 a5 99 3c
       -0.0445622 -0.06955679 -0.050339434 0.018755807
0003a0 5c b9 ac bc d8 f0 84 bd ef 85 6f bd f8 49 a9 bd
       -0.02108448 -0.0649125 -0.05847734 -0.082660615
0003b0 c4 d9 41 bd 1c 1c 8c bd e2 78 c7 bd 67 d0 92 bd
       -0.047326818 -0.06841299 -0.097398534 -0.07168656
0003c0 08 8a 35 3d 30 da ac b9 d6 2e 41 3c b7 d0 ae 3d
       0.04432109 -0.0003296896 0.011790952 0.08535903
0003d0 5a 93 b8 3d 01 7a 26 3e 38 c4 cf 3d 45 74 0b 3e
       0.0901248 0.16257478 0.10144848 0.13618572
0003e0 fc 86 0f 3e 75 72 02 3d a2 c6 72 3d 05 24 0b 3e
       0.14016336 0.031847436 0.059271462 0.13587959
0003f0 a0 ef 31 bd 68 aa ed bc 74 1f 81 3b 28 88 69 bd
       -0.043441415 -0.02901192 0.003940517 -0.057014614

bias f4 [128]
000000 e5 54 0f 3c 89 f6 10 3d 44 1a ed bc 5e 27 24 3d
       0.008748268 0.035391364 -0.028943188 0.040076606
000010 50 e4 15 bd 78 21 0c 3d ad cc 0d bd 81 65 0d 3d
       -0.03659469 0.034211606 -0.034619022 0.03452063
000020 f3 62 0e bd 95 65 08 3d 66 11 a2 bc 87 b6 45 bc
       -0.034762334 0.0333 -0.019783687 -0.012067444
000030 13 af 21 bd 66 ff 50 3c 2c a7 2e 3c 0e 4a 16 3d
       -0.039473604 0.012756204 0.010659974 0.036691718
000040 1b ec b3 bc 26 39 23 bd 74 cf e9 3c e4 1b 66 bc
       -0.02196317 -0.039849423 0.028541304 -0.014044736
000050 95 79 e6 3c b1 37 dd 3b 6a 40 53 bb 94 68 fa 3c
       0.028134147 0.0067510237 -0.0032234439 0.030567445
000060 01 68 1b 3d 04 45 33 bc 78 b0 c9 3c 0f f4 e1 bc
       0.037940983 -0.010941748 0.02462028 -0.027582197
000070 4c 2b 04 bd 18 de ce bc 41 6b bf bc 24 e6 9d 3a
       -0.032267854 -0.025252387 -0.023366572 0.0012046737
000080 64 31 0c 3d 04 e2 1e 3c d5 30 5e 3c 99 14 d8 3c
       0.03422679 0.009697441 0.013561447 0.02637701
000090 37 d5 96 3c 1b 4e 04 bd ae 91 8b 3c db a6 09 3d
       0.018412216 -0.03230105 0.017037239 0.03360639
0000a0 bb 64 26 3d 5c 8a dc 3c a5 95 b5 3c a6 0a 22 bd
       0.040623408 0.026921444 0.022166083 -0.039560936
0000b0 9c c2 57 3c fc e1 c9 3c bf 6c 3a 3d 4b 07 94 3c
       0.013168957 0.02464389 0.045513865 0.018069884
0000c0 79 f1 0c bd e6 22 f0 bc a3 77 31 bc 1d e1 be 3b
       -0.034409974 -0.029313516 -0.010831746 0.0058251754
0000d0 05 27 c1 bc fa 87 4c 3c 8a b3 b1 3b f8 a0 fd bc
       -0.023578176 0.012483591 0.005423014 -0.030960545
0000e0 b3 70 aa 3c 80 d4 1e bd ec f6 7f bc 4d ca 1a bd
       0.020805692 -0.038776875 -0.015622836 -0.037790585
0000f0 cc 49 34 3c 7e b7 7d 3c 0d e2 13 bc a0 2d b6 bc
       0.011003923 0.0154856425 -0.009026063 -0.022238553
000100 48 ea f4 bc 8a 11 67 ba 24 40 b7 bc 28 a8 4b bc
       -0.02989687 -0.0008814564 -0.022369452 -0.012430228
000110 70 2e 74 bb c5 10 9e bc 22 c8 f8 bb 08 a0 d2 3b
       -0.0037259124 -0.019295106 -0.007592217 0.0064277686
000120 8b 1c 12 3d 49 e7 39 bc 57 fe bc 3c 87 35 5f bc
       0.035671752 -0.011346647 0.023070497 -0.013623602
000130 bd 08 43 3b 09 00 db bc 25 3c e2 3c ba 35 e3 3c
       0.0029759847 -0.026733415 0.02761657 0.02773558
000140 93 bc cf bc bc c5 32 3c d3 dc 28 3c 95 a6 aa bc
       -0.025358474 0.010911401 0.010306555 -0.020831386
000150 2f 83 02 bd a8 dc b3 3b 85 60 14 bd 71 dd 01 bd
       -0.031863388 0.0054889508 -0.03622486 -0.031705324
000160 b4 59 99 3c fe f7 33 bc d6 ea 1e 3d b0 3a 01 bd
       0.018719532 -0.010984419 0.038798176 -0.03155011
000170 cd ea ec bc 62 d4 1b 3d d8 1e 21 3d d4 12 ca bc
       -0.028920555 0.03804434 0.039336056 -0.024667181
000180 38 bb 70 3b 19 be c9 3c fe da 6e bc bc 71 07 bc
       0.0036732685 0.024626778 -0.014578579 -0.0082668625
000190 f5 a6 50 bc a0 8a a1 bc 4c 12 44 bc 9a 8d de 3b
       -0.012735118 -0.019719422 -0.011967253 0.0067917826
0001a0 56 4d 0c bd 27 e4 c0 bc 8f ae 11 bd 2c 0c 25 bd
       -0.03425344 -0.023546292 -0.035566863 -0.04029481
0001b0 f1 00 e6 3c f8 b9 55 3c b9 0b d0 3c 14 95 e5 3c
       0.02807662 0.013044827 0.025396215 0.028025188
0001c0 96 4d 09 39 00 7b ae 3c 83 24 b0 bc a0 76 02 bd
       0.00013094241 0.021298885 -0.021501785 -0.03185141
0001d0 5a 38 08 3d e9 56 a2 3c 77 94 07 3d ef 87 23 bc
       0.033256866 0.019816833 0.03310057 -0.00998114
0001e0 82 01 84 bc 77 ca 0c 3c fe ad 8e 3c fb 93 3d 3c
       -0.016114 0.008593193 0.01741695 0.011570926
0001f0 d2 40 83 bc 3c da 21 bc 19 b4 a9 3c c0 a9 1f 3d
       -0.01602212 -0.009878691 0.02071576 0.038980246

weight f4 [128]
000000 dc 4f 6c 3f f6 df 8b 3f eb fe 40 3f 3e c0 61 3f
       0.92309356 1.0927722 0.75388974 0.88183963
000010 1f 38 3c 3f 59 60 97 3f 0b 90 46 3f a2 08 6b 3f
       0.73523134 1.1826278 0.7756354 0.9181005
000020 c6 3a 5e 3f 15 ad 5a 3f 1e dd 5d 3f fa 95 86 3f
       0.8680843 0.8542035 0.86665523 1.0514519
000030 24 81 69 3f 8b 24 5e 3f 92 a0 4c 3f 2a e8 82 3f
       0.9121268 0.8677451 0.7993251 1.0227101
000040 31 6e 88 3f 0d 83 94 3f 39 de 8b 3f 6c 08 66 3f
       1.0658628 1.1602494 1.0927192 0.898566
000050 07 14 6a 3f 04 13 49 3f fc a2 81 3f 75 4d 6d 3f
       0.9143681 0.7854464 1.0127864 0.92696315
000060 f5 df 83 3f ac 8e 87 3f 0e c1 90 3f 76 c3 50 3f
       1.0302721 1.0590415 1.1308916 0.8154825
000070 c0 e3 70 3f 45 18 6f 3f 8f 11 83 3f cf f6 77 3f
       0.9409752 0.9339641 1.0239733 0.96860975
000080 af 8c 0c 3f 93 10 56 3f 8f 14 7d 3f 6f b4 a8 3f
       0.54902166 0.8361904 0.98859495 1.3180064
000090 7f 25 5b 3f 2a bf 64 3f 5a 36 53 3f 15 95 59 3f
       0.8560409 0.89354193 0.8250481 0.84993106
0000a0 27 b8 86 3f 0e 0a 84 3f 20 74 9d 3f bc 32 6a 3f
       1.0524949 1.0315568 1.2301064 0.91483665
0000b0 c9 1f 7f 3f 3f cc 76 3f b2 56 8f 3f 71 6c 9f 3f
       0.99657875 0.96405405 1.1198332 1.2454969
0000c0 4b dc 81 3f 80 9d 80 3f 12 c9 64 3f 93 a7 47 3f
       1.0145353 1.0048065 0.8936931 0.7799007
0000d0 3d 58 5c 3f 27 7c 4e 3f 46 42 5b 3f 28 2f 59 3f
       0.8607214 0.8065819 0.85648 0.8483758
0000e0 ad c3 86 3f b3 57 64 3f 9b 5a 9a 3f 95 e3 88 3f
       1.0528466 0.8919632 1.20589 1.0694453
0000f0 bb 6c 7d 3f 81 dc 54 3f e1 78 4a 3f e6 e5 9f 3f
       0.98994035 0.8314896 0.79090697 1.2492034
000100 72 2b 4d 3f 59 dc 69 3f e8 62 47 3f 1d a9 83 3f
       0.8014442 0.9135185 0.77885294 1.0285984
000110 b0 20 77 3f d5 46 83 3f eb 3c 65 3f f5 ae 6c 3f
       0.9653425 1.0255991 0.8954608 0.92454463
000120 34 f9 71 3f 3c 06 80 3f 47 5a 86 3f 0c 47 82 3f
       0.9452088 1.0001903 1.04963 1.0177932
000130 1d 8c 63 3f d5 5d 64 3f c5 2b 78 3f e7 a0 87 3f
       0.8888567 0.89205676 0.96941787 1.0595978
000140 5f d5 75 3f 36 aa 8c 3f 23 b2 7a 3f ae ae 6f 3f
       0.96028703 1.0989444 0.97928065 0.93625915
000150 35 5d 61 3f bd ae 5e 3f ec 74 96 3f 02 f1 5f 3f
       0.8803285 0.8698538 1.1754432 0.87477124
000160 3e 56 88 3f 19 22 7c 3f 1f 95 8e 3f 23 72 3d 3f
       1.0651319 0.9848953 1.1139258 0.74002284
000170 2e c5 32 3f 25 4e 81 3f 1b f3 81 3f 68 7e 3c 3f
       0.6983212 1.0101973 1.0152315 0.7363038
000180 9b b2 67 3f c8 0a 8c 3f 80 6e 72 3f bb 6b 87 3f
       0.90506905 1.094079 0.9469986 1.0579752
000190 90 4c 68 3f ce 20 5b 3f 94 55 58 3f fb ce 82 3f
       0.90741825 0.8559693 0.8450558 1.0219415
0001a0 8c cd 44 3f 4f b0 47 3f 62 f9 1f 3f 15 70 72 3f
       0.7687614 0.780034 0.624899 0.94702274
0001b0 4f f6 3e 3f 63 c3 91 3f b0 c7 37 3f 16 e6 5c 3f
       0.7459459 1.1387752 0.71789074 0.86288583
0001c0 50 5b 4f 3f 66 82 79 3f 25 60 a1 3f ee 9f 57 3f
       0.80998707 0.974646 1.2607466 0.8422841
0001d0 2a f2 55 3f 3f 6c 69 3f 6e ad 83 3f 6b 98 60 3f
       0.8357264 0.91180795 1.0287302 0.8773257
0001e0 70 ab 93 3f de 75 82 3f 21 85 8d 3f 6a 35 49 3f
       1.1536694 1.019222 1.1056253 0.7859713
0001f0 78 ff 39 3f 48 ea 76 3f 6f 13 84 3f ef 21 6b 3f
       0.7265544 0.96451235 1.0318431 0.91848654

bias f4 [128]
000000 f6 d6 7a be 70 9d c8 be cc a2 6a be 21 33 fb bd
       -0.24496064 -0.39182615 -0.22913665 -0.122656114
000010 c2 83 db be 41 70 05 be ea 6a 61 be 9f d9 fc bc
       -0.4287396 -0.13031103 -0.2201344 -0.030865489
000020 fb 64 57 be e9 59 9e be 9b 97 59 be 3f 69 4c be
       -0.21034615 -0.3092797 -0.21249239 -0.19962023
000030 be c1 e6 3d fd d3 39 be e1 e3 88 be 22 a2 50 be
       0.11267422 -0.18147273 -0.26736358 -0.20374349
000040 c0 40 81 be 90 46 6e be 59 d1 dc 3b 2b f8 37 bd
       -0.25244713 -0.23269105 0.0067388234 -0.044914406
000050 e6 4a 86 be 9e 93 85 be 9c c5 ca bd b1 d5 02 be
       -0.26229018 -0.26089185 -0.09900972 -0.1277683
000060 42 21 8c be e7 dd b2 bb 7d 44 4f bd b8 d2 64 bd
       -0.27369124 -0.0054585817 -0.050602425 -0.05586502
000070 08 eb 77 bd d5 f8 99 bd 10 53 93 be 15 ff 84 3e
       -0.060526878 -0.07518164 -0.2877431 0.25975862
000080 a6 06 46 be 45 7c b8 be da 76 af bc 3e f2 e1 bd
       -0.19338474 -0.3603231 -0.021418978 -0.11032532
000090 b5 ae f3 bd b8 7d c1 bd 62 ef ca be 20 ca 66 be
       -0.11898557 -0.09447807 -0.3963576 -0.22538042
0000a0 4f b5 4c bd e2 f0 f0 bd 8c bc 1f be 1e ef 01 be
       -0.049977597 -0.11764695 -0.15599269 -0.12688872
0000b0 12 e9 c5 bc fb 80 80 3d c9 14 46 bd 8c eb 92 be
       -0.024158988 0.06274601 -0.048359666 -0.28695333
0000c0 19 c6 d3 bd 79 60 f7 bc 25 ad 26 be 85 61 15 be
       -0.103405185 -0.030197369 -0.16276987 -0.14587982
0000d0 7e 6f 16 be 40 7a 44 be 07 68 bf be 31 d1 fd bd
       -0.14690968 -0.1918726 -0.37384054 -0.12393416
0000e0 e8 7a 09 be 7a 0f 31 be 81 da ba bd 64 3e d1 be
       -0.13425791 -0.1729106 -0.091237076 -0.40867913
0000f0 dd 40 60 be 78 8b 35 be 1c ab 37 be 6a b3 79 bd
       -0.21899743 -0.17728984 -0.17936367 -0.06096212
000100 e5 3c 8c be 36 50 27 be ce 5d d8 be 7e 23 e0 bd
       -0.2739021 -0.16339192 -0.42259067 -0.109442696
000110 0e c6 91 bd a5 64 7b be 85 92 24 be 66 18 9f be
       -0.07117854 -0.24550112 -0.16071518 -0.31073302
000120 d3 d4 f8 3b 52 35 83 bd 24 72 74 be 29 14 ac bd
       0.00759373 -0.064066544 -0.23871666 -0.08402283
000130 f7 77 67 be 3d 2f 17 be b3 3d d8 bd c3 85 d7 bd
       -0.22604357 -0.14764114 -0.10558643 -0.1052356
000140 2f 22 ed bd d2 f0 85 be c2 e8 a0 bc 9c 3f a9 bd
       -0.11578786 -0.26160294 -0.019642238 -0.08264086
000150 ae 7b 81 bd d9 11 41 be 7e f0 df be ea 35 69 be
       -0.06322418 -0.18854465 -0.43738168 -0.22774473
000160 29 2e 03 be c6 7b db be d2 fe 9a bd e1 c2 85 be
       -0.12810577 -0.4286787 -0.07568134 -0.26125243
000170 1f ed b0 be 23 a9 74 bc 14 aa 1c be 51 23 0f be
       -0.3455591 -0.014932903 -0.15299255 -0.13978316
000180 84 93 64 be 2f e9 31 be 5a bb 86 bd 17 7d 9c 3c
       -0.22321898 -0.17374109 -0.06578703 0.019102616
000190 aa 5d e9 bd cd 20 25 be 5f fc 4d be 7d 92 e8 3d
       -0.11394818 -0.16125794 -0.20115803 0.113560654
0001a0 c7 3b 98 be bf 85 80 be 71 5d 95 bd ec 72 cf bd
       -0.29733106 -0.2510204 -0.07293213 -0.101293415
0001b0 7d 6b 97 be ba 89 9d bd a6 fd 26 be f0 07 1b be
       -0.29574195 -0.07692285 -0.16307697 -0.15139747
0001c0 df 51 82 bc c1 06 cb bd be 8c 7a be 47 cd b5 be
       -0.01590818 -0.099133976 -0.24467751 -0.35508177
0001d0 41 4d 92 be c3 5f 28 be 20 07 45 be 0e dd 42 be
       -0.28574565 -0.1644278 -0.19240999 -0.19029638
0001e0 58 00 8a bd c5 78 0e bd a3 5e 73 3e 18 8a fc bd
       -0.06738347 -0.034783144 0.2376657 -0.12331027
0001f0 33 35 85 be 02 9b 4e be 51 9b e5 bd 08 54 b0 3e
       -0.2601715 -0.20176318 -0.11211265 0.3443911

running_mean f4 [128]
000000 d2 aa 3f c0 f9 97 68 bf dc d8 3a c0 93 48 05 c1
       -2.994801 -0.9085689 -2.919486 -8.330218
000010 15 84 84 bf dc ce 9d 3f 15 85 94 bf 4b 9b 15 c0
       -1.0352808 1.2328753 -1.1603113 -2.3376033
000020 04 24 89 c0 a6 27 ad c0 f3 28 d1 c0 d4 ac a9 40
       -4.2856464 -5.41109 -6.5362487 5.302347
000030 26 f6 6f c1 2d a2 0b c1 b9 75 03 c1 e6 06 cf 3e
       -14.997595 -8.727094 -8.216241 0.4043495
000040 1b 3d 39 bf 10 d2 b3 bd db 12 eb 40 71 b2 89 c0
       -0.72358865 -0.087803006 7.3460517 -4.3030324
000050 21 96 98 c0 d3 3b 8b be 4e a4 5e 3e 75 0b fc 3f
       -4.7683263 -0.2719408 0.21742365 1.9690996
000060 ba 69 73 bf 8c a2 98 3f 64 8a 34 bf 0b 04 55 c1
       -0.950832 1.1924605 -0.7052367 -13.313487
000070 56 35 44 3f 4b 55 0c 3e 85 4d 14 41 d3 d7 64 c1
       0.76643884 0.13704412 9.268926 -14.302691
000080 46 b9 40 c1 93 14 b5 bf 46 df ec 3f 79 3b af be
       -12.045233 -1.4146904 1.8505638 -0.34225062
000090 80 e0 72 40 a8 f5 b3 bf 71 de 96 bf 70 ab 0b c1
       3.7949524 -1.4059343 -1.1786634 -8.729355
0000a0 76 a0 d9 40 37 64 bb c0 a7 05 82 bf ce 04 ca c0
       6.8008375 -5.8559833 -1.0157975 -6.3130865
0000b0 54 ac 02 3e 56 84 16 c0 39 7d 05 41 8c b0 dd 3e
       0.1276105 -2.3518271 8.343072 0.43298757
0000c0 a5 49 80 bd fb 12 4a 40 df 2a 77 c0 78 05 fa c0
       -0.062640466 3.1574085 -3.8619916 -7.8131676
0000d0 f5 d7 48 c1 ba 38 08 c0 59 3c d9 bf 23 70 a6 c0
       -12.552724 -2.1284623 -1.6971542 -5.2011886
0000e0 55 20 e3 3f be 1b 10 c1 59 81 01 c0 4b d6 4a 40
       1.7744242 -9.006773 -2.0235198 3.1693294
0000f0 5f 25 f2 3f ea 33 11 c1 79 17 00 c1 e3 3f 02 3f
       1.8917655 -9.075174 -8.005731 0.50878733
000100 cc b4 77 c0 f6 c1 02 c1 c8 51 29 3f 75 6c 28 40
       -3.87041 -8.172354 0.66140413 2.6316197
000110 95 08 56 3f e3 4b 8a 40 70 fb ea c0 3b db ae c0
       0.83606845 4.3217635 -7.343193 -5.4642615
000120 5d e9 c1 3d 70 97 fc c0 9d 0a a1 40 5e 1b fc 3f
       0.09468339 -7.893486 5.0325456 1.9695852
000130 bc b5 9b c0 8f 9e a0 c0 b0 32 08 c1 6f 1b 92 bf
       -4.8659344 -5.0193553 -8.512375 -1.1414622
000140 30 47 fc c0 f1 44 f4 40 fa 25 35 40 71 d1 c8 c0
       -7.88369 7.6334157 2.830443 -6.2755666
000150 f8 22 47 c0 56 c5 8f bf 41 85 4b bf e1 7f a3 bf
       -3.1115093 -1.1232097 -0.79500204 -1.27734
000160 6e 28 27 c0 a9 49 d4 bf ff 53 85 bf d0 8f 3f c0
       -2.6118426 -1.6584979 -1.0416259 -2.9931526
000170 9f 74 91 c0 17 3e 1a 40 a4 67 1f 3f d9 e4 30 c1
       -4.545486 2.4100397 0.6226752 -11.055871
000180 8c b5 5d c0 5a ce 6d bd a5 30 9b 40 52 14 c5 3f
       -3.4642057 -0.05805812 4.849688 1.5396826
000190 d3 aa 05 c1 d0 a8 2e bf a9 b5 43 c0 2b e3 6f c0
       -8.354205 -0.6822634 -3.0579627 -3.7482402
0001a0 3c 02 80 bf b3 7c 79 bf e3 2f 25 c1 76 25 01 c1
       -1.0000682 -0.974559 -10.324191 -8.071646
0001b0 11 aa 98 bf 86 1c 2c c0 3a 41 04 c1 c4 17 51 3f
       -1.19269 -2.689241 -8.265924 0.8167689
0001c0 dc dd 56 c1 96 c9 40 c0 a9 b8 76 c0 67 a6 2d be
       -13.429165 -3.0123038 -3.8550208 -0.16958009
0001d0 66 c3 81 bf bb 3d 1b bf 00 af 72 c0 f6 2f 12 3f
       -1.0137756 -0.6064107 -3.7919312 0.5710443
0001e0 34 e8 89 40 42 56 16 40 f9 43 9b c0 dc ad bd c0
       4.309595 2.3490148 -4.8520474 -5.927473
0001f0 76 1c 6a c0 7c ea b9 bf c5 aa e3 c0 ba 45 40 c1
       -3.657987 -1.4524684 -7.114596 -12.017023
