models/ONNX/C-UNet.onnx (onnx, 932426 bytes, 20 tensors)

upconv3.3.weight f4 [64, 64, 3, 3]
-0.15344533 0.05624786 0.17133515 -0.21380995 -0.09886595 0.071959645 -0.026237193 0.14618152
0.33498937 0.033524707 0.045704465 0.07563496 0.06853836 0.0607247 0.08964166 0.1090151
0.064346015 0.13613324 -0.07191552 -0.05635818 -0.116611384 -0.025715785 -0.026712498 -0.074789524
-0.052561723 -0.09489711 -0.09250269 -0.08326685 -0.046443783 -0.07947274 -0.05206966 -0.05463896
-0.08386273 -0.10401765 -0.10627645 -0.13421948 -0.12487526 -0.065227665 -0.056737334 -0.07410365
0.02100835 0.061497208 -0.057411 0.10733129 0.16959666 0.02532451 0.083702214 0.25710595
-0.05250259 0.06974425 0.20635583 -0.25166392 -0.09443727 0.05420541 -0.08204695 0.08625571
0.21859898 -0.11692293 0.004881591 0.17437227 -0.14668451 0.073108524 0.20652837 -0.026194068
0.006573741 -0.041492626 0.0045171306 0.0054417634 -0.009422064 -0.02572598 -0.023284057 -0.086658195
0.07641252 0.08677598 0.11665959 0.055236764 0.061856642 0.10169771 0.0931081 0.093935624
0.12746385 0.09182939 0.10096657 0.0671485 -0.01871658 0.021385605 0.0025093954 0.06006133
0.07004661 0.106786534 -0.018519113 -0.05978889 -0.16188332 0.012560722 0.11547696 -0.059278026
-0.002470167 0.07159125 -0.14046863 0.09962658 0.06941578 0.13113664 -0.0010305588 0.08554369
0.014770003 0.04344356 0.08419386 0.10413764 -0.0061143157 -0.0433184 -0.09018134 -0.032953363
0.0006426138 -0.07782589 -0.082366675 -0.08190827 -0.12459485 0.072260655 0.111345775 0.084516
0.049438022 0.06768789 0.039879743 -0.028961191 -0.0071701705 0.055790927 -0.021083558 -0.074379966
-0.11013758 0.04247103 0.02311397 -0.0424174 0.047494184 0.0031494675 -0.058796342 0.059642144
-0.04075941 0.08054121 -0.05698106 -0.023968963 0.040296715 -0.009264526 -0.04991082 0.11561043
-0.029267943 0.09362464 0.18213676 -0.08631936 -0.028835006 0.10696519 0.049689926 0.14820126
0.26211753 0.17419077 0.011571751 0.061545018 0.0059882333 0.0994503 -0.15369087 -0.05463728
-0.13760842 -0.22937188 -0.08428048 -0.09421237 -0.111542314 -0.09729283 -0.0261494 -0.08501479
-0.10685394 -0.06630976 -0.1166529 0.01927463 0.06164969 0.12159571 -0.050056998 0.0028261356
0.025789939 -0.02056135 0.017706297 0.09962454 0.03961819 0.045661453 0.15409881 -0.0064573726
0.043693937 0.072698615 -0.07173376 -0.052917268 -0.0580724 -0.09793932 -0.029872628 -0.07231243
0.055801474 0.053943593 0.06794022 0.06947736 0.12121863 0.122020714 -0.019009575 -0.021189472
-0.058206387 -0.000693926 -0.0797236 -0.078034036 -0.06644756 -0.048064783 -0.14488462 -0.08179235
-0.07215595 0.010191801 -0.02726205 -0.014693777 0.021537684 0.053162772 0.09319366 0.112655625
-0.11373449 -0.100673564 -0.08734616 -0.09459317 -0.03336149 -0.053110234 0.06726135 0.10673331
0.09764967 -0.0136307385 -0.018709471 -0.054186705 -0.013169699 -0.073316306 -0.034014024 0.0070897113
-0.030253612 -0.029568942 -0.06252987 -0.020291494 -0.0904301 -0.055465598 -0.018034153 -0.08596439
-0.0678998 -0.10289446 -0.081701696 0.09776133 0.0061561386 -0.04826105 0.11324153 -0.035137367
-0.10760189 -0.06800071 -0.16066568 -0.2611552 -0.024593638 -0.0024878026 0.015912443 -0.010473562
00000000: c620 1dbe 2864 663d 7b72 2f3e fff0 5abe
00000010: 3b7a cabd 945f 933d 62ef d6bc 9cb0 153e
00000020: ba83 ab3e 3451 093d 9b34 3b3d 80e6 9a3d
00000030: d75d 8c3d 77ba 783d 0c96 b73d 4f43 df3d
00000040: d8c7 833d 8366 0b3e 7248 93bd d6d7 66bd
00000050: f3d1 eebd e9a9 d2bc 2bd4 dabc 402b 99bd
00000060: f64a 57bd 6a59 c2bd 0d72 bdbd cf87 aabd
00000070: d63b 3ebd 9bc2 a2bd ff46 55bd 1acd 5fbd
00000080: 39c0 abbd 3507 d5bd 78a7 d9bd d570 09be
00000090: 9abe ffbd 1596 85bd 6865 68bd a8c3 97bd
000000a0: b419 ac3c 7fe4 7b3d cc27 6bbd 82d0 db3d
000000b0: bfaa 2d3e 5975 cf3c 116c ab3d 64a3 833e
000000c0: f50c 57bd 13d6 8e3d f14e 533e 18da 80be
000000d0: 5468 c1bd 7e06 5e3d 3b08 a8bd d5a6 b03d
000000e0: 69d8 5f3e 4a75 efbd c1f5 9f3b a58e 323e
000000f0: 7734 16be ecb9 953d 2c7c 533e f194 d6bc
00000100: 8968 d73b 2cf4 29bd 7004 943b d250 b23b
00000110: 005f 1abc 4abf d2bc 35be bebc da79 b1bd
00000120: 2b7e 9c3d 9bb7 b13d 39eb ee3d f23f 623d
00000130: 645d 7d3d e446 d03d 76af be3d 5261 c03d
00000140: e285 023e 0c11 bc3d 90c7 ce3d 2785 893d
00000150: 8353 99bc dd30 af3c ab74 243b df02 763d
00000160: 9974 8f3d e6b2 da3d 65b5 97bc 32e5 74bd
00000170: bec4 25be 7dcb 4d3c 2f7f ec3d 84cd 72bd
00000180: 86e2 21bb 6f9e 923d 02d7 0fbe 0509 cc3d
00000190: dc29 8e3d af48 063e d113 87ba 8831 af3d
000001a0: e2fd 713c e0f1 313d d56d ac3d 1d46 d53d
000001b0: 995a c8bb a26e 31bd ffb0 b8bd 1bfa 06bd
000001c0: 1575 283a 2e63 9fbd dcaf a8bd 86bf a7bd
000001d0: 962b ffbd 65fd 933d 4109 e43d b916 ad3d
000001e0: 867f 4a3d f39f 8a3d f158 233d 0540 edbc
000001f0: c0f3 eabb 0785 643d 6db7 acbc 8654 98bd
00000200: d08f e1bd 1af6 2d3d 8259 bd3c debd 2dbd
00000210: 4389 423d 4c67 4e3b 6fd4 70bd 524b 743d
00000220: 57f3 26bd caf2 a43d f964 69bd 8f5a c4bc
00000230: 2b0e 253d 3dca 17bc 4a6f 4cbd 29c5 ec3d
00000240: 53c3 efbc 46be bf3d 0f82 3a3e 34c8 b0bd
00000250: 6437 ecbc 9110 db3d aa87 4b3d 12c2 173e
00000260: 4534 863e 115f 323e 7197 3d3c a116 7c3d
00000270: f138 c43b 99ac cb3d 2461 1dbe 57cb 5fbd
00000280: 39e9 0cbe 76e0 6abe 3f9b acbd 6af2 c0bd
00000290: 4c70 e4bd 7741 c7bd 4437 d6bc 3c1c aebd
000002a0: 3dd6 dabd 69cd 87bd b7e7 eebd d4e5 9d3c
000002b0: 6384 7c3d 2c07 f93d 9108 4dbd b036 393b
000002c0: 6c45 d33c 4770 a8bc cc0c 913c f307 cc3d
000002d0: af46 223d 8107 3b3d 14cc 1d3e 5e98 d3bb
000002e0: 6af8 323d 03e3 943d 26e9 92bd c7bf 58bd
000002f0: 53dd 6dbd 6994 c8bd 71b7 f4bc 8a18 94bd
00000300: 1690 643d f5f3 5c3d 3e24 8b3d 254a 8e3d
00000310: 7941 f83d ffe5 f93d f8b9 9bbc 8b95 adbc
00000320: d269 6ebd 96e8 35ba 2046 a3bd 4fd0 9fbd
00000330: a915 88bd 94df 44bd a25c 14be bf82 a7bd
00000340: 80c6 93bd 83fb 263c aa54 dfbc 2bbe 70bc
00000350: cc6f b03c 35c1 593d 51dc be3d feb7 e63d
00000360: a1ed e8bd f12d cebd 8be2 b2bd 10ba c1bd
00000370: 0fa6 08bd 1e8a 59bd 52c0 893d fe96 da3d
00000380: 8dfc c73d 7653 5fbc 9b44 99bc e1f2 5dbd
00000390: b9c5 57bc dc26 96bd 4a52 0bbd cf50 e83b
000003a0: 6cd6 f7bc 913a f2bc a90f 80bd 593a a6bc
000003b0: 6b33 b9bd e52f 63bd 5cbc 93bc 190e b0bd
000003c0: 0d0f 8bbd 55ba d2bd 3853 a7bd 1837 c83d
000003d0: 6fb9 c93b 61ad 45bd 2deb e73d 33ec 0fbd
000003e0: 615e dcbd f543 8bbd 8b85 24be 22b6 85be
000003f0: 9978 c9bc 670a 23bb d05a 823c 4e99 2bbc

upconv3.3.bias f4 [64]
-0.39305013 -0.8107724 -0.14386983 0.51943916 -0.4339176 0.3637906 -0.44857362 1.103403
-0.767466 -0.7967081 0.6329826 0.50637966 1.0934037 0.73347497 -0.23580675 -1.332515
-0.44307387 0.012030778 0.62615705 -0.9989904 -0.3925461 0.043436013 0.8239969 -1.038105
0.32448602 -0.031856243 0.8321836 -0.3360465 0.2821907 0.3802769 -0.91242576 -0.889977
-0.5467274 0.86274916 0.7655775 1.027238 0.72924376 0.682408 -0.44589496 0.16510215
-0.43275386 0.5453859 0.26002365 -0.24826221 -1.0508641 -0.817758 -0.49070808 -0.22619349
0.19657788 -1.3673344 0.64797777 -1.2563024 -0.7474231 -0.47037214 0.81070405 0.08999518
0.030766573 -0.47115487 -1.0318416 1.2795224 0.71744996 0.47349745 -0.6094708 0.85175365
00000000: de3d c9be c88e 4fbf 9d52 13be f7f9 043f
00000010: 732a debe c342 ba3e 71ab e5be 4f3c 8d3f
00000020: a778 44bf 10f5 4bbf 260b 223f 19a2 013f
00000030: a7f4 8b3f 04c5 3b3f 5377 71be da8f aabf
00000040: 94da e2be be1c 453c d44b 203f d6bd 7fbf
00000050: cdfb c8be f6e9 313d 76f1 523f a0e0 84bf
00000060: 0823 a63e b17b 02bd fc09 553f 490e acbe
00000070: 4d7b 903e a7b3 c23e bc94 69bf 88d5 63bf
00000080: 54f6 0bbf 21dd 5c3f e3fc 433f 897c 833f
00000090: b8af 3a3f 4ab2 2e3f 584c e4be 8a10 293e
000000a0: ea91 ddbe 699e 0b3f d221 853e 7338 7ebe
000000b0: b782 86bf 9758 51bf 173e fbbe 449f 67be
000000c0: b64b 493e d004 afbf dfe1 253f 84ce a0bf
000000d0: 1f57 3fbf 9ed4 f0be 4d8a 4f3f 654f b83d
000000e0: 2e0a fc3c 363b f1be 6313 84bf 64c7 a33f
000000f0: cdaa 373f 426e f23e 4706 1cbf 870c 5a3f

upconv2.3.weight f4 [32, 32, 3, 3]
0.19694573 0.04681279 0.08067874 0.19428185 -0.10826133 -0.051924292 0.14171778 -0.057995576
-0.09962378 -0.042535685 -0.061363153 -0.10051743 -0.11460318 -0.16695045 -0.105419666 -0.016616607
-0.14963883 -0.09232269 -0.043616556 -0.09060058 -0.09267236 -0.09924945 -0.07683537 -0.14620008
-0.093963854 -0.1301757 -0.10243008 -0.042296108 -0.10232417 -0.12958595 -0.094921224 -0.12245221
-0.14584607 -0.03081828 -0.1214093 -0.1064141 -0.12527263 -0.0106817195 0.113584414 -0.23247033
-0.09802192 0.06206359 -0.21341108 -0.08073171 0.025475942 -0.068347186 -0.08218369 -0.04357861
-0.09024026 -0.13656813 -0.04408222 -0.11531461 -0.093516655 -0.12876026 -0.088934645 -0.13125117
-0.025136719 0.031116912 0.08660891 0.08635906 0.1102958 0.10488104 0.187475 0.14242564
0.023736315 0.048486505 0.032731242 -0.10528529 -0.14538153 -0.014672932 -0.089062974 -0.22284657
-0.009927158 -0.014094787 -0.039443094 -0.017648507 -0.062312946 -0.06540883 -0.05560789 -0.0575521
-0.059972826 0.05243706 -0.005542472 0.012721798 0.067515224 -0.03726997 -0.029441662 -0.046589322
-0.021746319 -0.01815864 0.002778886 -0.09237242 -0.04781044 -0.033738945 -0.1256278 -0.13139665
-0.028519243 -0.087997936 -0.084792055 0.02943192 0.084732026 0.11776123 0.116436034 0.024050385
0.0345114 0.11704961 0.111133784 0.14715213 0.026450591 0.119200006 0.014599726 0.08420817
0.07376572 0.0047585093 -0.04517864 0.06657054 -0.026018698 0.066385254 -0.07856876 -0.017615985
0.05552807 -0.10417458 -0.053301245 0.04783508 -0.008560669 -0.053509526 -0.026991837 -0.03156213
-0.09243654 -0.03712782 -0.14302684 -0.15318367 -0.07871457 -0.08807576 -0.14705975 0.082431264
0.03802526 0.05362108 0.03343302 0.076619595 0.11483416 0.061533872 0.05366707 0.07767362
0.009218849 -0.102021545 -0.068645716 -0.07612249 -0.016473819 -0.092754416 -0.005909066 -0.114202105
-0.111468084 0.102352366 -0.011726209 0.029210156 0.038593635 -0.0030534435 -0.0395929 -0.009134282
-0.044267282 -0.017205467 0.056595486 0.011432408 0.060368307 0.033598993 0.035275232 -0.09234508
-0.07764147 -0.040493585 -0.047754962 0.028841214 0.0034489871 0.029322961 -0.016705303 -0.037792042
-0.0074767508 0.060338173 -0.044137675 -0.075019024 -0.058451086 -0.062599234 -0.01576238 0.058258105
-0.028830044 0.008667354 0.07340704 -0.025652401 0.010483776 0.011058277 -0.032276284 0.03907766
-0.011562358 -0.023708325 0.055178206 -0.020561693 -0.0041430607 0.0053786733 -0.054802436 -0.013641431
-0.042355806 0.07992163 -0.021005744 0.03131335 0.13192637 0.113168195 0.12123352 -0.10631318
-0.080594145 -0.08566136 -0.09823006 -0.07265984 -0.06772497 -0.0031939978 -0.044630785 -0.033987273
-0.06891344 -0.12927142 -0.08750612 -0.08332921 -0.11143505 -0.11780464 -0.09563201 -0.087325916
-0.097899325 0.09252825 -0.02780977 0.016410416 -0.00798276 -0.038907845 -0.064427465 -0.013215866
-0.02143259 -0.018182397 -0.01322766 -0.0979629 -0.11312156 -0.07677436 -0.086126 -0.02499647
-0.084095456 -0.0863096 -0.047157273 -0.015147711 -0.14294302 -0.06525716 -0.09938911 -0.19513308
-0.12044986 -0.021939626 -0.13408315 -0.1118054 0.00082740217 0.08906779 0.09885198 -0.1457114
00000000: 24ac 493e c5be 3f3d e53a a53d d2f1 463e
00000010: 1eb8 ddbd 91ae 54bd 771e 113e c58c 6dbd
00000020: 8d07 ccbd e639 2ebd ee57 7bbd 15dc cdbd
00000030: 12b5 eabd 0ff5 2abe 44e6 d7bd 8d1f 88bc
00000040: ec3a 19be ae13 bdbd 46a7 32bd cc8c b9bd
00000050: 02cb bdbd 4c43 cbbd dd5b 9dbd 79b5 15be
00000060: 1f70 c0bd c74c 05be ddc6 d1bd af3e 2dbd
00000070: 568f d1bd 2eb2 04be 0f66 c2bd 39c8 fabd
00000080: ac58 15be 9e76 fcbc 70a5 f8bd a3ef d9bd
00000090: 7847 00be 6102 2fbc f29e e83d b40c 6ebe
000000a0: b7bf c8bd 6436 7e3d 6f88 5abe ab56 a5bd
000000b0: ecb2 d03c 9cf9 8bbd ec4f a8bd 7c7f 32bd
000000c0: e3cf b8bd 84d8 0bbe 8f8f 34bd 112a ecbd
000000d0: a985 bfbd bbd9 03be 5e23 b6bd b566 06be
000000e0: 85eb cdbc e5e8 fe3c 0360 b13d 05dd b03d
000000f0: c4e2 e13d dfcb d63d 72f9 3f3e 07d8 113e
00000100: a972 c23c c999 463d 3211 063d d09f d7bd
00000110: e5de 14be bd66 70bc a666 b6bd e431 64be
00000120: 85a5 22bc d2ed 66bc 158f 21bd 9a93 90bc
00000130: dc3b 7fbd 11f5 85bd 19c5 63bd c0bb 6bbd
00000140: 11a6 75bd 3ec8 563d a09d b5bb 176f 503c
00000150: 6c45 8a3d 65a8 18bd a42f f1bc 72d4 3ebd
00000160: 5625 b2bc 6ec1 94bc f81d 363b c02d bdbd
00000170: e1d4 43bd d931 0abd 93a4 00be d88c 06be
00000180: 30a1 e9bc 4338 b4bd 75a7 adbd 361b f13c
00000190: fc87 ad3d cd2c f13d 0476 ee3d 5005 c53c
000001a0: d35b 0d3d b5b7 ef3d 1c9a e33d 0caf 163e
000001b0: e9ae d83c 221f f43d b033 6f3c 5575 ac3d
000001c0: 7b12 973d 45ed 9b3b 3d0d 39bd 2356 883d
000001d0: 2a25 d5bc fef4 873d a8e8 a0bd 664f 90bc
000001e0: 6771 633d 7b59 d5bd 6852 5abd b8ee 433d
000001f0: 0c42 0cbc ce2c 5bbd fc1d ddbc 4b47 01bd
00000200: 5e4f bdbd 5713 18bd a175 12be 2edc 1cbe
00000210: 1b35 a1bd 1061 b4bd d596 16be b9d1 a83d
00000220: 60c0 1b3d c7a1 5b3d 10f1 083d bcea 9c3d
00000230: 2c2e eb3d f10a 7c3d 00d2 5b3d 5913 9f3d
00000240: a80a 173c acf0 d0bd 2096 8cbd 1ce6 9bbd
00000250: 1af4 86bc 07f6 bdbd d7a0 c1bb cbe2 e9bd
00000260: 6149 e4bd 1e9e d13d 491f 40bc 234a ef3c
00000270: 5c14 1e3d 481c 48bb 2a2c 22bd f5a7 15bc
00000280: 9c51 35bd 7bf2 8cbc abd0 673d ff4e 3b3c
00000290: c244 773d 199f 093d c37c 103d 6b1f bdbd
000002a0: 7e02 9fbd 9adc 25bd b59a 43bd 6944 ec3c
000002b0: 6708 623b b536 f03c 8fd9 88bc d4cb 1abd
000002c0: 88ff f4bb 2925 773d b5c9 34bd 93a3 99bd
000002d0: 686a 6fbd 0734 80bd 1b20 81bc 0da0 6e3d
000002e0: fc2c ecbc 8401 0e3c 6e56 963d fc24 d2bc
000002f0: 25c4 2b3c c72d 353c 2334 04bd e50f 203d
00000300: 0b70 3dbc f637 c2bc 8b02 623d ff70 a8bc
00000310: 83c2 87bb 953f b03b 8578 60bd 4f80 5fbc
00000320: 487d 2dbd f4ad a33d 3d14 acbc 6d42 003d
00000330: b517 073e bac4 e73d 4849 f83d b9ba d9bd
00000340: 8b0e a5bd 396f afbd d72c c9bd afce 94bd
00000350: 64b3 8abd 6452 51bb c5ce 36bd 3d36 0bbd
00000360: 7d22 8dbd ba5f 04be 6936 b3bd 81a8 aabd
00000370: 0f38 e4bd 8f43 f1bd b7da c3bd eed7 b2bd
00000380: 717f c8bd 737f bd3d 51d1 e3bc 236f 863c
00000390: 1fca 02bc d55d 1fbd 8cf2 83bd 5c87 58bc
000003a0: 6693 afbc 40f3 94bc d4b8 58bc c6a0 c8bd
000003b0: 47ac e7bd e03b 9dbd d462 b0bd 66c5 ccbc
000003c0: 3d3a acbd 16c3 b0bd fc27 41bd 1b2e 78bc
000003d0: a85f 12be 8ca5 85bd 858c cbbd f7d0 47be
000003e0: 6bae f6bd bbba b3bc 184d 09be 3bfa e4bd
000003f0: 05e6 583a 2c69 b63d e872 ca3d 5f35 15be

upconv2.3.bias f4 [32]
-0.30334488 0.40470552 0.3966498 0.51402646 -1.1438565 0.19525304 -0.4208856 0.3482039
0.36036593 -0.55467516 -0.19997306 -0.025109282 -0.75263643 -0.27101493 0.4345159 -0.009837852
-0.5275294 -0.3258482 0.0910438 -0.2734584 0.70711106 0.44490343 -0.30535454 -0.19173373
0.47452316 -0.4307604 0.38849998 0.60192084 0.28715068 -0.0031363864 -0.42091465 -0.6706611
00000000: 0550 9bbe 9035 cf3e af15 cb3e 3d97 033f
00000010: e469 92bf 6af0 473e 517e d7be c847 b23e
00000020: e281 b83e 31ff 0dbf bdc5 4cbe fbb1 cdbc
00000030: c8ac 40bf 78c2 8abe de78 de3e f12e 21bc
00000040: 2b0c 07bf 93d5 a6be 2c75 ba3d bd02 8cbe
00000050: 3b05 353f 62ca e33e 6e57 9cbe d955 44be
00000060: b3f4 f23e a18c dcbe 78e9 c63e 7c17 1a3f
00000070: 6a05 933e d58b 4dbb 2082 d7be 72b0 2bbf

upconv1.3.weight f4 [2, 2, 3, 3]
-0.26860222 -0.7516529 -0.40135384 -0.56692964 -1.1577789 -0.7014039 -0.47556475 -0.5864899
-0.45539188 0.38045487 0.88935375 0.41993573 0.95381546 1.6915572 0.95838326 0.31827343
0.966252 0.5482927 0.40223294 0.7237401 0.20404662 0.5996123 1.3617678 0.56621987
0.40636206 0.8300667 0.58269966 -0.3964205 -0.70262575 -0.53661627 -0.8759907 -1.348845
-1.0248976 -0.25548634 -0.71664065 -0.31040794
00000000: 3b86 89be 536c 40bf 407e cdbe 4d22 11bf
00000010: 1932 94bf 358f 33bf 397d f3be 3424 16bf
00000020: 2029 e9be fbca c23e b0ac 633f d101 d73e
00000030: 402d 743f f284 d83f 9b58 753f bcf4 a23e
00000040: 4b5c 773f e95c 0c3f 7af1 cd3e 0847 393f
00000050: 99f1 503e 3180 193f 684e ae3f c9f3 103f
00000060: b00e d03e 407f 543f ce2b 153f a1f7 cabe
00000070: 48df 33bf af5f 09bf ed40 60bf f4a6 acbf
00000080: d82f 83bf 1bcf 82be c375 37bf caed 9ebe

upconv1.3.bias f4 [2]
-0.1982465 0.18498522
00000000: 2101 4bbe c46c 3d3e

out.0.weight f4 [2, 2, 1, 1]
-2.0480013 1.6543874 2.1077685 -1.57571
00000000: 7412 03c0 f7c2 d33f aee5 0640 deb0 c9bf

out.0.bias f4 [2]
0.049736172 -0.006836987
00000000: 28b8 4b3d ce08 e0bb

onnx::Conv_78 f4 [32, 3, 3, 3]
3.1472902 2.6554942 0.96592355 -0.35032317 1.4825943 1.2765881 1.0456564 2.6141715
0.8298585 -2.0552757 -3.1378582 -1.8649676 -0.057875134 -0.20663205 -2.1542943 1.1125222
-2.677516 -2.7204072 5.051071 0.38797197 -1.0107784 0.7171527 -2.626789 -1.0730276
-1.5450013 -3.3421066 -2.6303918 1.2745588 -10.289136 -11.276016 -7.857307 1.8227602
1.1641731 -1.5528921 -9.266938 -7.2004156 6.6487136 -2.2368755 -6.0793715 1.940417
-0.8495038 6.6887145 6.6342063 7.0342016 8.100703 1.2118342 -7.9265547 -6.847803
8.350718 6.591357 5.6363707 5.2381973 -2.3640852 3.502713 -3.5317771 0.97151977
-1.1677783 -2.1678972 -0.018019613 -3.506834 1.7463129 -4.197568 -3.8012657 0.43651798
4.1407256 -2.3009522 -1.47393 -1.4217405 1.4296659 2.3998117 -0.28485483 2.8963969
-2.3265357 2.5010378 -1.9168912 -0.69702905 -0.4004065 1.2764748 1.2547914 1.5629724
1.5496074 0.60594076 -3.6235406 -5.6178136 -5.85139 -3.6966164 0.8766798 -1.2035779
-3.1873348 2.6324024 7.075262 9.341706 10.50799 8.550186 2.8435872 9.503586
5.6835294 2.1808798 -1.8746651 -9.719669 -5.553973 -2.2460897 -1.9725661 3.8511207
-9.440575 -2.1556797 2.8961515 -1.6408631 0.30568928 -0.16918457 -0.52474344 0.4434887
0.45160666 -0.8021396 0.8329307 -0.005440506 0.13584818 -0.96015614 -0.9030019 0.07289536
-0.44539893 -0.9197611 -0.51239765 1.7053257 -0.7728215 1.1479403 -0.13688296 1.3367095
-0.0568027 0.7468495 -0.10894929 -0.15242274 1.9490736 0.8465693 0.39076522 1.7768109
0.5376072 -1.8685442 -1.1191803 -1.693111 -0.43921965 0.65116465 -1.4463325 -0.7054117
0.20031205 1.3801557 2.7179391 1.2244649 2.9009514 3.5196161 -0.735186 0.87076706
4.22638 -2.0234652 -3.4144664 -1.6043861 -0.08456944 -1.6513947 -4.2881756 1.0848925
-1.3827785 -4.234924 -0.20250528 0.4746766 0.010484624 -0.14109477 0.9073115 -0.024975993
1.4347725 1.8086458 1.3863527 -0.56753504 -0.24753797 -1.489054 0.2929796 -1.0216784
0.23898223 0.7125393 -0.588825 0.6270688 1.0055208 -0.10563729 -1.4141914 1.4368435
0.23302169 -1.1576777 0.18404964 0.66413414 1.3370522 -1.8625348 0.73456156 -1.4387392
-0.8210754 4.5325823 2.3012433 -2.7709568 2.9002264 -2.79475 -0.113945395 -1.0237405
-2.2209477 0.43260413 2.55486 1.3134248 -2.6399908 3.9673343 -2.3570478 0.9046392
-1.7152163 0.69390714 0.23861393 3.965974 -1.6191274 -3.6305244 -1.5353339 -2.755461
-8.850281 1.2725302 5.4871593 -3.6116717 4.598258 -8.365916 -3.5506887 -4.0120764
-8.931465 0.4273327 8.306702 7.5674076 -5.6656847 5.195581 -1.2187886 -3.770182
-6.908408 -7.845955 2.5658798 5.6828074 8.368655 6.0845165 0.9680372 4.1509933
1.9513793 -2.4071589 2.4598618 0.8320366 0.46564186 -0.55891734 1.6919005 0.891371
1.7701526 2.4356472 1.0012463 1.3265121 -0.5125142 -0.83962333 0.77785134 -1.2297924
00000000: 346d 4940 9ef3 2940 c446 773f 8f5d b3be
00000010: a6c5 bd3f 3d67 a33f 12d8 853f 964e 2740
00000020: 9b71 543f a389 03c0 abd2 48c0 42b7 eebf
00000030: 7a0e 6dbd 5a97 53be f5df 09c0 2167 8e3f
00000040: 6c5c 2bc0 271b 2ec0 60a2 a140 43a4 c63e
00000050: 3061 81bf 5297 373f 501d 28c0 f858 89bf
00000060: 9ac2 c5bf 13e5 55c0 5758 28c0 be24 a33f
00000070: 4da0 24c1 906a 34c1 0f6f fbc0 3550 e93f
00000080: a003 953f 2bc5 c6bf 6145 14c1 ce69 e6c0
00000090: 43c2 d440 f828 0fc0 368a c2c0 965f f83f
000000a0: 1579 59bf f309 d640 6b4b d440 2e18 e140
000000b0: 7b9c 0141 621d 9b3f 56a6 fdc0 3421 dbc0
000000c0: 8a9c 0541 66ec d240 265d b440 509f a740
000000d0: 2c4d 17c0 732c 6040 a308 62c0 85b5 783f
000000e0: c279 95bf d4be 0ac0 de9d 93bc f86f 60c0
000000f0: 2e87 df3f 7a52 86c0 f047 73c0 497f df3e
00000100: d380 8440 cd42 13c0 bda9 bcbf 98fb b5bf
00000110: 4bff b63f 8496 1940 7ed8 91be 915e 3940
00000120: f6e5 14c0 0111 2040 b15c f5bf 7f70 32bf
00000130: 1502 cdbe 8763 a33f 019d a03f 7b0f c83f
00000140: 8959 c63f ef1e 1b3f 17e8 67c0 21c5 b3c0
00000150: 963e bbc0 5d95 6cc0 166e 603f d70e 9abf
00000160: 4bfd 4bc0 4879 2840 8c68 e240 a177 1541
00000170: ba20 2841 90cd 0841 55fd 3540 b00e 1841
00000180: 79df b540 8993 0b40 07f5 efbf c483 1bc1
00000190: 26ba b1c0 efbf 0fc0 0c7d fcbf c378 7640
000001a0: 980c 17c1 a8f6 09c0 8c5a 3940 cd07 d2bf
000001b0: 4e83 9c3e b83e 2dbe 9655 06bf f310 e33e
000001c0: fd38 e73e 0559 4dbf f23a 553f 4646 b2bb
000001d0: c91b 0b3e cbcc 75bf 222b 67bf 2a4a 953d
000001e0: 540b e4be 7775 6bbf 7e2c 03bf 1d48 da3f
000001f0: a1d7 45bf b5ef 923f 0c2b 0cbe 4c19 ab3f
00000200: f3a9 68bd 8731 3f3f ce20 dfbd b514 1cbe
00000210: 3e7b f93f c4b8 583f 6112 c83e 8a6e e33f
00000220: a0a0 093f 752c efbf 4d41 8fbf dcb7 d8bf
00000230: 66e1 e0be bab2 263f 6c21 b9bf dc95 34bf
00000240: 9a1e 4d3e f1a8 b03f b7f2 2d40 44bb 9c3f
00000250: 30a9 3940 6441 6140 2635 3cbf 97ea 5e3f
00000260: 813e 8740 7480 01c0 9e86 5ac0 865c cdbf
00000270: be32 adbd e760 d3bf bc38 89c0 c2dd 8a3f
00000280: e3fe b0bf 7f84 87c0 8b5d 4fbe d008 f33e
00000290: b3c7 2b3c 267b 10be 9145 683f 749a ccbc
000002a0: a0a6 b73f b581 e73f 0174 b13f fa49 11bf
000002b0: 987a 7dbe 5299 bebf 6c01 963e 5cc6 82bf
000002c0: c2b7 743e fa68 363f 3cbd 16bf 9587 203f
000002d0: e8b4 803f 5d58 d8bd 3904 b5bf 7dea b73f
000002e0: 3d9d 6e3e c82e 94bf 8277 3c3e b204 2a3f
000002f0: 8724 ab3f 8a67 eebf 3a0c 3c3f 9b28 b8bf
00000300: ff31 52bf ea0a 9140 9247 1340 5b57 31c0
00000310: 4f9d 3940 2fdd 32c0 345c e9bd ee09 83bf
00000320: 0224 0ec0 4a7e dd3e d482 2340 4e1e a83f
00000330: 9cf5 28c0 cee8 7d40 dfd9 16c0 6f96 673f
00000340: 358c dbbf e6a3 313f 3657 743e 85d2 7d40
00000350: 913f cfbf 835a 68c0 d285 c4bf 7959 30c0
00000360: c09a 0dc1 45e2 a23f cf96 af40 a125 67c0
00000370: ee24 9340 cbda 05c1 7c3e 63c0 ee62 80c0
00000380: 48e7 0ec1 5acb da3e 40e8 0441 3428 f240
00000390: 4a4d b5c0 3342 a640 4401 9cbf a94a 71c0
000003a0: ae11 ddc0 1012 fbc0 6037 2440 8fd9 b540
000003b0: 03e6 0541 5cb4 c240 49d1 773f f0d4 8440
000003c0: ccc6 f93f e40e 1ac0 606e 1d40 5a00 553f
000003d0: 9c68 ee3e 3515 0fbf 3290 d83f e430 643f
000003e0: 5c94 e23f a5e1 1b40 d728 803f 26cb a93f
000003f0: 2134 03bf 8ef1 56bf 4421 473f d669 9dbf

onnx::Conv_79 f4 [32]
1.2540531 1.1375022 1.4618502 -1.0393119 -0.9254463 1.1713212 -1.4010727 0.84220034
0.5249385 -1.3502197 0.9875481 -1.3705621 1.4821384 1.4714837 1.355191 -1.1491677
-1.2375478 -0.35066938 -1.0646293 -1.0092305 -1.367484 0.83699316 1.4074745 -1.630063
1.4628599 -1.3693247 1.1650312 -1.1720904 -1.2689527 1.8929067 -1.0747994 1.458732
00000000: d084 a03f ac99 913f e81d bb3f 2c08 85bf
00000010: 0cea 6cbf daed 953f 5a56 b3bf 719a 573f
00000020: 5f62 063f 00d4 acbf f4cf 7c3f 946e afbf
00000030: b6b6 bd3f 9459 bc3f e676 ad3f ed17 93bf
00000040: f767 9ebf f08a b3be c645 88bf 772e 81bf
00000050: b709 afbf 2f45 563f 2028 b43f e8a5 d0bf
00000060: fe3e bb3f 0846 afbf be1f 953f 0f07 96bf
00000070: 0b6d a2bf c44a f23f 0793 89bf bbb7 ba3f

onnx::Conv_81 f4 [64, 32, 3, 3]
0.025188446 0.017600656 0.009664913 0.004433993 -0.015643308 -0.0066007725 0.012880338 -0.025600215
-0.027995352 0.0015868051 0.01724068 -0.063141644 0.073794775 0.10293971 0.019102467 -0.02130843
0.00053538743 -0.02809447 -0.006307672 -0.011428644 0.0007001379 -0.014699968 -0.01188016 0.02848321
0.026592536 0.0015142828 0.014315831 0.044598367 0.03206869 0.018119719 0.0065210005 -0.00862967
0.0030876326 -0.010858593 -0.009187307 -0.010945636 0.07073185 0.066266276 0.071567945 0.037227117
-0.0047641234 0.029518966 0.03432055 0.03830832 0.022792604 0.022835378 0.040507533 0.01524729
0.026597809 0.016636211 -0.015184969 0.0006463959 -0.014964321 -0.028796205 0.03266714 0.016779196
0.006509226 0.04123634 0.025637265 0.01287621 -0.0147534385 -0.035752196 0.009812071 0.005353222
0.018604405 0.0010695069 0.018224398 -0.012789778 0.0011096267 0.00076490326 0.009010055 0.029677622
0.07405755 0.10100835 0.04434495 0.0032726328 0.006530266 -0.0312349 -0.052700054 -0.03277309
-0.038182996 0.035905864 0.029358307 0.014146532 0.021565631 0.0018225394 0.007976172 0.014665554
0.016918737 0.02367373 0.04638032 0.029173467 0.037710797 0.024454465 0.023447998 0.025187816
-0.0037035726 -0.0014420248 0.025154285 0.025282612 0.010614069 0.035755347 0.031340387 0.020776719
0.026084037 0.024473358 0.026979206 0.0347304 0.00999331 0.039045416 -0.0009441603 -0.013133163
0.015422859 -0.0270785 -0.012672554 -0.031379316 -0.011747913 -0.014157103 -0.014457435 -0.016029669
-0.025419507 -0.033751443 -0.021017537 0.01564423 -0.021044254 0.013174335 0.06460906 0.052389897
0.060115237 0.04491068 0.050302647 0.042570543 0.002237297 -0.020965178 -0.00808993 -0.039695334
-0.008396277 0.010845881 -0.012063536 -0.040735275 -0.013151072 0.016199816 0.0045038527 0.0033588512
0.011973713 0.020846633 0.024990605 -0.023634119 -0.0019304175 -0.0243122 0.017018588 0.0057077757
-0.0030365891 -0.0036189754 0.0014985325 -0.033908233 -0.05320269 -0.058546863 -0.04158918 -0.13437942
-0.1021645 -0.0830136 0.025930269 0.061022583 0.03450608 0.033341017 -0.010325635 0.013935445
0.0271759 -0.021889254 0.0011317767 0.034108806 0.03421785 0.024913376 3.716592e-05 -0.01405908
-0.021406692 0.008969033 -0.03716647 0.0028456615 0.03632518 0.031206498 0.039514206 -0.0042311177
-0.012175773 0.032055363 0.03406552 0.0035565365 0.03386191 -0.010433967 -0.011390541 -0.023665873
-0.00026132603 -0.05101478 -0.036396936 -0.074264705 -0.08924897 -0.08197806 -0.039352536 -0.01052272
0.025704565 0.002043395 -0.0002161777 0.0298604 -0.0091615245 -0.01260199 0.020609464 0.081387445
0.06462899 0.052540638 0.073854096 0.046464797 0.0591433 0.076595 0.05251795 0.045832854
0.026453108 0.033788953 0.0179463 0.017758902 0.009615768 0.012056011 0.020895483 -0.006520243
0.021898914 0.034776967 0.013783524 -0.004909805 0.008251349 -0.023157975 0.004895895 0.02088223
0.0037080792 -0.014080513 0.058254782 0.03592928 0.042680956 -0.020947028 -0.009797704 -0.03161601
-0.008441265 -0.007214771 -0.022168607 0.049518265 0.028201481 0.044211112 0.035189115 0.008887948
0.0025667993 0.032848798 -0.0108102765 0.017815398 0.0762178 0.115799 0.07603164 0.015972966
00000000: 0058 ce3c 402f 903c 9559 1e3c 074b 913b
00000010: 6526 80bc 4b4b d8bb 0e08 533c 8bb7 d1bc
00000020: 8256 e5bc 58fc cf3a 543c 8d3c 6850 81bd
00000030: b721 973d 0ed2 d23d c77c 9c3c 048f aebc
00000040: 3e59 0c3a 6026 e6bc 96b0 cebb 353f 3bbc
00000050: 7689 373a 22d8 70bc 01a5 42bc 9f55 e93c
00000060: 97d8 d93c e67a c63a f28c 6a3c c7ac 363d
00000070: 755a 033d ce6f 943c 1eae d53b 7663 0dbc
00000080: e159 4a3b 3de8 31bc 5c86 16bc 5355 33bc
00000090: dcdb 903d 9db6 873d 3792 923d 767b 183d
000000a0: 5d1c 9cbb c2d1 f13c b493 0c3d 2fe9 1c3d
000000b0: 8eb7 ba3c 4211 bb3c 3aeb 253d c5cf 793c
000000c0: a6e3 d93c aa48 883c 60ca 78bc e572 293a
000000d0: e92c 75bc 05e6 ebbc fbcd 053d 8674 893c
000000e0: 584b d53b 70e7 283d 3e05 d23c bdf6 523c
000000f0: 68b8 71bc e570 12bd cfc2 203c 156a af3b
00000100: 4468 983c b22e 8c3a 554b 953c 388c 51bc
00000110: e570 913a ca83 483a e99e 133c 7c1e f33c
00000120: 7cab 973d 77dd ce3d 0da3 353d ab79 563b
00000130: d7fb d53b 55e0 ffbc 03dc 57bd 133d 06bd
00000140: c665 1cbd 0712 133d d580 f03c dbc6 673c
00000150: 68aa b03c 46e2 ee3a 7dae 023c cb47 703c
00000160: 2a99 8a3c 69ef c13c 4af9 3d3d 32fd ee3c
00000170: a376 1a3d bb54 c83c 0416 c03c ae56 ce3c
00000180: a3b7 72bb 5302 bdba 5c10 ce3c 7b1d cf3c
00000190: a2e6 2d3c 3374 123d c75e 003d f033 aa3c
000001a0: 31ae d53c 5a7c c83c 7f03 dd3c 7741 0e3d
000001b0: fbba 233c 16ee 1f3d 8681 77ba 7a2c 57bc
000001c0: 29b0 7c3c bbd3 ddbc 8ba0 4fbc 9987 00bd
000001d0: 527a 40bc 32f3 67bc e1de 6cbc a750 83bc
000001e0: 923c d0bc f43e 0abd f82c acbc 5428 803c
000001f0: 0065 acbc 2ad9 573c c151 843d ca96 563d
00000200: 653b 763d 43f4 373d 260a 4e3d 735e 2e3d
00000210: 9d9f 123b 2abf abbc a08b 04bc 9397 22bd
00000220: 8a90 09bc ecb2 313c 23a6 45bc 08da 26bd
00000230: 9877 57bc 7ab5 843c 0e95 933b 2c20 5c3b
00000240: 642d 443c 8fc6 aa3c 19b9 cc3c 579c c1bc
00000250: 1006 fdba 612a c7bc 916a 8b3c 4b08 bb3b
00000260: 8301 47bb 552c 6dbb 686a c43a 5ce3 0abd
00000270: 10eb 59bd d6ce 6fbd 6a59 2abd c29a 09be
00000280: 9f3b d1bd 0903 aabd b76b d43c d1f2 793d
00000290: 3f56 0d3d 9790 083d da2c 29bc 7e51 643c
000002a0: fe9f de3c 1851 b3bc 2058 943a adb5 0b3d
000002b0: 0428 0c3d 2317 cc3c 9ae2 1b38 0e58 66bc
000002c0: 165d afbc daf2 123c de3b 18bd 477e 3a3b
000002d0: b6c9 143d c5a4 ff3c a6d9 213d 30a5 8abb
000002e0: e57c 47bc 7c4c 033d 4988 0b3d c814 693b
000002f0: c9b2 0a3d 3bf3 2abc 649f 3abc efde c1bc
00000300: 9602 89b9 e0f4 50bd f414 15bd 1818 98bd
00000310: 2ac8 b6bd 1de4 a7bd 2030 21bd 7d67 2cbc
00000320: 6192 d23c 7bea 053b c2ad 62b9 cc9d f43c
00000330: 381a 16bc 9478 4ebc 2ed5 a83c 76ae a63d
00000340: 345c 843d da34 573d d140 973d df51 3e3d
00000350: 3f40 723d d7dd 9c3d 101d 573d 3bbb 3b3d
00000360: 30b4 d83c 4966 0a3d 1e04 933c 1e7b 913c
00000370: 748b 1d3c 9386 453c 012d ab3c c3a7 d5bb
00000380: 5a65 b33c 4b72 0e3d 4ad4 613c 6ee2 a0bb
00000390: ab30 073c cbb5 bdbc be6d a03b 3611 ab3c
000003a0: 3f03 733b f4b1 66bc 919c 6e3d 952a 133d
000003b0: 3ad2 2e3d 1a99 abbc 8d86 20bc ca7f 01bd
000003c0: 3b4d 0abc e369 ecbb f09a b5bc aad3 4a3d
000003d0: cb06 e73c b616 353d 7622 103d c19e 113c
000003e0: bf37 283b 768c 063d 961d 31bc 99f1 913c
000003f0: 1418 9c3d 0728 ed3d 7ab6 9b3d bdd9 823c

onnx::Conv_82 f4 [64]
-0.6727244 0.99508536 0.34672025 -1.2917988 0.55959505 0.5466543 -1.2210569 0.73270816
1.7941451 1.0076915 0.39699054 0.2917542 -0.9987049 0.40091658 -0.048463166 -0.26384568
0.7515758 1.1973525 -0.2555561 -0.14193517 0.80734044 -0.33089468 0.6596155 -1.2582672
-0.69004536 0.021594755 -0.95882607 1.2191496 -1.2884463 1.5671918 1.020274 1.586756
-0.022490472 -1.6283407 0.14057273 0.19043195 1.071274 0.63632375 -0.032660127 -0.07455128
-1.8337464 1.4474753 0.5099708 1.1150105 0.49549296 1.088054 0.9264136 0.2448262
1.0840659 1.668354 -0.13774326 0.84985334 0.057286203 0.049815778 1.0930539 -0.3829574
-1.8577446 -0.3371659 0.90119267 -0.48714316 -1.6263952 0.6114099 0.7461451 1.2422855
00000000: ab37 2cbf eabd 7e3f 5185 b13e aa59 a5bf
00000010: 9f41 0f3f 89f1 0b3f 984b 9cbf c392 3b3f
00000020: 8ca6 e53f 09fc 803f 5842 cb3e ce60 953e
00000030: 20ab 7fbf f044 cd3e 5081 46bd c816 87be
00000040: 4667 403f d942 993f 40d8 82be 7457 11be
00000050: ddad 4e3f 076b a9be 90dc 283f e60e a1bf
00000060: d0a6 30bf 7ce7 b03c a075 75bf 180d 9c3f
00000070: cfeb a4bf be99 c83f 5798 823f d21a cb3f
00000080: f03d b8bc 786d d0bf 4cf2 0f3e 9800 433e
00000090: 821f 893f 1de6 223f a0c6 05bd 57ae 98bd
000000a0: 34b8 eabf df46 b93f 728d 023f aab8 8e3f
000000b0: 41b1 fd3e 5a45 8b3f 7129 6d3f b8b3 7a3e
000000c0: acc2 8a3f a08c d53f 920c 0dbe fd8f 593f
000000d0: f0a4 6a3d a10b 4c3d 31e9 8b3f fe12 c4be
000000e0: 93ca edbf 02a1 acbe 90b4 663f d46a f9be
000000f0: b82d d0bf 5c85 1c3f 5e03 3f3f 3603 9f3f

onnx::Conv_84 f4 [128, 64, 3, 3]
0.0124681555 0.014034844 0.007490074 -0.0029664426 -0.0018955395 -0.0018412321 0.0029443954 -0.00577736
0.0047756336 -0.011723124 -0.008914492 0.00025540168 -0.014090464 -0.008428135 0.0060589104 -0.010541748
-0.0076537095 0.003725778 0.006498553 0.0067234845 0.003089827 0.0042575607 0.0068711787 -0.0047704363
-0.0021419474 -0.005255584 -0.00021027196 0.008585165 -0.016633295 -0.0064925347 0.0030610412 -0.00460919
-0.007328625 0.0028618204 0.0032278397 -0.00074600923 0.0051377085 -0.017182466 0.019752633 -0.02323753
-0.01978995 0.016285596 -0.0058353147 -0.0036579145 0.034189735 -0.020395802 -0.013308649 -0.013057318
-0.027338183 -0.017893564 -0.008986018 -0.020286797 -0.01993197 -0.018315693 -0.010668946 -0.015195696
0.0046244003 -0.0023340825 0.00033180238 0.0008780872 0.0009638464 0.0042422777 0.010194542 -0.032178067
-0.028577495 -0.026972968 -0.027220698 -0.022317111 -0.014834127 -0.019920586 -0.014068666 -0.011682959
-0.008651904 0.0024616541 0.0058647213 -0.011928029 -0.0016594148 0.00762355 0.00025844056 -0.0014210631
0.011426988 -0.014948997 0.0019881646 -0.0009633466 -0.018194454 -0.011124724 0.0016292206 -0.012400546
-0.012583904 -0.0029943043 -0.02499939 -0.015372805 -0.012621161 -0.01323598 -0.01055471 -0.017192667
-0.012049294 -0.011601038 -0.015617525 -0.0018048603 -0.0007926387 0.0059172977 -0.0038064492 0.0021258437
0.008101178 0.012781527 0.011367696 0.013210416 -0.009527521 -0.012428717 -0.012869152 -0.0080616465
-0.009701093 -0.0054185553 -0.0008961491 0.0009633132 -0.0006048918 -0.015250228 -0.01780166 -0.0033256605
-0.010714645 -0.012977841 -0.004219993 -0.016935766 -0.009203657 0.00183434 -0.01709212 -0.016488666
-0.009832342 -0.005160543 -0.01324984 -0.008904132 -0.0017644982 -0.003968049 -0.009238295 -0.015491951
-0.017082596 -0.0049429154 0.00017417186 -0.0024334996 -0.009717051 0.007125608 0.0042068167 -0.0061534746
0.05525452 0.028090151 0.036784485 0.027331173 0.0110709 0.025440563 0.013966949 0.008207766
0.024127115 -0.022608897 -0.018134896 -0.011358555 -0.0196702 -0.02445642 -0.013773438 -0.020203913
-0.0132878795 -0.010518604 0.024402294 0.01021881 0.008844911 0.004357308 0.0073065897 0.0020115902
0.016056573 0.0069256863 -0.001593946 0.008073133 -0.0011345812 0.0020893463 0.013479399 -0.0023814952
0.0049484554 0.00402785 0.0026801215 -0.0005070884 -0.01468686 -0.02255944 -0.019183394 -0.0130258575
-0.014730735 -0.012515851 -0.0141302 -0.008794517 -0.015509921 -0.012656241 -0.011023625 -0.011482404
-0.018712675 -0.01924532 -0.021759784 -0.010832623 -0.014023289 -0.01032389 -0.0009583719 0.0024882504
0.0054490883 0.0027555025 -0.0040057558 -0.0002018317 -0.008845709 -0.0025834446 -0.0033097698 -0.0061566103
-0.0041425927 0.0039177495 -0.0021680666 0.0022417202 -0.0023005584 0.007718307 0.0074153463 -0.0017600028
0.057129864 0.043147244 0.021938464 0.03532916 0.031027367 0.013672597 0.035563376 0.030760081
0.028430367 0.00077272113 -0.012569297 0.0011319487 -0.006531842 -0.010195501 -0.0073786583 0.0027491902
-0.0030905227 -0.00951475 -0.008571496 -0.012116235 -0.0069370745 -0.010027845 -0.014276491 -0.010507679
0.0064965007 -4.832527e-05 0.0017282951 0.012511764 0.013210321 0.023829902 0.014870124 0.019961843
0.020544877 0.004668136 0.008687898 0.01991697 -0.0063675595 -0.004252512 0.00057759346 -0.008357093
00000000: 3c47 4c3c 67f2 653c 4b6f f53b a668 42bb
00000010: c073 f8ba 7f55 f1ba c2f6 403b 0250 bdbb
00000020: eb7c 9c3b 5912 40bc 170e 12bc 6fe7 8539
00000030: b1db 66bc 2916 0abc d389 c63b 4cb7 2cbc
00000040: f8cb fabb 2f2c 743b d0f1 d43b ad50 dc3b
00000050: b27e 4a3b 0283 8b3b a027 e13b 5251 9cbb
00000060: ea5f 0cbb 0937 acbb 737c 5cb9 cba8 0c3c
00000070: 8c42 88bc 54bf d4bb c09b 483b b008 97bb
00000080: f624 f0bb 618d 3b3b 2a8a 533b d58f 43ba
00000090: 395a a83b 3ec2 8cbc 46d0 a13c a25c bebc
000000a0: 891e a2bc 5f69 853c 2b36 bfbb 9fb9 6fbb
000000b0: 890a 0c3d 1915 a7bc 850c 5abc 5cee 55bc
000000c0: 53f4 dfbc 8695 92bc 173a 13bc 7f30 a6bc
000000d0: 5f48 a3bc cb0a 96bc cecc 2ebc 5ef7 78bc
000000e0: 4888 973b 68f7 18bb c3f5 ad39 6f2f 663a
000000f0: a3aa 7c3a ce02 8b3b 0207 273c 26cd 03bd
00000100: 5a1b eabc 6af6 dcbc f1fd debc 60d2 b6bc
00000110: d70a 73bc 7f30 a3bc 4380 66bc e269 3fbc
00000120: b7c0 0dbc b453 213b d92c c03b c86d 43bc
00000130: b980 d9ba f9ce f93b 4e7f 8739 f742 baba
00000140: 4338 3b3c a3ec 74bc de4b 023b 1989 7cba
00000150: 890c 95bc 7944 36bc 928b d53a a92b 4bbc
00000160: b82c 4ebc 173c 44bb 85cb ccbc 38de 7bbc
00000170: fcc8 4ebc b9db 58bc aaed 2cbc a3d7 8cbc
00000180: 676a 45bc 4812 3ebc a6e0 7fbc 1091 ecba
00000190: 15c9 4fba e4e5 c13b 9f75 79bb bd51 0b3b
000001a0: ceba 043c 9c69 513c 933f 3a3c 8070 583c
000001b0: 5219 1cbc d1a1 4bbc 23d9 52bc ff14 04bc
000001c0: 55f1 1ebc 238e b1bb 8ceb 6aba db86 7c3a
000001d0: 9a91 1eba 18dc 79bc c9d4 91bc 53f3 59bb
000001e0: 7a8c 2fbc 03a1 54bc de47 8abb e0bc 8abc
000001f0: efca 16bc 3d6e f03a c604 8cbc 3d13 87bc
00000200: d517 21bc c619 a9bb db15 59bc a3e2 11bc
00000210: bc46 e7ba 6806 82bb 385c 17bc f4d1 7dbc
00000220: cdf0 8bbc 2ef8 a1bb e7a1 3639 597b 1fbb
00000230: 4434 1fbc ef7d e93b 56d9 893b 16a3 c9bb
00000240: 9052 623d 511d e63c 54ab 163d a0e5 df3c
00000250: b862 353c ba68 d03c a1d5 643c de79 063c
00000260: 3aa6 c53c 4b36 b9bc a28f 94bc 3c19 3abc
00000270: 6623 a1bc d558 c8bc fca9 61bc ad82 a5bc
00000280: 68b5 59bc 3956 2cbc 52e7 c73c cc6c 273c
00000290: 3fea 103c c0c7 8e3b 1e6c ef3b e2d4 033b
000002a0: 1389 833c def0 e23b f4eb d0ba 2d45 043c
000002b0: 3ab6 94ba 6aed 083b b2d8 5c3c dc12 1cbb
000002c0: a726 a23b 0efc 833b faa4 2f3b 20ee 04ba
000002d0: 28a1 70bc 93ce b8bc 7e26 9dbc 686a 55bc
000002e0: 2e59 71bc 490f 4dbc 5b82 67bc e116 10bc
000002f0: 531d 7ebc 1f5c 4fbc 6f9c 34bc b120 3cbc
00000300: 534b 99bc 5da8 9dbc 9341 b2bc 507b 31bc
00000310: f0c1 65bc 8825 29bc 403b 7bba ea11 233b
00000320: 448e b23b a995 343b b742 83bb c9a2 53b9
00000330: 98ed 10bc 024f 29bb b9e8 58bb 64bd c9bb
00000340: 96be 87bb 7760 803b 1f16 0ebb d3e9 123b
00000350: f7c4 16bb dae9 fc3b 6ffc f23b e5af e6ba
00000360: 0101 6a3d 2abb 303d 4bb8 b33c 4fb5 103d
00000370: 1b2d fe3c 0703 603c e7aa 113d 91fc fb3c
00000380: cde6 e83c 7090 4a3a 74ef 4dbc e55d 943a
00000390: 1009 d6bb 080b 27bc acc8 f1bb c22b 343b
000003a0: 5e8a 4abb c1e3 1bbc 766f 0cbc 2c83 46bc
000003b0: 6650 e3bb d54b 24bc f1e7 69bc 6628 2cbc
000003c0: 99e0 d43b ddb0 4ab8 f687 e23a 24fe 4c3c
000003d0: 1a70 583c ed36 c33c d2a1 733c 0587 a33c
000003e0: bb4d a83c 2af7 983b af57 0e3c ea28 a33c
000003f0: f6a6 d0bb a858 8bbb a469 173a 30ec 08bc

onnx::Conv_85 f4 [128]
0.19529387 -0.10993177 -0.038754568 0.9715246 -0.32413667 -0.48020482 -0.113418035 0.24959177
0.31162715 0.22357222 0.30364895 -1.697865 1.4606943 0.59531444 0.3064312 -0.31085423
-0.13702986 -0.21993172 -1.2784724 0.72567093 0.29455578 -0.23810807 -0.13969606 -0.3953507
0.00415197 -0.21288778 0.16981177 0.9716871 -0.1434428 -0.099110626 -2.5995371 1.6044346
0.54826427 -0.17554179 -0.28447285 0.031855613 -0.8865624 0.09940167 -0.2684564 0.4643675
-1.1377047 0.7462706 0.19129461 0.633968 -0.042074054 0.31340033 -1.5979725 -0.4147662
-0.096730806 -0.4213792 0.35477144 1.0697716 0.93063104 0.014468238 -0.1866576 0.51449853
-0.35365298 0.55466914 0.44373137 -1.3622925 -1.1357789 0.47183818 0.6485344 -0.24833477
0.07475108 0.5233923 -0.4926733 -0.5210505 -0.19241557 -1.544629 0.6351636 0.28349537
-0.0015124767 0.8972727 -1.1441171 -0.44053426 0.21999039 0.73379 0.71375227 0.19614828
0.7154037 -2.3802195 -0.46728954 0.5104922 0.3432985 -0.061077565 -0.20265661 -0.11295786
0.46377206 0.082442224 0.21518339 -0.0499551 -0.07032746 -0.30616876 -0.24228193 0.9382223
0.35218114 -0.1308909 -1.000991 -0.5230124 0.60705286 -0.038241126 0.04320894 0.744759
-0.21536987 -0.1709298 0.6045756 0.5747571 -0.20413679 0.6570675 0.50859344 -0.2966033
1.0247257 0.3711569 0.6805037 -0.33958006 -0.19256195 -0.104442015 0.44674295 -0.25686252
-1.2022789 -0.30326572 0.98219556 0.8142234 0.00037431717 0.007181734 0.89590394 1.3198481
00000000: 1efb 473e e823 e1bd 1cbd 1ebd d6b5 783f
00000010: 3ef5 a5be 68dd f5be b747 e8bd fc94 7f3e
00000020: 988d 9f3e 1ef0 643e e077 9b3e a453 d9bf
00000030: 08f8 ba3f 8766 183f 8de4 9c3e 4928 9fbe
00000040: 8e51 0cbe c835 61be fca4 a3bf 92c5 393f
00000050: 04d0 963e 9ad2 73be 7c0c 0fbe 686b cabe
00000060: 400d 883b 41ff 59be 23e3 2d3e 7cc0 783f
00000070: abe2 12be 83fa cabd d15e 26c0 1d5e cd3f
00000080: 0c5b 0c3f 3ac1 33be 6da6 91be 087b 023d
00000090: c1f5 62bf 1a93 cb3d 1e73 89be 94c1 ed3e
000000a0: 4fa0 91bf 970b 3f3f bce2 433e ba4b 223f
000000b0: d855 2cbd 0276 a03e 5d8a ccbf 3c5c d4be
000000c0: cd1a c6bd 04bf d7be 9aa4 b53e 47ee 883f
000000d0: d63d 6e3f 300c 6d3c 2b23 3fbe 2db6 033f
000000e0: 0112 b5be ccfe 0d3f c230 e33e 9a5f aebf
000000f0: 3461 91bf c694 f13e 5a06 263f 784b 7ebe
00000100: 1817 993d 0afd 053f ad3f fcbe 9163 05bf
00000110: 9608 45be 67b6 c5bf 159a 223f 4e26 913e
00000120: 4c3e c6ba aab3 653f 6e72 92bf b58d e1be
00000130: 2945 613e a9d9 3b3f 78b8 363f 18db 483e
00000140: b224 373f 8455 18c0 9340 efbe 9eaf 023f
00000150: d2c4 af3e 782c 7abd 3785 4fbe 7356 e7bd
00000160: 8873 ed3e 78d7 a83d 0959 5c3e b89d 4cbd
00000170: d807 90bd 27c2 9cbe c118 78be 562f 703f
00000180: 1651 b43e 4408 06be 7920 80bf 24e4 05bf
00000190: d167 1b3f baa2 1cbd dcfb 303d 87a8 3e3f
000001a0: eb89 5cbe 3908 2fbe 77c5 1a3f 4823 133f
000001b0: 3c09 51be 9335 283f 2e33 023f 63dc 97be
000001c0: 362a 833f 4708 be3e 7e35 2e3f 70dd adbe
000001d0: f62e 45be b2e5 d5bd 7ebb e43e 7c83 83be
000001e0: 46e4 99bf a545 9bbe 2b71 7b3f f270 503f
000001f0: 0040 c439 c054 eb3b f659 653f c8f0 a83f

onnx::Conv_87 f4 [64, 128, 3, 3]
-0.012226314 -0.0066038393 -0.006721217 -0.0028451951 0.0013074005 -0.00051766215 -0.0050295084 -0.0004587236
-0.0031087035 -0.003068264 -0.0013354877 6.7500273e-06 -0.001884092 -0.0007087681 0.002588805 -0.00087848376
0.00032874563 0.0026392299 0.0005537489 -8.37206e-05 -0.00018166094 0.00033119984 -0.0018899877 0.00040141924
0.00013571579 0.00018821681 0.0006752868 0.001430389 -6.4705506e-05 0.0011979496 0.00134965 -0.0016235126
0.0021533503 0.002499723 -0.00027612643 0.0018484145 0.0043897256 0.0025655145 0.0035813344 0.0028295303
0.0014714258 0.002448174 0.0027686902 0.0019695347 0.0025523473 -0.022351375 -0.021299599 -0.02135358
-0.008711538 -0.009706575 -0.013129155 -0.005042552 -0.0062028645 -0.008098482 0.00039165202 -0.000570594
-0.0005628227 -0.00040950745 0.0002129716 -0.0004919934 0.0010292025 0.0026435067 0.0027375515 -0.0024207733
-0.0018593135 6.818636e-05 -0.0014082604 -0.0015254454 5.4613105e-05 -0.0014159495 -0.001545136 -0.00056181214
0.00304528 -3.8316415e-05 0.00046915535 0.0009488457 -0.00079880096 0.0025160138 0.0023275753 0.0010350364
0.0013659558 0.002973089 0.0009165476 0.0013407975 0.0019416142 -0.0005551945 0.0020709396 0.00017776935
-0.00076392194 0.0025569962 0.0027187823 0.0008632945 0.0015324332 0.0026569571 0.0018806914 0.0018433983
0.002657871 0.00059646944 0.001907813 -0.0033373504 -0.0042023933 -0.0010072467 -0.0005744886 -0.0010524023
0.00050411065 0.0030112574 0.00216316 0.003285556 0.003000565 0.0006239078 0.003096908 0.0014353723
-0.0015681385 0.00022215585 0.003284366 -0.0002921922 0.0019499932 0.00013814529 -6.140139e-05 0.00093947304
0.00069424347 9.6674354e-05 0.00058556796 0.0017880405 0.0013688644 0.0014769441 0.005162432 0.0031773704
0.0041408353 0.0045866454 0.0025530567 0.0036771682 0.0041412357 0.0022805796 0.004498132 -0.0028677331
-0.002333341 -0.0015321717 7.962457e-05 8.745112e-05 -0.0011668003 -0.0007324388 -0.0007149682 0.00050293456
-0.009636635 -0.0071967216 -0.008788362 -0.003354332 -0.0033377225 -0.0023226403 -0.0049309963 -0.0031453834
-0.0034396765 -0.005184495 -0.0064192833 -0.0042491416 -0.0031733285 -0.005194508 -0.0038832638 -0.0028618088
-0.003615382 -0.0034674706 0.0028645261 0.0032173225 0.0035027156 0.0028870949 0.0027571586 0.0017992798
0.0037667078 0.0030326282 0.0018219181 -0.0067204554 -0.0014016797 -0.00550111 -0.0037164076 0.0002933224
-0.003796801 -0.007036776 -0.004170108 -0.0064530075 0.0004391393 0.00048116897 -0.0011517806 0.00064728933
-0.0010152828 -0.0007671023 -0.00081376015 -0.0018501907 -0.00129022 -0.0041938424 -0.0039614514 -0.0031166764
-0.0033969835 -0.0035598844 -0.0030576175 -0.0021274427 -0.0038650418 -0.001998211 -0.008076463 -0.0028459514
-0.004677271 -0.001190023 0.0021935601 -0.0012190735 -0.006306622 -0.0017501715 -0.0028474163 -0.0033670918
-0.0020272548 -0.0015775628 -0.0012339622 0.00015468344 0.00020676678 -0.0022302747 -0.0021026246 -0.0009764305
0.00018452332 -0.00021251086 0.0070681754 0.0018493237 0.0024852552 0.00991217 0.007390971 0.008739314
0.010445136 -0.004241498 -0.0013590264 -0.0015259829 -0.0030855678 -0.0011113009 -0.0014855631 -0.0028067697
-0.0024360917 -0.00038956065 -0.009382384 -0.0069413157 -0.006283791 -0.013190131 -0.010391862 -0.008840594
-0.0153604625 -0.011279622 -0.011686714 0.0015200226 -7.2585106e-05 0.002247824 0.0007205172 -0.0005362878
-0.00017458473 0.0021166634 -0.0012151583 9.551199e-05 -0.003375224 -0.000109472036 -0.00043242957 -0.0024589875
00000000: e150 48bc 0565 d8bb a83d dcbb 7476 3abb
00000010: 155d ab3a b8b3 07ba 93ce a4bb d780 f0b9
00000020: 64bb 4bbb ee14 49bb 880b afba 4b7e e236
00000030: a3f3 f6ba 9fcc 39ba f1a8 293b 0c4a 66ba
00000040: 7e5b ac39 eef6 2c3b 7629 113a 2893 afb8
00000050: 3d7c 3eb9 e4a4 ad39 77b9 f7ba 9475 d239
00000060: ee4e 0e39 115c 4539 bb05 313a e47b bb3a
00000070: 81b2 87b8 8504 9d3a bde6 b03a 0bcc d4ba
00000080: 391f 0d3b 65d2 233b 10c5 90b9 8046 f23a
00000090: b0d7 8f3b 3122 283b d2b4 6a3b a46f 393b
000000a0: dbdc c03a 8b71 203b ea72 353b 4f13 013b
000000b0: 4845 273b 3b1a b7bc 7f7c aebc b4ed aebc
000000c0: d7ba 0ebc 5408 1fbc ab1b 57bc fe3b a5bb
000000d0: 6641 cbbb 7faf 04bc a556 cd39 ea93 15ba
000000e0: 648a 13ba 29b3 d6b9 2151 5f39 1ef9 00ba
000000f0: 4ee6 863a af3e 2d3b 7e68 333b d6a5 1ebb
00000100: 35b4 f3ba 46ff 8e38 6195 b8ba 74f1 c7ba
00000110: 6010 6538 6297 b9ba 2986 caba 9346 13ba
00000120: 5293 473b f0b5 20b8 f7f8 f539 f5bb 783a
00000130: a066 51ba b5e3 243b 3c8a 183b 0faa 873a
00000140: df09 b33a 28d8 423b 7844 703a b3bd af3a
00000150: c37d fe3a 798a 11ba 9ab8 073b 9967 3a39
00000160: ef41 48ba 4793 273b 992d 323b b74e 623a
00000170: eddb c83a 5820 2e3b 8881 f63a 2f9e f13a
00000180: ad2f 2e3b 635c 1c3a 950f fa3a 73b7 5abb
00000190: 3bb4 89bb 9705 84ba 4799 16ba c3f0 89ba
000001a0: 4b26 043a 8458 453b cdc3 0d3b 7c52 573b
000001b0: 21a5 443b be8d 233a 7ff5 4a3b 1a23 bc3a
000001c0: ff89 cdba 82f2 6839 853e 573b 6031 99b9
000001d0: ea96 ff3a 18db 1039 9fc4 80b8 f846 763a
000001e0: e4fd 353a a6bd ca38 cd80 193a af5c ea3a
000001f0: 786b b33a 0596 c13a 9e29 a93b 6e3b 503b
00000200: d8af 873b 924b 963b 2f51 273b a5fc 703b
00000210: 34b3 873b c775 153b 1165 933b 94f0 3bbb
00000220: f7ea 18bb 27d3 c8ba 1efc a638 f665 b738
00000230: 52ef 98ba 2301 40ba b46c 3bba 5ed7 033a
00000240: fae2 1dbc 7ad2 ebbb 10fd 0fbc 5ad4 5bbb
00000250: b1bd 5abb 7037 18bb 3294 a1bb c722 4ebb
00000260: 326c 61bb b2e2 a9bb da58 d2bb 623c 8bbb
00000270: 9ef7 4fbb b136 aabb 5b7e 7ebb 2f8d 3bbb
00000280: 0bf0 6cbb 813e 63bb c6ba 3b3b b7d9 523b
00000290: d18d 653b 6a35 3d3b 72b1 343b d0d5 eb3a
000002a0: dfda 763b 0fbf 463b 6dcd ee3a 4437 dcbb
000002b0: 91b8 b7ba a842 b4bb f98e 73bb 11c9 9939
000002c0: c0d3 78bb c194 e6bb 67a5 88bb c073 d3bb
000002d0: 473c e639 6845 fc39 58f7 96ba daae 293a
000002e0: 3d13 85ba 5d17 49ba 8552 55ba 1982 f2ba
000002f0: 991c a9ba 806c 89bb 10cf 81bb 2741 4cbb
00000300: ed9f 5ebb f34c 69bb 4f62 48bb 916c 0bbb
00000310: a44c 7dbb 6bf4 02bb 2453 04bc 2483 3abb
00000320: cb43 99bb 8cfa 9bba d5c1 0f3b 52c9 9fba
00000330: c8a7 cebb 0366 e5ba b89b 3abb 6daa 5cbb
00000340: b1db 04bb 39c6 ceba e7bc a1ba 8532 2239
00000350: 89cf 5839 cd29 12bb 30cc 09bb 24f7 7fba
00000360: 9a7c 4139 73d5 5eb9 279c e73b 0265 f23a
00000370: aadf 223b a766 223c f52f f23b 572f 0f3c
00000380: 1322 2b3c 44fc 8abb 5c21 b2ba 7d03 c8ba
00000390: 3d37 4abb 12a9 91ba 3ab7 c2ba c8f1 37bb
000003a0: d6a6 1fbb f23d ccb9 92b8 19bc fa73 e3bb
000003b0: 42e8 cdbb 6b1b 58bc a142 2abc 24d8 10bc
000003c0: 73aa 7bbc 2ace 38bc a279 3fbc 7f3b c73a
000003d0: d538 98b8 3b50 133b 17e1 3c3a aa95 0cba
000003e0: bb10 37b9 b8b7 0a3b f245 9fba 9c4d c838
000003f0: dd32 5dbb 5a94 e5b8 b7b7 e2b9 f726 21bb

onnx::Conv_88 f4 [64]
0.71373326 0.8801628 1.0749257 0.47344828 1.0712303 -0.019068211 0.6056634 0.04182695
0.46360207 0.42244118 1.0657923 0.24149151 1.1000235 0.58308446 0.93367946 -1.2654384
0.63131446 -0.8502093 0.6933182 -0.9526671 -0.75803965 0.4187395 1.2771322 0.42321697
0.30091912 0.27515954 0.30107442 0.52421945 0.19261093 -0.27137825 0.19393834 0.30592802
0.60148275 0.21283704 -0.118536904 0.517412 0.83771205 0.9495964 0.7244855 0.5629734
0.75349814 -0.07440756 -1.5881183 1.0510539 0.6978111 0.5835068 0.6725835 0.84266376
0.46525055 0.8662323 -0.9145623 0.36239412 0.3031332 -1.7339476 -0.6084325 0.53431046
0.4596114 0.28221288 0.25013337 0.6654658 0.801579 1.0715272 -0.9270086 0.5392463
00000000: 39b7 363f 5952 613f 2a97 893f d067 f23e
00000010: 131e 893f f034 9cbc c20c 1b3f bc52 2b3d
00000020: 405d ed3e 364a d83e e26b 883f 8d49 773e
00000030: 92cd 8c3f 0645 153f 9e05 6f3f e3f9 a1bf
00000040: d39d 213f 51a7 59bf 4d7d 313f fee1 73bf
00000050: e30e 42bf 0665 d63e 1179 a33f e5af d83e
00000060: 1212 9a3e b6e1 8c3e 6d26 9a3e 3f33 063f
00000070: cd3b 453e 17f2 8abe c697 463e 99a2 9c3e
00000080: c6fa 193f f4f1 593e 7ac3 f2bd 1d75 043f
00000090: 4c74 563f c018 733f e277 393f 061f 103f
000000a0: 41e5 403f fe62 98bd 7647 cbbf ef88 863f
000000b0: c0a3 323f b460 153f 6f2e 2c3f d0b8 573f
000000c0: 5235 ee3e 66c1 5d3f c120 6abf b98b b93e
000000d0: 4634 9b3e fff1 ddbf 3bc2 1bbf 92c8 083f
000000e0: 2f52 eb3e 357e 903e 7b11 803e f75b 2a3f
000000f0: 4834 4d3f ce27 893f 7050 6dbf 0c0c 0a3f
