experimental/c_unet_ex_f1_1648664673.7559974.pth (torch, 624701 bytes, 50 tensors)

conv1.0.depthwise.weight f4 [4, 1, 3, 3]
0	0xbe49a21e	-0.19690749
1	0xbe7c8273	-0.24659137
2	0xbe9c8668	-0.30571294
3	0xbe803f0c	-0.250481
4	0xbdd2cddc	-0.10293171
5	0xbe854133	-0.26026306
6	0x3d1eb520	0.038746953
7	0xbe6b7938	-0.2299546
8	0x3e6d226a	0.23157659
9	0xbd21c060	-0.039490104
10	0x3c833310	0.01601556
11	0x3e6e88f6	0.23294434
12	0xbd7c80f8	-0.06164643
13	0x3e2e123a	0.1699914
14	0xbe105446	-0.14094648
15	0x3e0173ea	0.12641874
16	0xbd077b08	-0.033076316
17	0x3dfe3e20	0.12414193
18	0x3e6c9e76	0.23107323
19	0xbe9ec6a4	-0.31010926
20	0xbe16f8e8	-0.14743388
21	0x3e829ef3	0.25511894
22	0x3dc42fe4	0.09579447
23	0xbe9a799b	-0.30170903
24	0x3e2bcd7a	0.16777602
25	0xbdad2970	-0.08455169
26	0x3df9daa4	0.121999055
27	0x3db7b52c	0.08970103
28	0x3e900261	0.28126815
29	0xbcd4f480	-0.025995493
30	0xbe9ccf4c	-0.30626905
31	0x3e2f4b8a	0.1711866
32	0xbdafd760	-0.085860014
33	0xbde13300	-0.109960556
34	0x3e2773d6	0.16352782
35	0xbd7324c8	-0.05936125

conv1.0.depthwise.bias f4 [4]
0	0xbd7ad9a0	-0.0612427
1	0xbe96f783	-0.2948571
2	0x3cca9300	0.024728298
3	0x3e72f4aa	0.23726144

conv1.0.pointwise.weight f4 [32, 4, 1, 1]
0	0xbe34a474	-0.17640859
1	0x3ee9d442	0.45669752
2	0x3e4f26ac	0.20229596
3	0x3ed16c84	0.40903103
4	0xbdecceb0	-0.1156286
5	0xbeb4c422	-0.35305887
6	0x3e28b6c8	0.16475976
7	0xbef0b132	-0.4701019
8	0x3ee6ba68	0.45064092
9	0x3e96f6f4	0.29485285
10	0xbed0fbbc	-0.40817058
11	0x3e8c9b42	0.27462202
12	0x3c9abf00	0.018889904
13	0xbed071e8	-0.40711904
14	0xbee9e99e	-0.45686048
15	0xbeb027f8	-0.34405494
16	0x3e5b36c4	0.2140761
17	0x3ee401f8	0.44532752
18	0xbe9f778c	-0.31145895
19	0xbea09eb6	-0.31371087
20	0x3e970096	0.29492635
21	0xbee64dba	-0.44981176
22	0x3dde38b8	0.10850662
23	0x3eb39530	0.3507476
24	0xbe7e2104	-0.24817282
25	0xbdf7d600	-0.12101364
26	0xbe095dc0	-0.13414669
27	0x3ec9f5e2	0.39445406
28	0xbdc0c4e8	-0.09412557
29	0xbe567980	-0.20944786
30	0x3df78df0	0.12087619
31	0x3e7987e0	0.24368238
32	0xbee3b016	-0.4447028
33	0xbda58d48	-0.08083588
34	0x3ee436e2	0.44573122
35	0xbed46842	-0.41485792
36	0xbe01dab0	-0.12681079
37	0x3e971414	0.29507506
38	0xbe135970	-0.14389586
39	0x3e839a10	0.25703478
40	0x3d8e14a0	0.06937528
41	0x3d3ece90	0.046583712
42	0xbe654a60	-0.22391653
43	0xbb92cd00	-0.0044800043
44	0xbecbe29a	-0.3982132
45	0x3e8c66c2	0.27422148
46	0x3e9d6b16	0.30745763
47	0x3e08d9ec	0.1336438
48	0x3d917190	0.071017385
49	0x3e091440	0.13386631
50	0x3ef6e20e	0.4821934
51	0x3c3c2e00	0.011485577
52	0xbd42d290	-0.04756409
53	0x3e9f5724	0.3112117
54	0xbeba3760	-0.36370373
55	0x3d4f78e0	0.050652385
56	0x3ea48614	0.32133543
57	0x3e6bb5cc	0.23018569
58	0xbec9835c	-0.39358032
59	0xbef255ce	-0.4733109
60	0x3ef16ff0	0.47155714
61	0xbe054190	-0.13013291
62	0x3ec9e9a8	0.39436078
63	0xbdae1628	-0.0850032
64	0x3e39e610	0.18154168
65	0xbe777010	-0.24163842
66	0x3eaae03e	0.33374208
67	0x3e385e38	0.18004692
68	0xbef72b2e	-0.4827513
69	0xbdeea730	-0.11652982
70	0xbea90246	-0.33009547
71	0xbe96247e	-0.29324716
72	0x3ef43180	0.47694016
73	0xbee3c46a	-0.4448579
74	0x3ee70734	0.45122683
75	0x3c84dce0	0.016218603
76	0x3eba0144	0.3632909
77	0xbd7816a0	-0.060568452
78	0xbcc97540	-0.024592042
79	0x3cbfede0	0.023428857
80	0x3dd3ec48	0.103478014
81	0x3eecf50e	0.46280712
82	0xbec4e698	-0.3845718
83	0xbec1d37a	-0.37856656
84	0x3ef8d94a	0.48603278
85	0xbead6328	-0.33864713
86	0xbd4473d0	-0.04796201
87	0x3e06b958	0.1315664
88	0xbeb8d8c8	-0.3610289
89	0xbe88dbd4	-0.26730216
90	0xbe480ff4	-0.19537336
91	0xbecc5fce	-0.39916843
92	0xbe9ae718	-0.30254436
93	0xbeb15e90	-0.34642458
94	0xbd564d80	-0.052320004
95	0x3e852dca	0.26011497
96	0x3eb2df24	0.34935868
97	0xbe36aba8	-0.17838919
98	0xbddd4880	-0.10804844
99	0x3cea20a0	0.02858001
100	0x3e5ddc98	0.21666181
101	0x3eac6708	0.33672357
102	0x3ea0a9c8	0.31379533
103	0xbe83798a	-0.25678664
104	0x3eded268	0.43519902
105	0x3d6e2760	0.05814302
106	0x3e6e48b8	0.23269928
107	0xbeb6e87e	-0.35724252
108	0x3d46ba00	0.048517227
109	0x3ef7a054	0.48364508
110	0x3e8597b0	0.2609229
111	0xbec6d49c	-0.38834083
112	0x3ec59382	0.38589102
113	0x3dda52a0	0.10660291
114	0x3e93396e	0.28754753
115	0xbd55c550	-0.052190125
116	0x3cb50600	0.022097588
117	0x3ef85672	0.48503453
118	0x3e681474	0.22664052
119	0x3ef7eacc	0.48421323
120	0x3e1a63cc	0.15077132
121	0xbe2ed13c	-0.17072004
122	0xbdccb338	-0.09995121
123	0x3e940c4c	0.28915632
124	0x3e8a36f8	0.26995063
125	0x3e99d046	0.30041713
126	0x3e767b9c	0.2407059
127	0x3ed72ad2	0.42024857

conv1.0.pointwise.bias f4 [32]
0	0xbd902720	-0.070387125
1	0xbb1c7f00	-0.002387941
2	0x3de73728	0.11289817
3	0x3b4e3b00	0.0031468272
4	0x3ebc6e0c	0.3680271
5	0xbe583a08	-0.21115887
6	0x3ec368e2	0.38165957
7	0xbdac62e0	-0.084172964
8	0x3dd3cf30	0.10342252
9	0xbecbc3b0	-0.39797735
10	0x3df5d640	0.120037556
11	0x3e0ba3e0	0.13636732
12	0xbeed1e0c	-0.46311986
13	0x3df3b238	0.11899227
14	0xbef0a480	-0.47000504
15	0xbeb55620	-0.3541727
16	0xbea5310e	-0.32263988
17	0xbec1e5e4	-0.37870705
18	0x3ef125c0	0.47099113
19	0x3e2f8f0c	0.17144412
20	0xbeb26782	-0.34844595
21	0xbdc60bb8	-0.09670204
22	0x3e89de9e	0.26927656
23	0x3d9d96c8	0.07694775
24	0xbd7d0110	-0.06176859
25	0xbdf84af0	-0.12123668
26	0xbe69114c	-0.22760504
27	0x3e91b3da	0.28457528
28	0xbed22c06	-0.41049212
29	0xbee9b8c6	-0.45648783
30	0x3eacb656	0.3373286
31	0x3e98a1fc	0.29811084

conv1.1.weight f4 [32]
0	0x3f800000	1.0
1	0x3f800000	1.0
2	0x3f800000	1.0
3	0x3f800000	1.0
4	0x3f800000	1.0
5	0x3f800000	1.0
6	0x3f800000	1.0
7	0x3f800000	1.0
8	0x3f800000	1.0
9	0x3f800000	1.0
10	0x3f800000	1.0
11	0x3f800000	1.0
12	0x3f800000	1.0
13	0x3f800000	1.0
14	0x3f800000	1.0
15	0x3f800000	1.0
16	0x3f800000	1.0
17	0x3f800000	1.0
18	0x3f800000	1.0
19	0x3f800000	1.0
20	0x3f800000	1.0
21	0x3f800000	1.0
22	0x3f800000	1.0
23	0x3f800000	1.0
24	0x3f800000	1.0
25	0x3f800000	1.0
26	0x3f800000	1.0
27	0x3f800000	1.0
28	0x3f800000	1.0
29	0x3f800000	1.0
30	0x3f800000	1.0
31	0x3f800000	1.0

conv1.1.bias f4 [32]
0	0x00000000	0.0
1	0x00000000	0.0
2	0x00000000	0.0
3	0x00000000	0.0
4	0x00000000	0.0
5	0x00000000	0.0
6	0x00000000	0.0
7	0x00000000	0.0
8	0x00000000	0.0
9	0x00000000	0.0
10	0x00000000	0.0
11	0x00000000	0.0
12	0x00000000	0.0
13	0x00000000	0.0
14	0x00000000	0.0
15	0x00000000	0.0
16	0x00000000	0.0
17	0x00000000	0.0
18	0x00000000	0.0
19	0x00000000	0.0
20	0x00000000	0.0
21	0x00000000	0.0
22	0x00000000	0.0
23	0x00000000	0.0
24	0x00000000	0.0
25	0x00000000	0.0
26	0x00000000	0.0
27	0x00000000	0.0
28	0x00000000	0.0
29	0x00000000	0.0
30	0x00000000	0.0
31	0x00000000	0.0

conv1.1.running_mean f4 [32]
0	0x3c9b1d56	0.018934887
1	0xbc1739b0	-0.009230062
2	0xbd5a5a82	-0.05330897
3	0xbce6fc0a	-0.028196353
4	0x3dd3b01b	0.10336324
5	0xbe0643e3	-0.13111834
6	0x3f19cb32	0.60075676
7	0x3d81099f	0.06300663
8	0x3e3fae16	0.18718752
9	0xbeb13182	-0.34608084
10	0x3d9cba76	0.07652752
11	0x3e8c6a9a	0.2742508
12	0xbeff3cfb	-0.49851212
13	0x3d9aba5d	0.07555077
14	0xbf46c0e1	-0.7763806
15	0xbf03727c	-0.51346564
16	0xbe904c7c	-0.28183353
17	0xbe87bab6	-0.26509637
18	0x3ece458a	0.4028743
19	0x3d5e7e88	0.05431989
20	0xbf186a10	-0.5953684
21	0xbe329037	-0.17437826
22	0x3eb02051	0.34399655
23	0x3ea82b99	0.32845762
24	0xbe1a959e	-0.15096137
25	0xbea8d3df	-0.32974145
26	0xbefb041b	-0.4902657
27	0x3d9264b4	0.07148114
28	0xbf14a547	-0.58064693
29	0xbed9ee9d	-0.4256486
30	0x3ec82a74	0.3909489
31	0x3e83e54c	0.25760877

conv1.1.running_var f4 [32]
0	0x3b800c15	0.0039076903
1	0x38a606d3	7.916768e-05
2	0x3b881b43	0.0041536405
3	0x3a84ac80	0.001012221
4	0x3a086d7c	0.0005204303
5	0x3ba4964a	0.0050227987
6	0x3b042e69	0.0020169264
7	0x38fde601	0.00012106822
8	0x3babc26f	0.005241684
9	0x3ae68770	0.0017587971
10	0x390f741d	0.00013680798
11	0x3c02f780	0.007993579
12	0x38b7e56b	8.7688524e-05
13	0x3a27390b	0.00063790445
14	0x3b4a1f73	0.00308415
15	0x3c0c38cf	0.008558466
16	0x3ae520ef	0.0017481128
17	0x3bbdf4a6	0.0057969866
18	0x3c3eacba	0.011637861
19	0x3b9a95dc	0.0047175717
20	0x387e3adc	6.0613136e-05
21	0x3c2fd68c	0.010732304
22	0x3b05f6ba	0.002044125
23	0x3adeb398	0.0016990779
24	0x3babc54c	0.0052420255
25	0x3a331e5e	0.0006832833
26	0x3bd72037	0.0065651196
27	0x39416ba9	0.00018446021
28	0x3b88cdd3	0.004174927
29	0x3a654d28	0.0008747154
30	0x3a8856ec	0.0010401881
31	0x3a3bbecb	0.0007161914

conv2.0.depthwise.weight f4 [32, 1, 3, 3]
0	0x3e1aad38	0.1510514
1	0xbdb9e646	-0.09077124
2	0x3e8da221	0.27662757
3	0xbd835db4	-0.06414357
4	0x3e8debaf	0.27718875
5	0x3ea0fe51	0.31444028
6	0xbea39166	-0.31946868
7	0xbe87ba36	-0.26509255
8	0xbe6c7470	-0.23091292
9	0x3eaa9f75	0.3332478
10	0xbe1c7a23	-0.15280966
11	0x3ce46940	0.027882218
12	0x3da35600	0.079753876
13	0x3e7444ba	0.23854342
14	0xbdfacb16	-0.12245767
15	0xbe3e2036	-0.18566975
16	0xbe42fbae	-0.1904132
17	0xbe9bbf4a	-0.3041938
18	0x3c173300	0.009228468
19	0x3c11f3a0	0.008908182
20	0x3deb5124	0.11490086
21	0x3d680ba8	0.05665174
22	0xbe23dd1b	-0.16002314
23	0x3db5e7e0	0.08882117
24	0x3e8c65f7	0.27421543
25	0x3e832b91	0.25619176
26	0xbe5cea90	-0.21573853
27	0xbd694e48	-0.05695942
28	0xbdd005dc	-0.101573676
29	0xbe2302b3	-0.15918998
30	0xbd0deb48	-0.03464821
31	0xbe185a60	-0.14878225
32	0x3d1d3980	0.038384914
33	0x3e98d09d	0.2984666
34	0xbdfcd366	-0.123450086
35	0xbe889404	-0.26675427
36	0x3e8ef5cd	0.27921906
37	0xbea9e11c	-0.33179557
38	0xbd9d377c	-0.076765984
39	0xbd873654	-0.06602159
40	0x3ea9752d	0.3309721
41	0x3e69bd8a	0.2282621
42	0xbd761920	-0.060082555
43	0xbdce9b5c	-0.10088226
44	0xbe6c301e	-0.2306523
45	0xbe81ce87	-0.2535288
46	0xbc7d7000	-0.015468597
47	0x3ea0116b	0.3126329
48	0xbe95e6d3	-0.29277667
49	0xbe71be0e	-0.23607656
50	0x3df477fc	0.11936948
51	0xbe9e49b7	-0.30915615
52	0xbe92813c	-0.28614223
53	0xbdb8e0bc	-0.0902724
54	0x3e67f7a2	0.22653058
55	0xbe20e298	-0.15711439
56	0x3e36a8f6	0.17837891
57	0x3e4cf9a2	0.20017102
58	0xbd91fa60	-0.07127833
59	0xbd2a4298	-0.041567415
60	0x3e64fcda	0.2236208
61	0x3e0f1b8a	0.13975349
62	0xbd899fe4	-0.0671995
63	0xbe412140	-0.1886034
64	0xbe57f673	-0.21090107
65	0x3dba13e4	0.09085825
66	0xbe794ef8	-0.2434653
67	0xbd6cb600	-0.057790756
68	0x3e4b893e	0.19876572
69	0x3e51c88a	0.20486656
70	0xbdeb3dc0	-0.11486387
71	0x3e20f4f0	0.15718436
72	0x3e864287	0.2622263
73	0xbe88393a	-0.2660616
74	0x3cc20450	0.023683697
75	0x3ea43299	0.32069853
76	0xbd373998	-0.04473266
77	0xbe484f23	-0.19561438
78	0xbd2201d8	-0.03955254
79	0xbdf2f8e6	-0.1186388
80	0xbd11f4a8	-0.035633713
81	0x3e13e61a	0.14443246
82	0xbbba7900	-0.005690694
83	0x3e9f3625	0.31095996
84	0x3c1c88e0	0.009554118
85	0x3ea6448d	0.32474175
86	0x3dd76794	0.10517803
87	0xbdf36906	-0.11885266
88	0x3e611932	0.21982267
89	0x3d3aecb8	0.04563591
90	0xbd4b7ed8	-0.049681515
91	0xbd660ad8	-0.056162685
92	0x3e0a73c2	0.1352072
93	0xbe8ac1ec	-0.27101076
94	0x3e7aa222	0.24475911
95	0xbea8af1f	-0.32946107
96	0x3e9c86d7	0.30571625
97	0x3e666f2e	0.22503349
98	0xbd44e828	-0.048072964
99	0xbe387b50	-0.1801579
100	0x3e84c2e1	0.2592993
101	0x3dc3aa6c	0.0955399
102	0xbde1a2b6	-0.11017363
103	0xbe829ece	-0.25511783
104	0xbe7c8600	-0.24660492
105	0xbe9cd652	-0.30632263
106	0x3e351e4a	0.17687336
107	0x3e431bf6	0.19053635
108	0xbe020e8b	-0.1270086
109	0x3de56b0c	0.11202058
110	0xbe16a7a8	-0.14712393
111	0xbe9c8fbe	-0.30578417
112	0xbea561fb	-0.32301316
113	0x3e101690	0.14071107
114	0xbe62ac3b	-0.22136013
115	0xbd9df8dc	-0.07713482
116	0xbdb4cdb0	-0.08828294
117	0xbe4d1558	-0.20027673
118	0xbdc6634c	-0.09686908
119	0x3df41650	0.11918318
120	0x3e8f9979	0.28046778
121	0xbe2f3946	-0.17111692
122	0xbe8c5774	-0.2741047
123	0xbd225538	-0.039632052
124	0x3e28ff10	0.16503549
125	0xbea21b3a	-0.31661397
126	0x3d8b72bc	0.06808993
127	0xbe78cfd6	-0.24298033
128	0xbde2111c	-0.110384196
129	0xbe9e3522	-0.30899912
130	0x3e7810de	0.24225184
131	0xbe2b39de	-0.16721293
132	0x3e2bbe7e	0.16771886
133	0xbe2e9293	-0.17048101
134	0xbe3950ce	-0.18097231
135	0x3e0c3e5a	0.1369566
136	0x3e0ed9a0	0.13950205
137	0x3c0479e0	0.008085698
138	0xbe44dbe3	-0.19224505
139	0x3e7a7ca2	0.24461606
140	0xbd8f1bb0	-0.06987703
141	0xbe359200	-0.17731476
142	0x3e2a2a60	0.16617727
143	0x3e8dc96f	0.27692744
144	0x3ea91f95	0.33031908
145	0xbddbea46	-0.107380435
146	0xbe6d23cb	-0.23158185
147	0x3d458f38	0.048232287
148	0x3e66d8a2	0.22543576
149	0xbe6c0990	-0.23050523
150	0x3dfaf7a4	0.12254265
151	0xbe7113de	-0.23542735
152	0xbce13670	-0.027491778
153	0x3d152068	0.036407858
154	0x3e00e656	0.12587866
155	0x3dbddacc	0.09270248
156	0xbe42d5f6	-0.19026932
157	0xbe7abe96	-0.24486765
158	0x3e987c09	0.2978213
159	0xbe849f26	-0.2590267
160	0xbd967734	-0.07346955
161	0x3e8ea1d3	0.27857837
162	0x3dc1c82c	0.09462008
163	0x3e327d0a	0.17430511
164	0x3d997650	0.074932694
165	0x3eaa4437	0.3325517
166	0xbda452ac	-0.08023581
167	0xbe1ea190	-0.15491319
168	0x3e549e86	0.20763597
169	0xbe0e7cdb	-0.13914816
170	0x3e293f6a	0.16528097
171	0xbdca4990	-0.09877312
172	0xbe9c9e3c	-0.30589473
173	0x3e6a6d22	0.22893193
174	0xbc807150	-0.015679032
175	0xbd8de8d4	-0.06929174
176	0xbd8fc900	-0.070207596
177	0x3e08f2a8	0.13373816
178	0xbe9d739b	-0.30752262
179	0xbdd5babc	-0.104360074
180	0x3e82dcfd	0.25559226
181	0xbe23023b	-0.1591882
182	0xbea469e7	-0.32112047
183	0xbde3216c	-0.11090359
184	0x3e88e21b	0.26735005
185	0x3dbcbbe0	0.09215522
186	0x3e77907e	0.24176213
187	0x3e0dbbce	0.13841173
188	0xbdc30840	-0.09523058
189	0x3d96e064	0.07367018
190	0xbe33369e	-0.17501304
191	0x3e7b280a	0.24526992
192	0x3e30646a	0.17225805
193	0xbe45ccb8	-0.19316375
194	0xbe78694e	-0.2425892
195	0x3e061f1a	0.13097802
196	0x3ddc2ea4	0.107510835
197	0xbe901468	-0.2814057
198	0x3e5a930a	0.21345153
199	0x3ea45395	0.32095018
200	0xbe3cbdeb	-0.18431823
201	0xbdfdedf6	-0.12398903
202	0xbe5b862b	-0.214379
203	0x3e39ea32	0.18155745
204	0x3ea2c0c9	0.31787708
205	0x3d494e00	0.049146652
206	0xbea8400e	-0.3286137
207	0x3e9ce5d9	0.3064411
208	0x3e90ff15	0.28319612
209	0xbe86499b	-0.26228032
210	0xbcdbe990	-0.02684477
211	0x3e8a13c9	0.2696822
212	0xbea35fb2	-0.31908947
213	0x3dce01c0	0.100589275
214	0xbe008263	-0.12549739
215	0xbe474208	-0.19458783
216	0x3e123d6a	0.1428124
217	0xbe0d5b98	-0.13804471
218	0xbe0479f3	-0.12937145
219	0xbea66310	-0.32497454
220	0x3d023780	0.03179121
221	0x3d0764a0	0.033054948
222	0x3dc57490	0.09641373
223	0xbe593d46	-0.2121478
224	0x3debb1f4	0.11508551
225	0xbdd71e50	-0.105038285
226	0x3e2711a2	0.1631532
227	0x3e07bade	0.13254878
228	0x3e26fa3a	0.16306391
229	0xbe9d6cbb	-0.30747017
230	0xbe23e846	-0.16006574
231	0x3e07e398	0.13270414
232	0x3ddfc85c	0.109268874
233	0xbe364d68	-0.17802966
234	0xbe94477a	-0.28960782
235	0xbe684ab6	-0.2268475
236	0x3d93177c	0.07182214
237	0xbdbcb280	-0.09213734
238	0xbe95c463	-0.29251394
239	0x3ea9205b	0.33032498
240	0xbe9bb02b	-0.30407843
241	0xbd30a7d8	-0.04312882
242	0x3c9ff5b0	0.019526333
243	0xbea01476	-0.3126561
244	0xbe217048	-0.15765488
245	0xbe92ce77	-0.28673145
246	0xbe653718	-0.22384298
247	0xbe8ae53e	-0.27128023
248	0xbe4d7ad0	-0.2006638
249	0x3e7c043a	0.24610987
250	0xbe047990	-0.12936997
251	0xbdf1f490	-0.11814225
252	0xbea72a10	-0.3264928
253	0x3e75670e	0.23965093
254	0xbea7b4fe	-0.32755274
255	0x3df231f4	0.11825934

conv2.0.depthwise.bias f4 [32]
0	0x3e1085ee	0.1411359
1	0x3e935a39	0.28779772
2	0x3e9a5c8b	0.3014873
3	0x3e37fda6	0.17967853
4	0xbe2bdc66	-0.16783294
5	0x3e75e5ba	0.24013415
6	0x3ea85ac7	0.32881758
7	0xbcbb7db0	-0.02288708
8	0x3e1f6c26	0.15568599
9	0x3e8aa715	0.27080598
10	0x3e97c015	0.29638734
11	0xbe5cf05e	-0.21576068
12	0xbe92b203	-0.28651437
13	0x3d36a680	0.04459238
14	0x3e9be523	0.30448255
15	0xbd677ac8	-0.056513578
16	0x3d3b6238	0.045747966
17	0x3e54efba	0.20794573
18	0xbe820b17	-0.25399086
19	0xbda8f06c	-0.08248982
20	0xbe2ddf1e	-0.16979644
21	0x3e1d46be	0.15359017
22	0x3e3a8f06	0.18218622
23	0xbe77e326	-0.24207744
24	0xbd48b860	-0.04900396
25	0xbe694db3	-0.22783546
26	0x3e98d2e5	0.298484
27	0xbe843d10	-0.25827837
28	0x3d8d1040	0.06887865
29	0xbe9d2c1b	-0.30697712
30	0x3e33843a	0.17530909
31	0xbda35894	-0.07975879

conv2.0.pointwise.weight f4 [64, 32, 1, 1]
0	0xbe1bea5c	-0.1522612
1	0xbd1e1f24	-0.038603917
2	0x3cadb098	0.02120237
3	0xbe12912e	-0.14313194
4	0x3e1d674b	0.15371434
5	0xbd92f31e	-0.07175277
6	0xbd6389b0	-0.05555123
7	0xbcdd3c10	-0.02700618
8	0x3b903940	0.004401356
9	0xbc4565a0	-0.012048155
10	0xbdfcffd8	-0.12353486
11	0xbd9d556e	-0.0768231
12	0xbc9a2060	-0.018814266
13	0xbe0c5f81	-0.13708307
14	0x3d3ac1c0	0.04559493
15	0x3d150ffc	0.036392197
16	0x3e2adde9	0.16686215
17	0x3dedbd6e	0.116083965
18	0x3e047321	0.12934543
19	0x3c8ca430	0.017168134
20	0xbcaed278	-0.021340594
21	0xbdfda712	-0.12385382
22	0x3df01a2e	0.117237434
23	0x3db81e96	0.08990209
24	0x3dbea7da	0.09309359
25	0x3d9f4fc2	0.077788845
26	0xbc2178b0	-0.009855434
27	0xbe3232df	-0.17402218
28	0x3e11cb73	0.14237766
29	0x3df574ce	0.11985169
30	0xbc5adbf0	-0.013358101
31	0x3d158a40	0.0365088
32	0xbe1b7040	-0.15179539
33	0x3d449f50	0.048003495
34	0x3e296c19	0.16545142
35	0x3d52cc6c	0.051464483
36	0xbe19cb2d	-0.15018912
37	0xbde2c83d	-0.11073349
38	0x3d3e354c	0.046437547
39	0xbd10e50c	-0.035374686
40	0xbe0040f0	-0.12524772
41	0x3cefafb0	0.029258579
42	0x3df7302e	0.120697364
43	0xbd72b98a	-0.059258975
44	0x3d3ebee0	0.04656875
45	0xbe280b44	-0.16410547
46	0x3db3de8e	0.08782683
47	0x3e0402b9	0.12891664
48	0x3dff9b5a	0.12480803
49	0xbe2b39f1	-0.16721322
50	0x3ca30e28	0.019904211
51	0x3e023fbd	0.12719627
52	0xbe1486dc	-0.1450457
53	0xbe2f3e50	-0.17113614
54	0x3d7916a0	0.060812593
55	0x3deee9ba	0.116656736
56	0x3d7a5bd8	0.061122745
57	0xbe335f7e	-0.17516896
58	0x3e198a87	0.1499425
59	0x3d5b9ec0	0.053618193
60	0xbe11df40	-0.1424532
61	0x3dff8546	0.12476592
62	0x3d97691e	0.073930964
63	0xbd84a2a0	-0.06476331
64	0x3dac1a32	0.08403434
65	0xbdb94029	-0.09045441
66	0x3e3265ad	0.17421599
67	0xbd0ca324	-0.03433527
68	0x3cc670c0	0.024223685
69	0xbe167688	-0.14693654
70	0xbde60e32	-0.11233176
71	0x3e348941	0.17630483
72	0x3dc4b136	0.09604113
73	0x3da12a1a	0.07869358
74	0xbdb1ac6f	-0.08675467
75	0xbda1b7d2	-0.07896389
76	0x3d96bdf6	0.07360451
77	0xbdaa5cab	-0.08318456
78	0xbdc513bf	-0.09622907
79	0x3d0c2c04	0.034221664
80	0xbdb31f17	-0.08746164
81	0xbd834a0e	-0.06410609
82	0x3d9fc316	0.078008816
83	0x3df17d02	0.117914215
84	0x3d878b2e	0.06618343
85	0x3da9467a	0.082653955
86	0x3cfd2538	0.030901536
87	0x3dfda93e	0.12385796
88	0x3e33b33b	0.1754884
89	0x3d352df8	0.044233292
90	0x3de98eda	0.114042
91	0x3d9d2c72	0.07674493
92	0x3d7a2584	0.061070934
93	0xbe1398b7	-0.14413725
94	0x3dccf82e	0.10008274
95	0xbd2bcb7c	-0.041942105
96	0x3cac54a0	0.021036446
97	0xbe145eb0	-0.14489245
98	0xbe09bf39	-0.13451852
99	0x3afe2000	0.0019388199
100	0x3b788f80	0.003792733
101	0xbe2de6f9	-0.1698264
102	0x3e1e7781	0.15475275
103	0xbdc35670	-0.09537971
104	0x3cc7f2f8	0.024407849
105	0xbcd6a9c8	-0.026204005
106	0x3e221d37	0.15831457
107	0xbdb8bffc	-0.09020993
108	0x3e03700f	0.12835716
109	0xbcd956e0	-0.026530683
110	0x3d12922c	0.03578393
111	0x3d8e29de	0.06941579
112	0x3dbd06ae	0.0922979
113	0x3e053b59	0.1301092
114	0x3dd4e8c6	0.103959605
115	0x3d5c0070	0.053711355
116	0x3dcd3bea	0.10021193
117	0xbdb08f78	-0.086211145
118	0x3d37dfac	0.044891044
119	0x3e14dfcb	0.14538495
120	0xbd980dc6	-0.07424502
121	0xbd61e29e	-0.05514776
122	0x3e13abed	0.14421053
123	0x3cff6130	0.031174272
124	0x3df03aa6	0.11729936
125	0x3dffe5a6	0.12494974
126	0xbd6d7e52	-0.057981797
127	0x3ce86820	0.028369963
128	0x3cf41800	0.0297966
129	0x3dc9cb32	0.098532096
130	0xbda972e9	-0.082738705
131	0x3c0cfeb0	0.008605644
132	0xbe2ffe1c	-0.17186779
133	0x3d53a9f0	0.051675737
134	0x3e062135	0.13098605
135	0xbe0c9472	-0.13728502
136	0xbe320ff8	-0.17388904
137	0xbd43ae20	-0.04777348
138	0x3ddee89e	0.10884212
139	0x3e12ce63	0.14336543
140	0xbe20d87d	-0.15707584
141	0x3cbbbeb8	0.02291809
142	0xbd719368	-0.05897847
143	0x3e073411	0.13203456
144	0x3d77b5f0	0.060476243
145	0xbe06c3ca	-0.13160625
146	0xbe013fbf	-0.12621973
147	0x3e2bdd23	0.16783576
148	0x3d84109e	0.06448482
149	0x3e18eb79	0.14933576
150	0xbd96feb0	-0.073727965
151	0xbe06c614	-0.13161498
152	0x3e23d623	0.15999655
153	0xbd8a1f5c	-0.067442626
154	0xbd5ede20	-0.054411054
155	0x3dbdc58a	0.09266193
156	0x3e16af9f	0.14715432
157	0xbe34bda9	-0.17650475
158	0xbd8d86f2	-0.069105044
159	0x3dbdc8fe	0.09266852
160	0x3d25bcfc	0.040463433
161	0xbd89c441	-0.067268856
162	0x3ded1666	0.11576538
163	0x3d6a37b0	0.057182014
164	0xbd748160	-0.059693694
165	0xbdd0d89c	-0.10197565
166	0xbdf9d91a	-0.12199612
167	0x3e20b3ef	0.15693639
168	0xbd914390	-0.07092965
169	0xbe237b01	-0.15964891
170	0x3d93174a	0.071821764
171	0x3e2dce27	0.16973172
172	0x3e0c1595	0.13680108
173	0xbc39e510	-0.011346117
174	0x3e2c11fb	0.16803734
175	0x3da0ce1e	0.07851814
176	0x3d9f71ca	0.077853754
177	0x3d026404	0.031833664
178	0xbe27aca1	-0.16374446
179	0x3cff9dc0	0.03120315
180	0xbdb7a6bc	-0.08967349
181	0x3e1f21df	0.15540265
182	0x3d99eb66	0.07515602
183	0xbe19c2b8	-0.15015686
184	0x3d41fe84	0.047361866
185	0xb9fc5c00	-0.0004813373
186	0x3e0d1adf	0.13779782
187	0x3e0f2c4f	0.13981746
188	0xbd759a5e	-0.05996167
189	0xbdfad7f5	-0.12248222
190	0x3c532af0	0.012888655
191	0x3dd150ce	0.102204904
192	0x3e09b75f	0.13448857
193	0xbe29f5be	-0.1659765
194	0x3da604c6	0.08106379
195	0xbdb42400	-0.08795929
196	0x3d8afd0c	0.06786546
197	0xbc168ad0	-0.009188369
198	0x3c9fbfa8	0.019500569
199	0x3b2842c0	0.0025674552
200	0xbe32be2d	-0.17455359
201	0xbc4e8db0	-0.012607023
202	0xbd411da8	-0.047147423
203	0xbdeac4ce	-0.11463319
204	0xbdc98b15	-0.09840981
205	0x3d9ce3fe	0.076606736
206	0x3d61bff8	0.055114716
207	0x3d9dd4ca	0.07706602
208	0xbde5f5b0	-0.11228502
209	0x3e327cf5	0.1743048
210	0x3ce63b78	0.028104529
211	0x3baa3d40	0.00519529
212	0xbdd48fd2	-0.10378994
213	0x3dc1c7a2	0.09461905
214	0xbc1482a0	-0.009064347
215	0x3cc1dd58	0.023665115
216	0xbe1b0850	-0.1513989
217	0x3e2ace05	0.16680153
218	0xbdbb77b3	-0.0915369
219	0x3d8bae6c	0.06820378
220	0x3e1a82ab	0.15088908
221	0xbdaaf74a	-0.08347948
222	0x3d24c084	0.04022266
223	0xbdfd9a6f	-0.123829715
224	0xbe33c2e5	-0.17554815
225	0x3d92b9b0	0.07164323
226	0x3e1e5445	0.15461834
227	0xbe01e1c0	-0.12683773
228	0xbe20cdaa	-0.15703455
229	0xbc12c020	-0.008956939
230	0x3c6d2760	0.01447472
231	0x3dec34d6	0.11533515
232	0xbd80d5ef	-0.062908046
233	0x3de01cda	0.10943003
234	0xbdf8c157	-0.12146252
235	0x3d4b1358	0.049578995
236	0xbcf1d9d0	-0.029522806
237	0xbe1433cc	-0.14472884
238	0x3b2ea440	0.0026648194
239	0x3d097dc4	0.033567205
240	0xbdb3a973	-0.08772554
241	0xbe19df57	-0.15026604
242	0xbd9cbd04	-0.07653239
243	0x3dc7fa6e	0.097645625
244	0xbe036f7e	-0.128355
245	0x3bc11020	0.005891815
246	0x3d93b674	0.072125345
247	0xbd799916	-0.06093701
248	0xbd2c0d60	-0.042004943
249	0x3d195f84	0.037444606
250	0x3e113fb7	0.14184462
251	0x3e0079a9	0.1254641
252	0x3db68722	0.08912493
253	0x3bb8bd40	0.0056377947
254	0xbe30ebe4	-0.17277485
255	0x3d875ebe	0.066098675

conv2.0.pointwise.bias f4 [64]
0	0x3e0ab5ad	0.13545866
1	0xbe0299c5	-0.12753971
2	0xbc3a6f80	-0.011379123
3	0x3e309a1d	0.1724629
4	0x3e31a2fd	0.17347331
5	0xbe2d1ee1	-0.1690631
6	0xbd2b2fa0	-0.041793466
7	0x3d43188c	0.04763083
8	0x3dfdc34e	0.12390767
9	0x3c81f418	0.015863463
10	0x3cbf75a0	0.023371518
11	0x3d9c0282	0.07617666
12	0xbd925999	-0.07145996
13	0xbdff6b42	-0.1247163
14	0x3e1ecf8b	0.15508859
15	0x3e2aed0d	0.1669199
16	0xbd8fc496	-0.07019918
17	0x3d0485cc	0.03235416
18	0x3e268dc3	0.16265015
19	0xbdeb70e8	-0.114961445
20	0x3e1da325	0.15394266
21	0x3dc51f1a	0.09625073
22	0x3da351c2	0.079745784
23	0xbccc8568	-0.024965957
24	0xbd7b04c8	-0.061283857
25	0x3d97610e	0.073915586
26	0x3e06d441	0.13166906
27	0x3da0db46	0.07854323
28	0x3c76c370	0.015061244
29	0x3dcafcce	0.099115
30	0x3daa33de	0.08310674
31	0x3e094b97	0.13407741
32	0xbd70c2f6	-0.05877968
33	0x3d844328	0.064581215
34	0x3debb206	0.11508565
35	0xbde1c90d	-0.110246755
36	0xbd99c297	-0.07507818
37	0xbc220eb0	-0.009891197
38	0x3e2076ff	0.15670393
39	0xbdb59621	-0.088665254
40	0x3e10bc8f	0.1413443
41	0x3d3310d4	0.04371722
42	0xbdc7bde2	-0.09753014
43	0x3dfe9b92	0.124320164
44	0x3df5f7f6	0.120101854
45	0x3dc3769a	0.09544106
46	0x3daa5e62	0.08318783
47	0x3d576d44	0.05259444
48	0xbcf10478	-0.029421076
49	0x3d8682fa	0.065679505
50	0xbe2c850a	-0.16847625
51	0xbdbe5852	-0.092941895
52	0x3dfedd7a	0.12444587
53	0x3d60b9b8	0.054864615
54	0x3e1d1889	0.1534139
55	0xbe2572ab	-0.16157024
56	0xbd53f830	-0.051750362
57	0xbca750a0	-0.020424187
58	0x3b7d6540	0.0038665086
59	0x3db8d9ee	0.09025942
60	0x3b4371c0	0.002982244
61	0x3de4432a	0.11145623
62	0x3d48bf54	0.04901059
63	0x3e29eef1	0.16595055

conv2.1.weight f4 [64]
0	0x3f800000	1.0
1	0x3f800000	1.0
2	0x3f800000	1.0
3	0x3f800000	1.0
4	0x3f800000	1.0
5	0x3f800000	1.0
6	0x3f800000	1.0
7	0x3f800000	1.0
8	0x3f800000	1.0
9	0x3f800000	1.0
10	0x3f800000	1.0
11	0x3f800000	1.0
12	0x3f800000	1.0
13	0x3f800000	1.0
14	0x3f800000	1.0
15	0x3f800000	1.0
16	0x3f800000	1.0
17	0x3f800000	1.0
18	0x3f800000	1.0
19	0x3f800000	1.0
20	0x3f800000	1.0
21	0x3f800000	1.0
22	0x3f800000	1.0
23	0x3f800000	1.0
24	0x3f800000	1.0
25	0x3f800000	1.0
26	0x3f800000	1.0
27	0x3f800000	1.0
28	0x3f800000	1.0
29	0x3f800000	1.0
30	0x3f800000	1.0
31	0x3f800000	1.0
32	0x3f800000	1.0
33	0x3f800000	1.0
34	0x3f800000	1.0
35	0x3f800000	1.0
36	0x3f800000	1.0
37	0x3f800000	1.0
38	0x3f800000	1.0
39	0x3f800000	1.0
40	0x3f800000	1.0
41	0x3f800000	1.0
42	0x3f800000	1.0
43	0x3f800000	1.0
44	0x3f800000	1.0
45	0x3f800000	1.0
46	0x3f800000	1.0
47	0x3f800000	1.0
48	0x3f800000	1.0
49	0x3f800000	1.0
50	0x3f800000	1.0
51	0x3f800000	1.0
52	0x3f800000	1.0
53	0x3f800000	1.0
54	0x3f800000	1.0
55	0x3f800000	1.0
56	0x3f800000	1.0
57	0x3f800000	1.0
58	0x3f800000	1.0
59	0x3f800000	1.0
60	0x3f800000	1.0
61	0x3f800000	1.0
62	0x3f800000	1.0
63	0x3f800000	1.0

conv2.1.bias f4 [64]
0	0x00000000	0.0
1	0x00000000	0.0
2	0x00000000	0.0
3	0x00000000	0.0
4	0x00000000	0.0
5	0x00000000	0.0
6	0x00000000	0.0
7	0x00000000	0.0
8	0x00000000	0.0
9	0x00000000	0.0
10	0x00000000	0.0
11	0x00000000	0.0
12	0x00000000	0.0
13	0x00000000	0.0
14	0x00000000	0.0
15	0x00000000	0.0
16	0x00000000	0.0
17	0x00000000	0.0
18	0x00000000	0.0
19	0x00000000	0.0
20	0x00000000	0.0
21	0x00000000	0.0
22	0x00000000	0.0
23	0x00000000	0.0
24	0x00000000	0.0
25	0x00000000	0.0
26	0x00000000	0.0
27	0x00000000	0.0
28	0x00000000	0.0
29	0x00000000	0.0
30	0x00000000	0.0
31	0x00000000	0.0
32	0x00000000	0.0
33	0x00000000	0.0
34	0x00000000	0.0
35	0x00000000	0.0
36	0x00000000	0.0
37	0x00000000	0.0
38	0x00000000	0.0
39	0x00000000	0.0
40	0x00000000	0.0
41	0x00000000	0.0
42	0x00000000	0.0
43	0x00000000	0.0
44	0x00000000	0.0
45	0x00000000	0.0
46	0x00000000	0.0
47	0x00000000	0.0
48	0x00000000	0.0
49	0x00000000	0.0
50	0x00000000	0.0
51	0x00000000	0.0
52	0x00000000	0.0
53	0x00000000	0.0
54	0x00000000	0.0
55	0x00000000	0.0
56	0x00000000	0.0
57	0x00000000	0.0
58	0x00000000	0.0
59	0x00000000	0.0
60	0x00000000	0.0
61	0x00000000	0.0
62	0x00000000	0.0
63	0x00000000	0.0

conv2.1.running_mean f4 [64]
0	0x3e7e4214	0.24829894
1	0x3c5d0447	0.013489789
2	0xbdb73907	-0.08946424
3	0x3e189045	0.14898784
4	0x3deebca8	0.11657077
5	0xbf0c2008	-0.54736376
6	0x3da2d89f	0.079514734
7	0xbd620e3e	-0.055189364
8	0xbd8c9fcb	-0.068664156
9	0x3b5ea156	0.0033970675
10	0xbcf5859d	-0.029970938
11	0xbd2a4dde	-0.041578166
12	0xbe3e6699	-0.18593825
13	0x3dd3d40e	0.103431806
14	0xbe12591e	-0.14291808
15	0xbe585d8a	-0.21129432
16	0x3e47f8ca	0.19528499
17	0xbea65b5d	-0.3249158
18	0xbe84e924	-0.25959122
19	0x3dafc53d	0.08582542
20	0x3eb21498	0.34781337
21	0xbe1453c3	-0.14485078
22	0x3ec0a46e	0.3762545
23	0xbe96d54d	-0.2945961
24	0xbc7a62d6	-0.015282353
25	0xbdd0c285	-0.10193352
26	0x3dcce75b	0.10005065
27	0xbd3c21a6	-0.045930527
28	0x3e255c85	0.16148575
29	0x3d5b23e7	0.053501036
30	0xbe4851f1	-0.19562508
31	0x3eb9f974	0.3632313
32	0xbd91c0d6	-0.07116859
33	0x3e1754da	0.14778462
34	0x3e9109a0	0.28327656
35	0x3a49ffe2	0.0007705671
36	0xbd1c1532	-0.03810615
37	0xbd64ad2c	-0.055829212
38	0x3ee9f203	0.45692453
39	0x3ca929c3	0.020649796
40	0x3eccc87a	0.399967
41	0xbe3a1dbd	-0.18175407
42	0xbe5a62c8	-0.21326745
43	0x3e73e803	0.23818974
44	0x3eba7d56	0.3642375
45	0x3c886cbc	0.016653411
46	0x3e8a95d6	0.2706744
47	0x3ec340ac	0.38135278
48	0xbe251a5a	-0.16123334
49	0x3e200823	0.15628104
50	0xbdcb56ad	-0.099286415
51	0x3e150214	0.14551574
52	0xbd4bcae7	-0.04975405
53	0x3e1b0faa	0.15142694
54	0xbe39840d	-0.1811678
55	0xbc968634	-0.01837454
56	0x3e94f268	0.2909119
57	0xbdbfd34e	-0.09366475
58	0x3c04e48e	0.008111132
59	0x3e2d40f6	0.16919312
60	0x3c2dd63e	0.010610161
61	0x3c1598b4	0.009130646
62	0x3d943d77	0.07238286
63	0x3d4a7c8c	0.049435183

conv2.1.running_var f4 [64]
0	0x3d890191	0.06689752
1	0x3c846f04	0.016166218
2	0x3cead3a0	0.028665364
3	0x3cd3ba5e	0.025845703
4	0x3cb58d5c	0.022162132
5	0x3e15252a	0.14564958
6	0x3d115b63	0.035487544
7	0x3c503c23	0.01270965
8	0x3d2cb7c1	0.04216743
9	0x3d5bb599	0.053639982
10	0x3da54af8	0.0807094
11	0x3c1c4e99	0.0095402235
12	0x3c899267	0.016793443
13	0x3c8a0180	0.016846418
14	0x3d13e0f0	0.03610319
15	0x3ccf9075	0.025337437
16	0x3cc7ae9d	0.024375254
17	0x3ca5f851	0.020260008
18	0x3e01bb6a	0.12669149
19	0x3d75584a	0.059898652
20	0x3db73bdc	0.08946964
21	0x3d0e090e	0.034676604
22	0x3c81bad6	0.01583616
23	0x3d0deb2a	0.034648098
24	0x3d36bb81	0.04461241
25	0x3cd070ce	0.025444414
26	0x3d270a5d	0.040781368
27	0x3d365bb0	0.044521034
28	0x3c3080c4	0.010772888
29	0x3c6c5ac4	0.014425937
30	0x3d57e265	0.05270614
31	0x3cb5b908	0.022182956
32	0x3bd3da08	0.0064652003
33	0x3c4a47d1	0.012346224
34	0x3cde4877	0.027134163
35	0x3d764d8a	0.06013254
36	0x3cafa9bc	0.02144324
37	0x3c2b68f0	0.010462031
38	0x3d64fd94	0.055905893
39	0x3c4223da	0.011849368
40	0x3ca733f7	0.020410521
41	0x3cb77d27	0.022398544
42	0x3c38f81d	0.011289624
43	0x3c14aa34	0.009073783
44	0x3d2c44d5	0.04205783
45	0x3cd47ca9	0.025938349
46	0x3c440f22	0.011966499
47	0x3d502ce8	0.050824076
48	0x3ce77935	0.028256038
49	0x3c8a462f	0.01687917
50	0x3c838ede	0.016059335
51	0x3d569e42	0.05239702
52	0x3d23e65c	0.04001461
53	0x3c15f036	0.009151509
54	0x3d186c80	0.03721285
55	0x3cfe0795	0.031009475
56	0x3d2b04f1	0.04175276
57	0x3cd7105a	0.026252914
58	0x3bfe8d91	0.007768341
59	0x3d93a90f	0.0720998
60	0x3d558055	0.05212434
61	0x3d008225	0.031374115
62	0x3c2f8f71	0.010715351
63	0x3cd490c0	0.025947928

conv3.0.depthwise.weight f4 [64, 1, 3, 3]
0	0x3e0fe9ca	0.14054027
1	0xbe21c288	-0.15796864
2	0xbe92712e	-0.28601974
3	0x3e5aa152	0.21350601
4	0x3cb13a80	0.02163434
5	0xbe54d49e	-0.20784232
6	0x3c7d3ce0	0.015456408
7	0x3ea80e1d	0.32823268
8	0x3e049e32	0.12950972
9	0xbc2e1ce0	-0.0106270015
10	0x3e60571a	0.21908227
11	0xbc8fd430	-0.017557234
12	0xbea1020b	-0.3144687
13	0x3e07a942	0.1324816
14	0xbe58c6a0	-0.2116952
15	0xbe34232b	-0.1759154
16	0xbd3e5400	-0.046466827
17	0x3e18ce5a	0.14922467
18	0x3e490e42	0.19634345
19	0x3e360922	0.17776921
20	0xbd54cb68	-0.051951796
21	0x3e23d19a	0.15997925
22	0x3ea74cb1	0.32675698
23	0x3dca69ac	0.098834366
24	0x3e398bfa	0.18119803
25	0xbe4f0a70	-0.20218825
26	0x3e279002	0.16363528
27	0xbe5c8548	-0.21535218
28	0x3e5eb762	0.21749642
29	0x3e8ea721	0.27861884
30	0x3be23a40	0.0069039166
31	0xbb8b78c0	-0.004256338
32	0xbdf7ae90	-0.12093842
33	0x3e2d0542	0.16896537
34	0x3e30c41a	0.17262307
35	0x3e68930a	0.22712341
36	0xbea7ab06	-0.32747668
37	0x3c2a8780	0.010408282
38	0x3dc77690	0.09739411
39	0x3e9a06a1	0.30083182
40	0x3e8a4855	0.2700831
41	0x3d3abef8	0.04559228
42	0xbe8cbb78	-0.27486777
43	0xbe5298f0	-0.20566154
44	0x3c183b20	0.00929144
45	0xbea67854	-0.32513678
46	0x3e539202	0.20661166
47	0xbe1b62e8	-0.15174448
48	0xbe2d78fe	-0.16940686
49	0xbc1a7500	-0.009427309
50	0xbde26486	-0.110543296
51	0x3e9405e9	0.2891076
52	0x3e90e279	0.28297785
53	0x3d40f540	0.04710889
54	0xbea930fe	-0.3304519
55	0x3e20e8e0	0.15713835
56	0x3e9aa6ad	0.3020529
57	0xbe831b28	-0.25606656
58	0xbd250388	-0.04028657
59	0xbe25468e	-0.16140196
60	0x3e30a0da	0.1724886
61	0x3e9b3739	0.3031557
62	0xbc837110	-0.016045123
63	0xbea152d6	-0.3150851
64	0x3db48ab0	0.08815515
65	0xbdc32320	-0.09528184
66	0xbe94f50f	-0.29093215
67	0x3e6354c6	0.22200307
68	0x3e9fe361	0.31228164
69	0xbe9dff6f	-0.30858943
70	0x3e687c92	0.2270377
71	0x3d07fce0	0.033200145
72	0x3e1928c2	0.14956954
73	0xbe37c180	-0.17944908
74	0xbe7b24ab	-0.24525706
75	0x3cd36f40	0.025809884
76	0x3e592d3a	0.21208659
77	0x3e0e7ac8	0.13914025
78	0xbe90dd73	-0.28293952
79	0x3e950b33	0.29110107
80	0xbe80b664	-0.25139153
81	0xbd9320ec	-0.07184014
82	0x3e38478e	0.17996046
83	0xbe41a0b8	-0.18908966
84	0x3e3258b2	0.17416647
85	0xbe24b9ab	-0.16086452
86	0x3df56334	0.11981812
87	0xbe895d96	-0.26829213
88	0xbe49fb53	-0.19724779
89	0xbdb470f0	-0.088106036
90	0xbe8f24b4	-0.2795769
91	0x3e2ff552	0.17183426
92	0x3dece9e0	0.115680456
93	0x3dcc98a4	0.099900514
94	0x3d44b9c0	0.048028708
95	0xbe949270	-0.29017973
96	0xbea47eb7	-0.32127926
97	0xbe90b902	-0.2826615
98	0xbe6853fe	-0.2268829
99	0x3e874315	0.26418367
100	0x3e321a92	0.17392948
101	0x3e97bacb	0.296347
102	0xbd05cc20	-0.032665372
103	0xbe92ad07	-0.28647634
104	0x3df1f600	0.11814499
105	0x3e62111a	0.22076836
106	0xbd8b8990	-0.06813347
107	0x3ea341a9	0.31886032
108	0xbe996638	-0.299608
109	0x3e8eec61	0.27914718
110	0xbd020740	-0.031745195
111	0xbe8a1b42	-0.2697392
112	0x3e9d15d5	0.3068072
113	0xbea603e0	-0.3242483
114	0xbdc9d54c	-0.09855136
115	0xbe08bbe0	-0.13352919
116	0xbd56a358	-0.05240187
117	0x3e844491	0.25833562
118	0x3e92bb3d	0.28658476
119	0xbe053498	-0.13008344
120	0x3e8c78b9	0.27435854
121	0xbe1e9660	-0.15487051
122	0xbe92a1cb	-0.28639063
123	0x3e68769a	0.22701493
124	0x3e4d4146	0.20044431
125	0xbc9025f0	-0.017596215
126	0xbe67d968	-0.22641528
127	0xbe1fc6a3	-0.15603118
128	0xbcc9e430	-0.024644941
129	0x3e28e452	0.16493347
130	0x3e13a238	0.1441735
131	0xbd2d3ae0	-0.042292476
132	0xbcf7aff0	-0.03023526
133	0xbe8d3bc4	-0.2758466
134	0x3ddfaf30	0.10922086
135	0x3e053f66	0.13012466
136	0xbdf43230	-0.11923635
137	0x3be09100	0.006853223
138	0xbe4225a3	-0.1895967
139	0x3eaa2abb	0.33235726
140	0xbea3ba7e	-0.3197822
141	0x3d1a8a48	0.03772953
142	0x3e2b639a	0.16737214
143	0xbc01aa80	-0.0079141855
144	0x3e8d25a7	0.2756779
145	0x3e5bdef6	0.21471772
146	0xbcf38150	-0.029724747
147	0xba57fa00	-0.0008238852
148	0xbe2135bb	-0.15743153
149	0x3e66d17a	0.22540846
150	0xbe870b37	-0.26375744
151	0x3e1b7d52	0.15184525
152	0xbd02a6f8	-0.031897515
153	0x3d3a4928	0.045479923
154	0xbe9c83ae	-0.30569214
155	0xbe834b72	-0.25643498
156	0xbe94771f	-0.28997132
157	0xbde4903c	-0.11160323
158	0x3e7bec3e	0.24601838
159	0xbe4c4a30	-0.19950175
160	0xbe5dc470	-0.21656966
161	0x3e96711b	0.29383168
162	0x3e74c0d2	0.2390168
163	0x3df17fb0	0.117919326
164	0xbdd0d116	-0.1019613
165	0x3da6af30	0.08138883
166	0xbe910652	-0.28325135
167	0x3d0c9a60	0.03432691
168	0xbea4710c	-0.32117498
169	0x3da1161c	0.07865545
170	0xbe8cd04f	-0.27502677
171	0x3e7cb54e	0.24678537
172	0xbe2cfb70	-0.16892791
173	0x3e817879	0.25287226
174	0xbe99f298	-0.30067897
175	0x3e4365f2	0.19081858
176	0x3e8e574b	0.27800974
177	0x3e2133fe	0.1574249
178	0x3d9627b4	0.073317915
179	0xbe57f93e	-0.21091172
180	0xbdab25ac	-0.08356795
181	0xbe8ef677	-0.27922413
182	0x3e7d03ea	0.24708524
183	0xbe2f6d6e	-0.17131588
184	0x3ea62423	0.32449445
185	0xbda30440	-0.07959795
186	0xbdf23a6c	-0.11827549
187	0x3e3cac66	0.1842514
188	0xbe26fd66	-0.16307601
189	0xbe626840	-0.2211008
190	0x3e0c0bae	0.1367633
191	0x3e9de2d9	0.30837134
192	0x3db0097c	0.08595559
193	0xbea4be1f	-0.321763
194	0xbe9c2720	-0.304986
195	0x3d7c5a08	0.061609298
196	0xbe0ac846	-0.13552961
197	0x3e6c7b72	0.23093966
198	0x3d1ef708	0.038809806
199	0x3e38e35a	0.18055478
200	0x3ea49279	0.32143
201	0xbd8125ac	-0.063060135
202	0xbd53a098	-0.051666826
203	0x3e9f3983	0.31098565
204	0xbd2ed5a8	-0.042684227
205	0xbce35b50	-0.027753502
206	0x3e6f4952	0.23367813
207	0x3e915127	0.28382227
208	0xbd486de8	-0.04893294
209	0xbe78a010	-0.24279809
210	0x3e8bb085	0.2728311
211	0xbe9f5514	-0.31119597
212	0x3e5f11ce	0.21784136
213	0xbe8590e2	-0.260871
214	0x3e8bcfa1	0.27306846
215	0x3e496292	0.19666508
216	0xbe870ef7	-0.26378605
217	0xbe8b35d7	-0.27189514
218	0xbdd07e10	-0.101802945
219	0x3eaa5ced	0.33274022
220	0xbe247be3	-0.16062884
221	0xbd4c7780	-0.04991865
222	0xbea26d44	-0.31723988
223	0x3e9feedd	0.31236926
224	0x3cf2d8c0	0.02964437
225	0xbe9520ab	-0.29126486
226	0xbea82fd4	-0.3284899
227	0x3e47746e	0.19478008
228	0x3da68204	0.08130267
229	0xbe3caa00	-0.18424225
230	0xbe994b7f	-0.2994041
231	0xbe65be23	-0.22435813
232	0xbe1cf7a8	-0.15328848
233	0xbdc8c74c	-0.09803638
234	0xbe34fb88	-0.17674077
235	0x3e7b242a	0.24525514
236	0x3c9021b0	0.017594188
237	0x3e5cc91a	0.21561089
238	0xbdb58766	-0.08863716
239	0x3e82185d	0.25409213
240	0x3daad730	0.08341825
241	0x3e85783d	0.26068297
242	0x3e3d1572	0.18465212
243	0x3e29bcb0	0.16575885
244	0x3e43a31e	0.19105193
245	0xbe323b66	-0.17405471
246	0xbe8f5cb4	-0.28000414
247	0xbd2bc928	-0.041939884
248	0xbd5a4660	-0.05328977
249	0x3dc65ac0	0.09685278
250	0x3e926739	0.28594378
251	0x3da40b14	0.080099255
252	0x3d246ca0	0.040142655
253	0xbd448f38	-0.047988147
254	0xbe53b9ab	-0.20676295
255	0x3e477aa2	0.19480374

conv3.0.depthwise.bias f4 [64]
0	0x3bce3900	0.006293416
1	0x3e8d1d41	0.2756138
2	0xbdd33a7c	-0.103138894
3	0x3df06a5c	0.117390364
4	0xbe1c4a60	-0.15262747
5	0x3e8458b1	0.25848916
6	0xbea02784	-0.31280148
7	0x3d9e2e7c	0.0772371
8	0xbda16ad0	-0.07881701
9	0xbd85e2e4	-0.065374166
10	0xbd393a40	-0.045221567
11	0xbe31999e	-0.17343757
12	0x3cc5e9c0	0.024159312
13	0x3e7dfa7a	0.2480258
14	0x3dbf6480	0.09345341
15	0xbea26a17	-0.31721565
16	0x3e581d52	0.21104935
17	0x3de076d0	0.10960162
18	0x3e8ddf33	0.2770935
19	0xbdd0c3ec	-0.10193619
20	0x3e9ce31f	0.3064203
21	0x3e27acd8	0.16374528
22	0xbe470806	-0.19436654
23	0xbe21914b	-0.15778081
24	0xbe7003e8	-0.2343899
25	0xbe546600	-0.20742035
26	0xbddcfee0	-0.10790801
27	0xbe803964	-0.25043786
28	0xbd2b9498	-0.041889757
29	0xbe6139d0	-0.2199471
30	0x3ea77793	0.32708415
31	0x3e0bb726	0.13644084
32	0xbe9012c3	-0.28139314
33	0x3e26ba62	0.16282037
34	0x3b7fc080	0.003902465
35	0xbd5fc8e0	-0.05463493
36	0xbe08b960	-0.13351965
37	0x3d14ea28	0.03635612
38	0xbde88010	-0.11352551
39	0xbcb61bf0	-0.022230119
40	0x3e9e5bdd	0.3092946
41	0xbe61d770	-0.22054839
42	0xbe7f7b68	-0.2494942
43	0xbe81861c	-0.2529763
44	0x3e43962a	0.19100252
45	0x3e9aa785	0.30205932
46	0x3df15ae4	0.11784914
47	0x3e93e35b	0.28884396
48	0x3e7cbba2	0.24680951
49	0xbe8ea41a	-0.27859575
50	0xbe96c74a	-0.2944892
51	0x3d08dbf8	0.033412904
52	0x3e5c26ba	0.21499148
53	0x3e43d75a	0.19125119
54	0x3d95f34c	0.07321796
55	0xbe4529a6	-0.19254169
56	0x3d26a348	0.04068306
57	0x3e7f3c1a	0.2492527
58	0xbe62197b	-0.22080033
59	0xbdd12566	-0.10212211
60	0x3e7364fa	0.23768988
61	0xbe80fc80	-0.25192642
62	0x3e9712e9	0.29506615
63	0xbe65980b	-0.22421281

conv3.0.pointwise.weight f4 [128, 64, 1, 1]
0	0x3d600cf8	0.054699868
1	0x3dec476e	0.11537062
2	0xbdec2a9a	-0.11531563
3	0xbd828dd8	-0.06374711
4	0xbd0af270	-0.033922613
5	0x3da91d2e	0.08257519
6	0x3d8fa658	0.070141494
7	0x3ae43f80	0.0017413944
8	0xbd600490	-0.05469185
9	0x3de6d78c	0.11271581
10	0x3b7aa3c0	0.0038244575
11	0x3de0346a	0.10947497
12	0x3d23af38	0.039962023
13	0xbc395f70	-0.011314258
14	0x3df42272	0.119206324
15	0xbc69c5c0	-0.014268339
16	0x3bf69b80	0.0075258613
17	0x3d9a8d06	0.07546429
18	0x3d49e41c	0.049289808
19	0xbdf2c304	-0.118536025
20	0x3de8d18c	0.11368093
21	0xbdb1a7fc	-0.086746186
22	0x3cf6a100	0.030106068
23	0x3d9a3836	0.07530253
24	0x3c00fb20	0.007872373
25	0x3dba4994	0.09096065
26	0xbcd9c468	-0.026582912
27	0xbd00cec0	-0.031447172
28	0x3d2bb8fc	0.04192446
29	0xbdb12242	-0.08649112
30	0x3dae7d8c	0.0852004
31	0x3ded378c	0.1158286
32	0x3d2989a0	0.041391015
33	0xbd60925c	-0.05482708
34	0xbde9c42c	-0.1141437
35	0xbd81c74e	-0.063368425
36	0xbdb6effe	-0.089324936
37	0xbdcb9428	-0.09940368
38	0x3dedd91a	0.116136745
39	0x3dd4500a	0.10366829
40	0xbd886760	-0.06660342
41	0x3d90c33e	0.070684895
42	0x3dbafd78	0.091303766
43	0xbddc0072	-0.107422724
44	0xbdc4fd2e	-0.09618603
45	0xbd9ce60a	-0.07661064
46	0x3da5cbc0	0.08095503
47	0x3def56d6	0.116864845
48	0x3dc62436	0.096748754
49	0xbc47fea0	-0.012206703
50	0xbd9a16bc	-0.075238675
51	0x3bd73820	0.00656797
52	0x3dd28666	0.10279541
53	0xbdd69e8c	-0.10479459
54	0x3bcd0fe0	0.006257996
55	0x3c3cbf10	0.011520162
56	0x3db398e0	0.08769393
57	0x3ddbae66	0.10726623
58	0x3d82dc94	0.06389728
59	0xbdffeb20	-0.124960184
60	0x3cf7e958	0.030262634
61	0xbd905cfe	-0.07048987
62	0x3d94deee	0.07269083
63	0xbde812e6	-0.113317296
64	0x3d9431a6	0.07236032
65	0x3bf8c720	0.007592097
66	0x3c9897d8	0.018627092
67	0x3d87b84e	0.0662695
68	0xbbba5da0	-0.0056874305
69	0xbdca6a26	-0.098835275
70	0xbd0dbff8	-0.034606904
71	0xbdcdfd3a	-0.10058065
72	0x3c975cc0	0.018476844
73	0xbdef2dd2	-0.116786614
74	0xbdc038e6	-0.093858525
75	0x3d0fa0ec	0.035065576
76	0x3d41e768	0.047339827
77	0xbc1d8530	-0.009614274
78	0xbd86d026	-0.0658267
79	0xbd2c314c	-0.0420392
80	0x3d3754c8	0.044758588
81	0x3bc739e0	0.0060798973
82	0xbcab91d8	-0.020943567
83	0x3d336d58	0.04380545
84	0xbc7ddc80	-0.015494466
85	0xbd949430	-0.07254827
86	0xbdcf2882	-0.10115148
87	0x3cca29d0	0.02467814
88	0xbc8501c0	-0.016236186
89	0xbdda2c22	-0.10652949
90	0xbd0ba9e0	-0.034097552
91	0x3ce59ef8	0.028029904
92	0xbd6f27c0	-0.058387518
93	0x3bbaf260	0.005705163
94	0xbdd25810	-0.10270703
95	0x3d544ac8	0.05182913
96	0xbce33e40	-0.027739644
97	0x3d4b7f0c	0.04968171
98	0xbdd1b628	-0.10239822
99	0x3d95ae0c	0.073085874
100	0xbd6910a0	-0.05690062
101	0x3c93c420	0.018037856
102	0x3d407900	0.046990395
103	0xbd35c950	-0.04438144
104	0x3a868280	0.0010262281
105	0xbd630d84	-0.05543281
106	0xbc8875a0	-0.01665765
107	0x3a887380	0.0010410398
108	0x3afc0e80	0.0019230396
109	0x3c8563d8	0.01628296
110	0xbd9d6db0	-0.07686937
111	0x3c486170	0.012230262
112	0xbdbbbf04	-0.09167293
113	0xbcb195a8	-0.021677807
114	0x3d2aca1c	0.041696653
115	0x3c270820	0.010194808
116	0xbd8b8056	-0.068115875
117	0x3db4f9e0	0.088367224
118	0xbcf816e8	-0.03028436
119	0xbcdba270	-0.026810855
120	0x3c48c810	0.01225473
121	0xbd71e078	-0.05905196
122	0x3d3edc30	0.046596706
123	0xbcd893e8	-0.026437715
124	0x3db84a0e	0.089985
125	0x3d14a670	0.03629154
126	0x3d79e074	0.06100507
127	0x3d3d3280	0.04619074
128	0xbd342e08	-0.04398921
129	0xbd05d5c0	-0.03267455
130	0xbdfc1210	-0.12308133
131	0x3c860130	0.016357988
132	0x3c167a70	0.009184465
133	0xbdcc95ac	-0.09989485
134	0x3d9c38a8	0.07627994
135	0x3dc447e0	0.095840216
136	0xbd024af8	-0.031809777
137	0xbdda5a0c	-0.10661706
138	0xbda4acc6	-0.080407664
139	0x3c2e6b30	0.010645673
140	0xbddf9234	-0.10916558
141	0x3d92b476	0.071633264
142	0xbd2407fc	-0.040046677
143	0xbdf372dc	-0.11887142
144	0xbde1bbe0	-0.110221624
145	0x3ce120e0	0.027481496
146	0xbda3d630	-0.079998374
147	0xbd9a9e64	-0.07549742
148	0xbdb1dc28	-0.086845696
149	0xbdc6ebbe	-0.09712933
150	0x3d7172e4	0.05894746
151	0xbc45bbf0	-0.012068734
152	0x3da95ea0	0.082700014
153	0xbdfa1bbe	-0.12212323
154	0xbd9a6708	-0.07539183
155	0xbd1a1824	-0.03762068
156	0x3d2a60c4	0.04159619
157	0xbdab3ca4	-0.08361176
158	0xbdf1ca38	-0.11806148
159	0xbd781288	-0.060564548
160	0x3cfe17e8	0.031017259
161	0xbdb9df56	-0.09075801
162	0x3d6a67f8	0.05722806
163	0x3dfd944e	0.123818025
164	0x3d511378	0.051043957
165	0xbde591c8	-0.11209446
166	0xbd93b1aa	-0.07211621
167	0xbdfb26c2	-0.12263252
168	0x3de5f5ae	0.112285
169	0x3a1af000	0.00059103966
170	0x3d268044	0.040649667
171	0x3bd05780	0.006358087
172	0x3d6d4ecc	0.057936475
173	0xbdb0a704	-0.08625606
174	0xbda93c62	-0.0826347
175	0xbdb59fc0	-0.088683605
176	0xbd3c7a40	-0.046015024
177	0x3dd9c37c	0.10632989
178	0x3dc13478	0.09433836
179	0x3dac4f9a	0.0841362
180	0x3d929c42	0.0715871
181	0x3d81b7c0	0.06333876
182	0x3d984070	0.074341655
183	0x3bd6ce00	0.006555319
184	0xbdea58be	-0.114427075
185	0xbdf2c122	-0.118532434
186	0xbd41e160	-0.047334075
187	0x3da0310a	0.078218535
188	0x3c3d89c0	0.011568487
189	0x3d365594	0.044515207
190	0x3d75779c	0.05992852
191	0x3df62686	0.120190665
192	0x3da63278	0.08115095
193	0xbce65a88	-0.02811934
194	0xbcb0cdb8	-0.02158247
195	0xbd6697a4	-0.05629696
196	0xbd8ab8f6	-0.0677356
197	0xbdca2be2	-0.09871651
198	0xbdab7ae0	-0.08373046
199	0x3df7e062	0.121033445
200	0x3da0399c	0.07823488
201	0x3d081a14	0.033227995
202	0xbdbc95fc	-0.09208295
203	0xbde30a88	-0.11085993
204	0xbd7761e4	-0.06039609
205	0xbdbbb4c2	-0.09165336
206	0xbd896a62	-0.06709744
207	0x3d8d4b6c	0.06899151
208	0xbc55b9a0	-0.013044745
209	0x3d2137cc	0.039359853
210	0x3dab1e4e	0.083553895
211	0xbd481f38	-0.048857898
212	0xbd6bb924	-0.05754961
213	0x3df47e4a	0.1193815
214	0xbddc6226	-0.10760908
215	0xbd4f3898	-0.05059108
216	0xbb978180	-0.004623592
217	0xbd20c930	-0.039254367
218	0xbdc4c99c	-0.096087664
219	0xbce30890	-0.027714044
220	0x3de7849a	0.113045886
221	0x3dd4da9c	0.10393259
222	0xbdd57c60	-0.10424113
223	0x3d1c0ee8	0.038100153
224	0xbc048670	-0.008088693
225	0x3d87046c	0.0659264
226	0x3dee87fa	0.11647029
227	0xba60b600	-0.0008572042
228	0xbd1e2ac4	-0.038615003
229	0xbdd295ec	-0.102825016
230	0xbd50b784	-0.050956264
231	0x3dcf5668	0.101239026
232	0x3ca9e888	0.020740762
233	0x3ca80480	0.020509958
234	0x3d752680	0.05985117
235	0xbd82dae6	-0.06389408
236	0x3dbb6712	0.091505185
237	0x3d1d9d64	0.038480178
238	0x3da72326	0.08161001
239	0xbde96640	-0.11396456
240	0xbd917728	-0.071028054
241	0xbbcda5a0	-0.0062758476
242	0x3d68ee04	0.056867614
243	0x3d874e70	0.06606758
244	0x3d860930	0.06544721
245	0x3d5556b4	0.05208464
246	0x3d9b0638	0.075695455
247	0xbd8461e0	-0.06463981
248	0x3cc56c48	0.024099484
249	0xbd38af18	-0.045088857
250	0xbd9fac72	-0.07796563
251	0x3c8dc730	0.017306894
252	0xbc6e17b0	-0.014532015
253	0xbd8c8cf2	-0.06862821
254	0xbdee7084	-0.116425544
255	0x3d5a0670	0.053228796

conv3.0.pointwise.bias f4 [128]
0	0x3da6e332	0.08148803
1	0x3da3f004	0.08004764
2	0xbd89ab28	-0.067220986
3	0x3dfa7bde	0.12230657
4	0x3dec3416	0.11533372
5	0x3db3771e	0.08762954
6	0x3dc23674	0.09483042
7	0xbd79b3c8	-0.06096247
8	0x3dffabae	0.12483917
9	0xbbddbde0	-0.0067670196
10	0x3d8e78c8	0.06956631
11	0x3d0a09d4	0.03370078
12	0x3d5bdd7c	0.05367802
13	0x3d013bf8	0.03155133
14	0xbded13ea	-0.11576064
15	0x3d2b20e0	0.0417794
16	0xbd572cf8	-0.05253312
17	0x3d2bec5c	0.041973457
18	0xbbce89e0	-0.006303057
19	0xbd704768	-0.05866185
20	0x3df1b162	0.11801411
21	0xbdfb73f2	-0.12277974
22	0x3c72abf0	0.014811501
23	0x3cd9c528	0.02658327
24	0xbdfd5f58	-0.12371701
25	0xbdbe3b66	-0.09288673
26	0xbc0f24f0	-0.008736834
27	0xbdcdf3e0	-0.10056281
28	0xbd4d9c84	-0.050198093
29	0x3d768ad0	0.060190976
30	0xbd786730	-0.060645282
31	0x3d775c90	0.06039101
32	0xbd269b7c	-0.040675625
33	0x3cb81418	0.022470519
34	0xbd3fd5d8	-0.046834797
35	0xbda22314	-0.07916847
36	0x3da21d80	0.07915783
37	0xbd3b9c38	-0.04580328
38	0xbd1d2844	-0.03836848
39	0xbdab79c0	-0.08372831
40	0x3d88a3a0	0.06671834
41	0xbc9efba8	-0.019407108
42	0x3db26146	0.0870996
43	0x3da4b384	0.080420524
44	0xbd63c304	-0.055605903
45	0x3dd21d70	0.10259521
46	0x3d80ca5c	0.06288597
47	0x3d24d6e4	0.040244
48	0xbdfa66ac	-0.12226614
49	0xbdefef14	-0.117155224
50	0xbd1dcfd0	-0.038528264
51	0x3decbeca	0.115598276
52	0xbd9500aa	-0.07275517
53	0xbdc98c54	-0.098412186
54	0x3d79438c	0.060855433
55	0x3c019640	0.007909358
56	0x3d673474	0.056446508
57	0x3d6f3d44	0.058408037
58	0xbd6d9044	-0.05799891
59	0x3dbe4e96	0.09292333
60	0xbac4e280	-0.0015021116
61	0xbccff898	-0.025387093
62	0x3c907e00	0.017638206
63	0x3dc98b82	0.09841062
64	0x3d115784	0.035483852
65	0x3da0aba2	0.07845236
66	0xbdb263bc	-0.08710429
67	0xbd87428a	-0.06604488
68	0xbd44d760	-0.04805696
69	0xbcc08718	-0.023501918
70	0xbd1a67fc	-0.037696823
71	0x3c4d7300	0.012539625
72	0x3d35b150	0.04435855
73	0xbde48ee2	-0.11160065
74	0x3da6c3ce	0.081428155
75	0xbd587304	-0.052844062
76	0x3df3567e	0.118817315
77	0xbdaeedd0	-0.08541453
78	0x3de73f14	0.11291328
79	0x3db87ef4	0.090085894
80	0xbd91b534	-0.0711464
81	0xbdebdf2a	-0.115171745
82	0x3dca0e60	0.09866023
83	0x3d7299cc	0.059228703
84	0x3da3c518	0.07996577
85	0x3df5543e	0.119789585
86	0x3de0836c	0.10962567
87	0x3d90757e	0.0705366
88	0x3d97a748	0.07404953
89	0xbdd8684e	-0.105667695
90	0x3df8042c	0.12110171
91	0x3dc7f70e	0.09763919
92	0x3c96b8b0	0.018398613
93	0x3dbbccbc	0.09169909
94	0xbd132b78	-0.035930127
95	0xbdde4270	-0.10852516
96	0xbd68212c	-0.05667226
97	0x3bbeb540	0.0058199465
98	0xbd889166	-0.066683576
99	0xbdc51358	-0.0962283
100	0xbdc32fea	-0.09530623
101	0x3ca75048	0.020424023
102	0x3d5e7cc4	0.054318205
103	0x3d868218	0.06567782
104	0xbc41b180	-0.011822104
105	0xbddd28ac	-0.10798773
106	0x3d3c18ac	0.045921966
107	0x3cfc16a8	0.030772522
108	0xbd354ac4	-0.044260755
109	0x3dc46726	0.095899865
110	0x3c1637c0	0.009168565
111	0x3d870adc	0.06593868
112	0xbdd846be	-0.10560368
113	0x3d148a58	0.036264747
114	0x3d4cd01c	0.050003156
115	0xbdd518b8	-0.10405105
116	0x3d64d198	0.055863947
117	0x3df93186	0.12167649
118	0xbdaf4e1e	-0.085598215
119	0x3deb2910	0.114824414
120	0xbd9bd844	-0.07609609
121	0xbde11cf6	-0.10991852
122	0x3da0157a	0.07816596
123	0x3c47b7f0	0.01218985
124	0x3df487ca	0.11939962
125	0x3d4044e4	0.0469407
126	0xbc8fb440	-0.017542005
127	0x3dcf2458	0.10114354
