neural network/c_unet_1647162803.6921902.pth (torch, 626407 bytes, 50 tensors)

conv1.0.depthwise.weight f4 [4, 1, 3, 3]
00000000: 449b bb3d 0f0a 063d 49b7 033d a2e0 243e
00000010: 171c ac3e dce5 8a3e 2e3e a9bc f191 6e3c
00000020: 80b5 f6bd 1616 b2bd b2f9 33bd 15ee 2abc
00000030: 8683 fb3d 1a0f 3dbe e091 153d f6ad a1be
00000040: 3da9 a1bd 8dc4 48be bc87 1e3d 2be1 a63e
00000050: ac90 79bb 5bdd bf3d 1791 e4bd 1ddc 92be
00000060: d7fc 37be cef2 85be 842b 493e 88e9 2e3e
00000070: a5fc 99be f134 8bbe 49a5 82be 2dcf 9a3e
00000080: f26c 5dbc dab7 16be 5822 81be 84f0 853e
0.09160474 0.032724436 0.032157216 0.16101316 0.3361518 0.27128494 -0.020659532 0.014561162
-0.12046337 -0.08695619 -0.0439393 -0.01043274 0.122809455 -0.18462792 0.03651607 -0.31578034
-0.07893608 -0.19606228 0.038703665 0.32593665 -0.0038080616 0.09368392 -0.11160486 -0.28683558
-0.17967544 -0.26161808 0.19645506 0.17081273 -0.30075565 -0.2718883 -0.25516728 0.30236188
-0.013514744 -0.14718571 -0.25221515 0.2616006

conv1.0.depthwise.bias f4 [4]
00000000: 60d6 4abe bab1 29be ab84 093d 43d0 d23d
-0.1980834 -0.16571704 0.033573788 0.10293629

conv1.0.pointwise.weight f4 [32, 4, 1, 1]
00000000: b43d 53bd 9880 0f3e c4eb 83be b189 a93e
00000010: 0501 9ebd 12f3 30be 63d3 cebe bc65 b33c
00000020: 1e12 3d3e 03aa 9e3a 7db1 713d 31e6 a33e
00000030: b7f6 233e fe62 cdbe 3b4f ac3e cd50 8bbe
00000040: 953c 593b 1c95 47bd 1c84 033e 7239 02bf
00000050: e0c9 413e eaa7 18be 99cd 8f3e 959f eabe
00000060: ecf5 9dbe 3f58 ebbe 605f d23d a863 a83e
00000070: 774c cf3e a550 dfbc 9fd5 c43e 1ad0 a2be
00000080: 7bb7 e3be c95d cabe f556 9ebe d28a eabe
00000090: 3d95 b8be f5ce 8cbe 693c c0bc 30b7 41be
000000a0: 819d e0be d7ab 7d3e abd3 9bbd 4be8 ad3e
000000b0: 2190 983e 76f0 223e b450 a13e 0427 563d
000000c0: bfac eb3e b0a8 a63e 59a3 1bbd 3829 20bf
000000d0: 36e2 5d3d de91 953e 1c09 bb3e 8d01 aabe
000000e0: 9a24 ccbe 6642 edbe 9d12 d73e 502b 013e
000000f0: 69b8 f03e 2363 bc3e 8147 ddbe 4631 93be
00000100: 8e38 cbbd 3bb9 bbbe 07a1 a83e 8ac9 7c3e
00000110: ca3c b0be 935e 073d 15dc 91bc ea0d 1abe
00000120: 8352 d23e 0986 9f3e b11f e23e 4b44 e4be
00000130: 9671 afbe 37ce 023e b7d3 45be 38f9 f0be
00000140: d2d9 763d c1c6 99bd 50c1 88bc a1a4 3bbe
00000150: aeb2 36be 8560 d7bc cf3e 9dbd 4b74 59bd
00000160: 2592 743e dae8 a5be d2d4 4ebe a6fa 47be
00000170: 0cd2 b8be dcc0 ed3d 3738 7bbe 5daf 6dbd
00000180: 2207 7a3e 9585 b83d fdbb 26be 9ba1 8ebe
00000190: 50a6 70be d0c8 2dbe 5bbd eabe 4921 543e
000001a0: 341c 7e3e f9ca 8cbd 0829 163f 147f 9c3e
000001b0: 5ff0 24be e62b 75be cfe5 b7bd 19ce bbbe
000001c0: 5a23 e6be 745e 893e f7cb 3c3d ec33 40be
000001d0: 7511 033f d6f6 943b 8db2 e9be 8d82 f2bc
000001e0: cee1 d5bd f36d 9fbe 1460 87be 5331 de3d
000001f0: b7ff 5cbe 2d8c b13e 86d1 bf3e 146f 27be
-0.051572517 0.14013898 -0.25765812 0.33112863 -0.07715038 -0.17280224 -0.4039565 0.021899097
0.18463942 0.0012105111 0.059007157 0.3201156 0.16012083 -0.40114588 0.33654198 -0.27210084
0.0033147682 -0.048726186 0.12843364 -0.50868905 0.18924665 -0.14907804 0.28086546 -0.45824876
-0.30851686 -0.45965764 0.102720976 0.32888532 0.40488026 -0.027260134 0.3844423 -0.31799394
-0.44475922 -0.39524677 -0.30925718 -0.45809036 -0.3605136 -0.27501646 -0.023466306 -0.18917537
-0.43870166 0.24772583 -0.07608732 0.33966288 0.29797462 0.15912041 0.31506884 0.052283302
0.46030232 0.32550573 -0.037997577 -0.62562895 0.05417081 0.2921285 0.36530387 -0.33204308
-0.39871675 -0.4633972 0.42006388 0.12614179 0.47015694 0.36794385 -0.43218616 -0.2874853
-0.09922896 -0.36664757 0.32935354 0.24686256 -0.34421378 0.033049177 -0.017805139 -0.1504437
0.41078576 0.31156948 0.44164804 -0.44583353 -0.34266347 0.12773977 -0.19319044 -0.4706514
0.060266323 -0.075086124 -0.016693741 -0.1832452 -0.17841598 -0.026291141 -0.076779954 -0.05308942
0.23883875 -0.32404214 -0.20198372 -0.19529209 -0.36097753 0.11609051 -0.24533163 -0.058028568
0.24416783 0.09009854 -0.1628265 -0.2785767 -0.23500943 -0.16971135 -0.45847592 0.20715822
0.24815446 -0.068746515 0.5865636 0.30565703 -0.1610732 -0.23942527 -0.089793794 -0.36680678
-0.44948846 0.26829875 0.046092954 -0.18769807 0.5119851 0.0045460267 -0.45644036 -0.029603267
-0.104434595 -0.31138572 -0.2644049 0.108492516 -0.21581922 0.34677258 0.3746454 -0.16350967

conv1.0.pointwise.bias f4 [32]
00000000: 1bb1 bdbe a33c aa3e 4b7c 95be 9083 e9bc
00000010: d8c9 f8bc 543a 2d3e 40a1 d139 47b8 a6bd
00000020: 2280 9a3e 761e 85be 556e e6be 0f96 853d
00000030: f664 c3be 1d50 a6be 5849 93be f38b 0a3e
00000040: 6510 bcbd 40f3 3e3e cc1b c3be f906 743e
00000050: 369f 983e c186 cf3e 9e60 fc3e 612f c73e
00000060: a56c d93c 9ed2 c8be 915d c7be 40e0 c73e
00000070: 50a0 ac3e 1a79 2ebe 9fd4 f6bd 7bc6 e03e
-0.37049183 0.33249387 -0.2919639 -0.028505117 -0.030369684 0.16916782 0.00039983727 -0.08140617
0.30175883 -0.25999802 -0.45006052 0.06522762 -0.38162965 -0.32482997 -0.28766894 0.13529949
-0.091828145 0.1864748 -0.38107145 0.23830785 0.29808968 0.40532497 0.49292463 0.38903335
0.026541064 -0.39223188 -0.38938573 0.39038277 0.3371606 -0.17038384 -0.12052273 0.4390143

conv1.1.weight f4 [32]
00000000: 4568 813f b8a6 793f c731 9e3f 268f 653f
00000010: 0a7f 733f 8192 6d3f 01f7 843f e67b 793f
00000020: b53a 543f dd32 843f 05ea 813f deaf 7c3f
00000030: 2a5b 773f d209 893f 05e8 853f cd3d 753f
00000040: 3e02 7d3f dce5 843f bb9b 853f d40f 823f
00000050: b26f 6c3f 66d1 853f 9b49 6a3f b05a 813f
00000060: a6f5 753f 6cb6 7a3f c875 773f a60d 833f
00000070: 0ba3 843f dd6b 7a3f 033f 6c3f a2e7 893f
1.0109946 0.9752002 1.2358941 0.8967155 0.9511572 0.9280167 1.038788 0.9745468
0.8290208 1.0328022 1.0149542 0.9870585 0.9662348 1.0706122 1.0461432 0.95797426
0.98831546 1.0382648 1.043815 1.016108 0.92357934 1.0454528 0.91518563 1.0105801
0.96077955 0.97934604 0.96664095 1.023854 1.0362257 0.97820836 0.9228365 1.0773814

conv1.1.bias f4 [32]
00000000: fd29 f93c 800d 783e a9fe 283c 56c6 bebd
00000010: 2f24 043c 2dfe 8bbd 00a8 87bb 48c1 3f3d
00000020: bb3c 8a3b c669 5bbc eefa 1dbb 5503 103e
00000030: dd8c d13c 4170 56bd f35a 443d c46e 013e
00000040: f07f 1c3c 922a 803d 836d 82bd 552e 95bc
00000050: 095d 30bc 8d4a 9ebd bae5 88bd 4cef b93d
00000060: 7174 17bd b563 6f3d b54f b2bc 76c9 993c
00000070: ffb3 a13d c631 cebb 937a 16bc f75c 023d
0.03041553 0.242239 0.010314622 -0.09315173 0.0080652675 -0.068355896 -0.0041399 0.046815187
0.0042186654 -0.013391918 -0.0024105865 0.14063771 0.025579864 -0.052353147 0.0479383 0.1263991
0.009551987 0.0625812 -0.06368544 -0.01821057 -0.010764369 -0.07729063 -0.06684442 0.090788454
-0.03697628 0.058444697 -0.021766523 0.018772822 0.0789566 -0.0062925545 -0.009184497 0.03182694

conv1.1.running_mean f4 [32]
00000000: 31cc d5be a70c c73e 2257 9dbe 8f6d c93d
00000010: 4b22 8fbb c9f7 5e3e 7821 193e 22cb a4bd
00000020: b3c9 e83e 6de6 1dbe 5059 06bf a9d7 aaba
00000030: 180e f8be 290f d5be 8a07 07be e314 693c
00000040: a2eb a93c 95a5 433e 2bb3 f7be 6ad1 633e
00000050: 0143 a63e 7071 d73e 3c15 193f 664c bd3e
00000060: 2422 caba d98c a9be 1c33 c7be 7483 f53e
00000070: 2968 893e b553 39be c6ef 85bc 41f5 a93e
-0.41757348 0.3887684 -0.3073054 0.0983535 -0.0043681017 0.2177421 0.14954174 -0.08046557
0.45466384 -0.15419932 -0.5248003 -0.0013034242 -0.48448253 -0.4161313 -0.1318647 0.014226171
0.020742241 0.19106133 -0.48378882 0.22247854 0.32472995 0.42078733 0.59798026 0.3697235
-0.0015421552 -0.3311527 -0.3890618 0.47951853 0.2683728 -0.18098338 -0.016349684 0.33194926

conv1.1.running_var f4 [32]
00000000: 108d e23a 0b4e f839 aae3 a338 3f5e c43b
00000010: 2e26 fb3a dcf1 993b d940 9439 9504 963b
00000020: 7545 b33a 1259 6138 327a 3c3c 63b4 9238
00000030: 93a4 a73b c407 7c39 50b6 b939 db36 303b
00000040: 1269 2638 7306 9a3a 2698 e23a 6bd4 b839
00000050: 9fe8 7a3a 70be 2b39 3b3e fe3b bc83 123b
00000060: db5d 113b 194b 7e39 f3ab ba38 6793 d33a
00000070: 8812 af3b 7b2c cb3b cb8d 113a 7a11 863b
0.0017284472 0.00047360393 7.8148514e-05 0.0059926803 0.0019161159 0.0046980213 0.00028277075 0.004578183
0.0013677316 5.3727133e-05 0.011503743 6.995422e-05 0.0051160543 0.00024035486 0.00035421783 0.0026888165
3.967534e-05 0.001175119 0.0017287775 0.0003525348 0.00095714064 0.00016378774 0.0077588833 0.0022356352
0.0022181186 0.00024251304 8.901199e-05 0.0016141952 0.0053427853 0.006200371 0.000555244 0.004091439

conv2.0.depthwise.weight f4 [32, 1, 3, 3]
00000000: 7862 90be 5dca 11be 8ffa 9cbe 489e 51be
00000010: 4136 703e 63dd 0d3e f05f 1e3e e076 08be
00000020: 4c33 b9be a62f 62be 9657 f03d d9e7 27be
00000030: 5792 52be 26ad a7bd 1f1c 573b 2c62 683e
00000040: cb4d 843e 3b5d 0c3e 37d4 cf3d 9a70 d8bd
00000050: c249 ef3b aa3a 633e 8d1f 93be 3379 083e
00000060: ebbc a43e 03f5 b6be a681 76be e60b 553e
00000070: 493a ed3d ee07 563d 84e6 b5be a6a3 5fbe
00000080: c9b5 403e 020c 0e3d 115c d93c c4e4 8d3c
00000090: e6e9 a53e f75b 46be b30f 2f3e 0817 833e
000000a0: 0070 8abe d46e a93d 47fb 2cbe 046e 10be
000000b0: 4c8a cd3d 66da e2bd 0f57 a53e 46db 69be
000000c0: 5298 5e3d 9545 a0bd 2f99 9f3e 4c95 833e
000000d0: adf3 67be 6cb1 95be ff7f 283e 624b 53be
000000e0: b659 2d3e 6d9a b1be ed3c b8be da8b 7fbe
000000f0: bde6 173e de11 81be e566 ebbd c5ac 743e
00000100: cb13 62be 60e6 903e ef1c 0dbe bf28 953e
00000110: 7e8c 1fbe 4c4b 85be 2c20 933d 21ab 83be
00000120: 55e5 7e3e d775 48bc f794 99be 93b7 e5bd
00000130: 2614 013e beed 173e 7752 a2be 9bca 513e
00000140: 5b76 a23d f18e 983e d706 63be bb0d 81be
00000150: 2c0a 82be 70a6 143e 7d82 763e 470d b5be
00000160: 1931 d7bd 7d54 82be 15fd 8fbd deef 513e
00000170: 4848 a73d 3e9a b33c a0ea 3f3e c56d e3bc
00000180: 0f07 7f3e 9c0a 8f3e 6669 86be b9a1 a93d
00000190: 31c9 4bbe 4eb6 76be 4c05 cbbd b091 15be
000001a0: cecf aebd 55ca 68be 3248 0e3e 37ec 623e
000001b0: cc79 4c3e d519 71bd 8b9d 7abe 156c 92bd
000001c0: 8abd b1bd 8cc4 76be c2f8 5e3e 7495 c2bd
000001d0: 8f2f 0abc 17c9 5b3e 5855 bd3e ccce 8c3e
000001e0: 7ef3 313e 6367 22bd 134a 9c3e 996e 623e
000001f0: 46a7 d23d da2c 64be 7532 22bd 03ba b23b
00000200: 6f79 5dbe 12fd af3e bf98 88bd d1c3 2fbc
00000210: bf29 d53e 05bf ea3a 56dc 8c3e 1073 bb3d
00000220: fdba 78be 7746 a2be 6be9 763e 2bdc 343e
00000230: 9d7a c1bd 51d7 473d b398 a23e b3ea 9ebe
00000240: 205a 84be 20b1 94bd ed9a 533e 7ad9 9a3e
00000250: 8c6f 59bd 0c00 74be 22aa 9c3e c660 743e
00000260: fbe3 843e acf3 b13e 4fc1 87be caae 92bd
00000270: 24b5 933e 7fb7 05be ddc7 ca3d 0194 2ebd
00000280: 0b79 a93d b599 bd3d 1878 993e de63 a03e
00000290: 3966 71bc b75d 9cbe a501 5cbe 0e44 6c3e
000002a0: 4236 a73b 331f 89bc 21b3 b0be 2177 28be
000002b0: b61a 9ebe ec45 2dbe ad80 7bbe 1298 99be
000002c0: 8c39 803d 3b80 4dbe 533a a9bd 29ed 853e
000002d0: 9441 16be 31e8 a73e 0b42 2fbe fd82 6fbe
000002e0: a2fb a1bd 17b5 19bc ffc0 e0bd 8560 4dbe
000002f0: 38b9 ba3e 9460 54be 2488 1b3d 9c19 94be
00000300: 1235 773e 92ae 673d ab96 5a3c 61b1 bc3c
00000310: 88c8 c43e a61f 89be ba9d 493d 9384 883d
00000320: 9177 09be 210f 63be dbd3 38bd 0ad2 7fbc
00000330: f1c3 353e ef3a 02be 715f 73be 29f9 813d
00000340: 1680 63be a8b0 72bd b56e 413e d874 a9be
00000350: d67d 2b3e d963 303e b8aa b3be c533 e73d
00000360: 88b5 823e 37b1 953d cb8f eebd 14a3 363e
00000370: bd08 f8bc a105 81bd 8966 83be 4f75 93bd
00000380: 80fc 79bd 6e3f 503e 6b52 98bd c399 5d3e
00000390: 0cce 653e a8a6 85be e8ce 8e3e 38f0 223e
000003a0: 69ea 923e 1874 93be 4d64 f93d 4ce2 8cbc
000003b0: 650a 79be cfa3 ecbc 1b97 4abc be32 803e
000003c0: ac70 423d 0b4f 1dbe 4b5c bbbc 9dc3 8a3e
000003d0: 3c68 adbe 652a b4bd 7725 9dbe 8afc febd
000003e0: ed3f b0bd 7032 40be 2d24 e5bd f616 52be
000003f0: b1a2 813e 465f a6bd 80d6 c53a ce4a 903e
-0.28200126 -0.14237352 -0.3065991 -0.20470536 0.23458196 0.13853984 0.15466285 -0.13326597
-0.3617195 -0.22088489 0.11735456 -0.16397037 -0.20563637 -0.08187322 0.0032823158 0.226937
0.258406 0.1370744 0.10147899 -0.10568352 0.007302494 0.22190347 -0.2873501 0.13327484
0.32175383 -0.35733804 -0.24072894 0.2080532 0.11583383 0.052253656 -0.35527432 -0.2183977
0.18819346 0.03467942 0.026533158 0.017320998 0.32405013 -0.1937102 0.17095833 0.2560351
-0.27038574 0.08273092 -0.1689273 -0.14104468 0.10036144 -0.110768124 0.32292983 -0.22837552
0.054344483 -0.07825772 0.31171557 0.25699842 -0.22651549 -0.29236925 0.16455077 -0.20634225
0.16928753 -0.3468813 -0.35983983 -0.24955693 0.14834113 -0.25208944 -0.11494235 0.23894031
-0.22077863 0.28300762 -0.13780569 0.2913265 -0.15580937 -0.2603401 0.07183871 -0.25716498
0.2489217 -0.012235126 -0.29996464 -0.11216655 0.12605342 0.14836785 -0.3170354 0.20487444
0.07932731 0.29796556 -0.22170578 -0.25205788 -0.25398386 0.14516616 0.24073215 -0.35361692
-0.105074115 -0.25455084 -0.070306934 0.20501658 0.081680834 0.021924134 0.18741846 -0.027762303
0.24905036 0.27937782 -0.26252288 0.08282799 -0.19900967 -0.24092981 -0.0991312 -0.14606357
-0.08535729 -0.22733434 0.13894728 0.22160421 0.19968337 -0.058862526 -0.2447416 -0.07149521
-0.0867873 -0.24098414 0.21774581 -0.09501162 -0.00843419 0.21463428 0.36979175 0.27501523
0.17378041 -0.03964938 0.30525264 0.22112502 0.10285811 -0.22282735 -0.0395989 0.005454303
-0.21628354 0.34372765 -0.06669759 -0.010727839 0.41633412 0.0017909711 0.27511853 0.09152806
-0.2429008 -0.31694385 0.2411248 0.17662112 -0.09447215 0.048789326 0.31757125 -0.31038436
-0.2585001 -0.072603464 0.20664568 0.30244046 -0.053084895 -0.23828143 0.3059855 0.23865041
0.25955185 0.3475622 -0.2651467 -0.071622446 0.28849137 -0.1305828 0.09901402 -0.042621616
0.0827504 0.09257833 0.29974437 0.31326193 -0.014733844 -0.3054025 -0.21485002 0.23072836
0.0051029036 -0.01673851 -0.34511665 -0.16451694 -0.30879754 -0.16921204 -0.24560805 -0.29998833
0.06260976 -0.20068447 -0.082630776 0.261575 -0.14673454 0.32794335 -0.17115037 -0.23389812
-0.07909323 -0.009381554 -0.10974311 -0.2005635 0.36469436 -0.20739967 0.03797163 -0.28925788
0.24141338 0.056562968 0.013341586 0.0230338 0.38434243 -0.26781958 0.049222685 0.066659115
-0.13424517 -0.2217374 -0.045123916 -0.015614042 0.17750527 -0.12717794 -0.23766877 0.06346352
-0.2221683 -0.059250504 0.18889888 -0.33096957 0.16747221 0.17225589 -0.35091186 0.11289171
0.25529122 0.07309192 -0.1164852 0.17835647 -0.030277604 -0.06299902 -0.25664166 -0.07200109
-0.06103182 0.20336697 -0.07437595 0.21640687 0.22441882 -0.2610371 0.27892232 0.15911949
0.28694466 -0.2879951 0.12177334 -0.01719775 -0.24320371 -0.028886704 -0.012365128 0.25038713
0.047470734 -0.15362184 -0.022871157 0.27102366 -0.33868587 -0.087971486 -0.30692646 -0.12450512
-0.08605943 -0.1876924 -0.111885406 -0.20516571 0.25319436 -0.08123641 0.0015093833 0.2818207

conv2.0.depthwise.bias f4 [32]
00000000: 16ab 4bbd fdec 973e a6c8 04bc 0fcd 75be
00000010: 3b9a d73c 342d a13d a374 a33d 7f13 4fbd
00000020: bed7 02be f4ec ad3b 3664 83be 147c 85bc
00000030: 4a2d 653e 974f bc3d b0d1 fdbc 43a0 b13d
00000040: d8d2 5bbe 2812 853e 39cd 843e ce94 1dbd
00000050: 16da 15be e507 a3be eed2 83bd 314c 73be
00000060: ecde 8d3e eb6f 90be 99d2 d1bd 6bd5 ffbd
00000070: 4f4a ae3e d917 3d3e db86 16be 8248 aabe
-0.049723707 0.29672995 -0.008104479 -0.24004005 0.02631866 0.0786995 0.07981231 -0.050555702
-0.12777612 0.005307788 -0.25662392 -0.016294517 0.22380558 0.09194868 -0.030983776 0.086731456
-0.2146715 0.25990415 0.25937822 -0.03847199 -0.14633974 -0.3184196 -0.06436716 -0.23759533
0.27709138 -0.28210387 -0.102452464 -0.12491878 0.34041068 0.18466128 -0.14699881 -0.33258444

conv2.0.pointwise.weight f4 [64, 32, 1, 1]
00000000: a902 44be b297 fd3b 4337 103e 944a f4bd
00000010: 8ab0 a0bd e9de 93bd 64d6 233e 3b69 2ebc
00000020: 48af a4be bbe4 0f3e 5335 723c 0329 143d
00000030: e699 303c 2310 123e a519 213e e805 ba3d
00000040: 6c1f d4bd a6e3 83bc 9596 403d 7aae 393e
00000050: cb79 cb3d c522 343d f590 5f3d 09ee 903d
00000060: 623e bebd 4bc0 ddbd fba2 873e 0235 5d3d
00000070: 4002 b83d 78a9 1c3d 59dc 1dbd b39b dc3d
00000080: b6d4 acbd 1b1f b7bd 50b4 75bd 5ef9 20be
00000090: 7c8b 1e3e d0b2 1a3e 9a75 863c ebb4 7ebd
000000a0: 3af1 aabd 61fb a2bd 9f98 313d a9b8 a13d
000000b0: 3659 bb3a e650 093e 0d65 2e3e 74c4 823e
000000c0: 54f4 673d d574 d9bd 5a8f 97bd fb33 04be
000000d0: f11d 543d 7e7d 323e 534c ffbd f865 a6be
000000e0: 351c e73b 82e8 04be 380a 9dbd a595 753d
000000f0: 971a 873d b987 b23b 06cc 9f3d e69e d9bc
00000100: d18f 24be 463f 8e3d 2e0d c2bd 78a9 4d3c
00000110: 6b76 9bbd 1ee2 12be 6af1 9cbb 564c 24be
00000120: c423 eebd c35f 0a3e b73b c2bd 3d38 52bc
00000130: 1531 913d 8d82 b43c 46bb d5bd e436 9a3d
00000140: 3128 153e 9604 a0bc b0ca 233e 752c 3b3e
00000150: aab7 363e a625 963d f240 6a3d 8a2f 8e3d
00000160: 1d73 12be 3fc8 efbd 12c2 19be bbba c83d
00000170: 9657 d5bd d20b 1b3e 7a10 a9bd b3a9 febd
00000180: 2845 abbd 9677 473e 32de 8e3e b0b3 d93d
00000190: 0858 2ebe 5a7b 24be 7ea1 b43d 78c3 fbbd
000001a0: 4ea4 93bc adb5 663e 718c 9b3d 0dc9 04be
000001b0: e950 e1bd e770 b23d 11d7 06be dba6 3e3d
000001c0: 211e ecbc 4fdd 543b e367 e0bd 4ad5 14be
000001d0: 7f94 bfbd 1cfe febd f145 fc3d fd36 d53d
000001e0: e1bb 32be 4003 ddbd d2c4 c1bd 7aee 253e
000001f0: e17b cd3d 01b9 21be 1f62 b0bd 693a 02bd
00000200: 7452 cbbd 226c 8a3c 1ec0 be3d abb0 1d3e
00000210: 51a0 d83d 30cd dcbc 43f9 dd3c ab4e 13be
00000220: 840b 39bc d421 a7bd 203d 0fbe 61e0 4d3e
00000230: 4c13 29be 60fe a7bd 5874 6fbd e7d9 a33d
00000240: b764 26bd 57d6 79be 5657 a0bd 92e0 0b3e
00000250: 76c8 1b3d 7328 1d3e f88e ccbd c876 583e
00000260: b75c 253d 2599 b43d ef6c 32bd 5202 fcbc
00000270: 98e3 3dbe 06a5 d03d 4e7f d6bc 6b05 52be
00000280: fe87 283e fa13 bfbd 789f a53d 829f a03d
00000290: 81b3 643d 97b0 52bc 79ef c43d 3daf fe3d
000002a0: c623 b5bd af93 98bb e9f9 15be e986 ecbc
000002b0: ffa3 f43d 26f4 8f3d 0639 063e cf1f 13be
000002c0: 95ac 5abe a0d2 1abd 0874 883d ef53 183e
000002d0: f32a 2abe 127f 05bd b0bf 0a3e ce82 d63d
000002e0: 8bed b0bd c83c 3d3b b486 573e d69e 14bd
000002f0: a6bf 233d 4e7d 323e ac2d 26be 9df7 94be
00000300: 14d6 21bc 5c31 0fbd 3211 003e 3c41 9f3d
00000310: f594 f33d eff6 9f3d 4cab 1f3e eb88 54bc
00000320: d337 09be 5fb4 293e f422 c93d 215c 23be
00000330: 46b2 a7bc 1d3b e83d 4fc4 73bd f007 b1bd
00000340: 3545 dfbd 77b3 4abe dbdd 31be 855a 1e3e
00000350: 89b5 8d3d c59d 07be ea0d a33d 1711 843d
00000360: 6ffa 43be 2058 d53a 7648 17be f09c f53d
00000370: 0286 4dbe 847e 66bd 79a7 d83d 87a8 c63d
00000380: 1ffe 073d 0ce8 1bbc 5642 fdbd 8c23 d0bc
00000390: bf18 c93d 4588 d33d 1aea 4e3d 5d1f 0c3e
000003a0: 1431 74bd 1850 59bc de4f 1a3e 456a ef3d
000003b0: 5cbb 45be 8890 07be d05a 183e c019 2bbe
000003c0: 4a94 1ebe 6172 3ebc e71d 983e 1253 2c3d
000003d0: e047 debd 69f4 8c3e e5b6 403d e094 d2bd
000003e0: a12d 3fbd e268 01bc cbfe b23d f7a3 603d
000003f0: 1385 063e b2bc 163e ff09 72bc 4d22 5bbe
-0.1914164 0.0077390308 0.1408358 -0.11928287 -0.07846172 -0.07220251 0.15999752 -0.010645206
-0.3216498 0.14052097 0.014783221 0.036171924 0.01077888 0.14263968 0.15732439 0.09083158
-0.10357556 -0.016099762 0.047018606 0.18132964 0.099353395 0.04397847 0.0545816 0.070766516
-0.09289242 -0.108276926 0.26491532 0.05400563 0.08984804 0.038247555 -0.038540218 0.10771885
-0.08439009 -0.0894148 -0.059986413 -0.15720126 0.15482897 0.15107274 0.016413499 -0.062184256
-0.083467916 -0.07958103 0.04335844 0.07896549 0.0014293555 0.13409767 0.17030735 0.25540507
0.056629494 -0.10617987 -0.07400389 -0.12910454 0.051786367 0.17430684 -0.124657296 -0.3249967
0.007052923 -0.1297932 -0.07667965 0.059957165 0.065968685 0.0054483083 0.07802586 -0.026565026
-0.16070487 0.06945662 -0.0947517 0.0125526115 -0.07590946 -0.1434407 -0.004789521 -0.16044745
-0.116279155 0.13513093 -0.09484046 -0.012830791 0.0708944 0.022034908 -0.1043611 0.07530001
0.14566113 -0.019533437 0.15995288 0.18278678 0.178435 0.073313996 0.057190843 0.06942661
-0.14301725 -0.11708116 -0.15015438 0.09801241 -0.10417096 0.15141228 -0.08255096 -0.12434711
-0.083628 0.19479212 0.27903897 0.10629976 -0.17025769 -0.1606268 0.08819865 -0.12293142
-0.018022683 0.22530241 0.075951464 -0.1296732 -0.110017605 0.08712941 -0.13167979 0.046545845
-0.02882296 0.0032480543 -0.10957315 -0.14534488 -0.09354495 -0.12450811 0.12318028 0.10410879
-0.17454483 -0.107916355 -0.094613686 0.16204253 0.10033394 -0.1579323 -0.08612465 -0.031793986
-0.09927836 0.016897265 0.09313987 0.15399425 0.10577453 -0.02695331 0.027096396 -0.14385478
-0.011294249 -0.08160749 -0.13988161 0.20105125 -0.16511267 -0.08202815 -0.058460563 0.08000546
-0.040623393 -0.2439817 -0.07829158 0.13659886 0.03803297 0.15347461 -0.099882066 0.21139061
0.040371623 0.088182725 -0.04356092 -0.030762825 -0.18543851 0.10187726 -0.02618375 -0.2050988
0.16458127 -0.09329982 0.08087057 0.07842924 0.05583525 -0.012859485 0.09615988 0.12435768
-0.08844714 -0.004656277 -0.14646114 -0.028872924 0.11945342 0.070289895 0.1310769 -0.14367603
-0.21354897 -0.037798524 0.06662756 0.14875768 -0.16617946 -0.032591887 0.13549685 0.10474168
-0.08639058 0.002887534 0.21047479 -0.03628429 0.039977692 0.17430612 -0.1622836 -0.29095164
-0.0098777 -0.034959182 0.1250656 0.07776114 0.11893646 0.07810771 0.15592688 -0.012972097
-0.13400201 0.16572712 0.0982112 -0.15953113 -0.02047075 0.113394 -0.059513386 -0.08644092
-0.10901872 -0.19795023 -0.17369787 0.15464218 0.06919391 -0.13243778 0.07961638 0.06448572
-0.19138502 0.0016276874 -0.14773735 0.11992824 -0.20070651 -0.056273 0.10578818 0.09700113
0.033201333 -0.0095157735 -0.12366168 -0.025407575 0.09819173 0.10328726 0.050516225 0.13683839
-0.059617117 -0.013263725 0.1506953 0.11690191 -0.19309753 -0.13238728 0.14878392 -0.16709042
-0.15486255 -0.01162395 0.29710314 0.04207141 -0.10853553 0.2753022 0.04704942 -0.10282302
-0.046674374 -0.007898541 0.08740004 0.05484387 0.13136701 0.14720419 -0.014772891 -0.21399803

conv2.0.pointwise.bias f4 [64]
00000000: 7b1a 263d 23e4 3f3e c3e9 133e 00e0 2ebd
00000010: 98c9 29be cc10 bf3d fdbd 22be 308a 1dbe
00000020: 082a 81bc 868d 1dbb 9fa4 d1bc fe0c 193d
00000030: 0dea c4bd 36da 213d a65b 43be 31b5 b4bc
00000040: 4858 2f3e a33a 82bd 62cc 663e 3958 a1bd
00000050: ace7 c03d c88b e53d fc84 afbc 3e56 da3b
00000060: c945 91bc 09a2 a3bd 19fc 0d3e d7e6 01bd
00000070: 59c8 55bb 9ff5 b9bd f2ad 59bd 1c74 13be
00000080: 94f4 64be adef 243c cc7d febd 60bb f83d
00000090: 85a3 cfbb d66e 243d 428e 8c3c 81d9 aebd
000000a0: e8ee fb3d 64bf 353d 0db3 123d 13c7 bfbc
000000b0: 4223 0b3e 3971 15be 89b5 fe3d 2675 bb3d
000000c0: f595 84bd 3cb2 113e b2ee cdbd a323 bd3c
000000d0: 5ad6 2fbe 2429 2a3e b303 52be ca1e 7ebd
000000e0: 6787 a13c 4345 4bbe a592 c13c ecc6 433e
000000f0: 2195 31be bd89 6dba 8a98 18be a810 293e
0.040552597 0.18739371 0.14444642 -0.04269409 -0.16580808 0.093293756 -0.15892787 -0.15384746
-0.015767112 -0.0024040653 -0.025591193 0.037365906 -0.09614954 0.039514743 -0.1907793 -0.022059055
0.1712352 -0.0635884 0.22538903 -0.07878155 0.09419188 0.11208302 -0.021425717 0.006663113
-0.017733471 -0.0798989 0.13865699 -0.031714287 -0.0032620637 -0.09080052 -0.053144403 -0.14399761
-0.22358924 0.010066909 -0.124263376 0.12145114 -0.0063366317 0.040144764 0.017157678 -0.08537579
0.12301427 0.044371977 0.035815287 -0.023410356 0.13587669 -0.14593972 0.12436969 0.09153204
-0.064739145 0.14228147 -0.10055293 0.023088282 -0.17171612 0.16617256 -0.20509224 -0.06204108
0.019717885 -0.1985064 0.023629496 0.19118851 -0.17342044 -0.0009061357 -0.14901939 0.1651026

conv2.1.weight f4 [64]
00000000: 6317 803f e00a 903f 5af8 6f3f f2a7 803f
00000010: e6a3 7e3f 9289 7e3f e928 7e3f 96dc 8d3f
00000020: 128e 823f 79a6 7e3f e230 793f 007b 773f
00000030: f500 803f 6876 773f d180 7b3f e53f 803f
00000040: a293 763f 7384 753f ecd0 753f ed68 853f
00000050: f78a 823f 587f 833f 8ae7 963f a816 953f
00000060: bb27 903f 3f7a 8e3f 7448 823f 8492 823f
00000070: 13da 893f 296c 713f 0dd6 773f 0a6a 8b3f
00000080: 8c2e 873f 7032 6a3f c266 803f ad9e 823f
00000090: 6222 833f 4b71 7a3f c017 823f 8ab8 893f
000000a0: 7bcb 8f3f 9550 7f3f 9a9f 7d3f 5fc0 793f
000000b0: 7ca7 793f 1e5f 813f 05f2 7a3f 2623 783f
000000c0: fcbd 6d3f 45b5 823f cf4d 843f 065a 7d3f
000000d0: edc2 763f 7dd6 923f 2f6c 893f 2ae3 7a3f
000000e0: 5728 783f 788b 793f f3fc 883f f2c3 a93f
000000f0: 3309 783f 229f 7a3f cc5d 733f e963 763f
1.0007137 1.1253319 0.9373833 1.0051253 0.9946884 0.99428666 0.99281174 1.1082942
1.0199606 0.9947277 0.97340214 0.9667206 1.0000292 0.9666505 0.98243433 1.0019499
0.9631902 0.95905226 0.96021914 1.0422646 1.0198659 1.0273237 1.178941 1.1647539
1.1262125 1.1131057 1.0178361 1.0200963 1.0769676 0.94305664 0.9681099 1.0891736
1.056108 0.9148321 1.0031359 1.0204674 1.0244868 0.9782912 1.0163498 1.0759442
1.1233972 0.99732333 0.9907166 0.9755916 0.97521186 1.0107152 0.9802554 0.9692863
0.9286802 1.0211569 1.0336245 0.9896549 0.96391183 1.1471707 1.073614 0.98002875
0.96936554 0.9747844 1.0702194 1.3262923 0.96889037 0.9789907 0.95065 0.962462

conv2.1.bias f4 [64]
00000000: b6dd 37bc 6b8c 36bc d6fe b23b 3242 55bd
00000010: 1590 dabc 7c91 feb9 f9d8 95bc 75ca 3d3d
00000020: 918e 833c c667 9a3c bbda 4abd e728 50bd
00000030: 24bf 653c 658a bbbd aae3 5abd 6003 6f3b
00000040: d19f 0b3b ce96 0cbd c79f b43c b5db a93e
00000050: bea3 6ebd ae24 433b ab24 8d3c d0ad 313e
00000060: 0f4d 083e ce70 1c3e 3149 333e 7da4 a6bd
00000070: 676f 79bc 914e 5bbd 81fe 013d 548d 93bd
00000080: 54c2 bdbb 9f02 4fbd c300 17bd e5d5 fabc
00000090: 8907 e43b 0080 37bc d0d8 1abc 2ddf 3d3e
000000a0: 0088 d43c fba8 a2bd 4628 afbc 735c 43bd
000000b0: 0b80 b73b 4680 85bd 9c5d 2cbc 3770 8f3d
000000c0: 1b51 01be d456 e2bc 413d 633e 759c c2bd
000000d0: d625 d33c 0019 753c 6dae c83d a297 6fbd
000000e0: eb88 94bc 169d 5dbd 442f debb 1e83 a83e
000000f0: 902b 6abc b1d4 e3bc b75b eb3b f2cd 7abc
-0.011222294 -0.011141877 0.0054625077 -0.052065082 -0.026680032 -0.0004855505 -0.018291937 0.046335656
0.016059192 0.018848311 -0.049525004 -0.050820258 0.014022622 -0.09157256 -0.053439774 0.0036470518
0.0021304975 -0.034323506 0.022048844 0.33175436 -0.058261625 0.0029776501 0.017229399 0.1735146
0.13310646 0.15277407 0.17508389 -0.081368424 -0.015224314 -0.053541724 0.031736854 -0.072046906
-0.005790988 -0.05053961 -0.03686596 -0.030619571 0.006958906 -0.011199951 -0.009451106 0.18542166
0.025943756 -0.07942387 -0.021381509 -0.04769559 0.0055999807 -0.06518607 -0.010520365 0.07003825
-0.12628596 -0.027629294 0.22191335 -0.09502498 0.025774878 0.014959574 0.09798894 -0.058494218
-0.018131694 -0.054104887 -0.006780537 0.32912534 -0.014292613 -0.02781138 0.007182564 -0.01530789

conv2.1.running_mean f4 [64]
00000000: 5ba8 13bd 8ba3 183f 0780 e4bd cc0f 58bd
00000010: 10b0 2fbf 6718 043b dd31 49bf 505c 17be
00000020: 87ee 703e ad2e 89bd 589c ad3e b6aa c33e
00000030: 3746 08be f97a e43d 2e48 16bf 61b0 cdbe
00000040: 5d3d d03d 0171 70be 2f8a c93d d5ca 5abd
00000050: 7e31 cf3d 1573 0cbf 3a07 4ebe e9ee d7bd
00000060: d338 d8be 3629 fcbe 4d42 11be f3b0 e1bd
00000070: b0a2 2abc 3a5f 7a3e 237a 30bf cf3c 693e
00000080: 72a6 e6be bff2 d63d 8580 a03e 06fc a13e
00000090: a7a5 c0be bf3f bf3e 6db3 c63d a516 d9be
000000a0: 0445 34bd 284a ff3d 8059 323e 2829 60be
000000b0: 9c0c 46be 03b3 a4be 2892 b13d 3c64 ccbd
000000c0: a4c6 8f3e 52d5 2a3e 0de2 b1be 2e3d 1d3e
000000d0: c92c 39bf 4ff0 433e c2e8 1b3b 6d63 ce3d
000000e0: 895b 023e d054 dabe 0328 7ebd 3b64 5c3e
000000f0: 58cf d73d 53da 7e3e a19c 8dbe 0226 353f
-0.03604923 0.59624547 -0.11157232 -0.05274944 -0.68628025 0.0020156146 -0.7859171 -0.14781308
0.23528491 -0.06698356 0.33908343 0.3821618 -0.13308035 0.11156268 -0.5870389 -0.4017363
0.10167954 -0.23480608 0.098408096 -0.053416092 0.10116862 -0.548631 -0.20119944 -0.10543615
-0.42230853 -0.4925019 -0.14185448 -0.110200785 -0.010414764 0.24450389 -0.68936366 0.22777103
-0.45048863 0.10495519 0.31348053 0.3163759 -0.37626383 0.37353322 0.097021915 -0.4240009
-0.04401113 0.12465316 0.17416954 -0.218907 -0.19340748 -0.32167825 0.08670455 -0.09980056
0.28081238 0.16682938 -0.34742776 0.1535537 -0.7233396 0.19134639 0.0023789858 0.10077558
0.1273023 -0.42642832 -0.062049877 0.2152261 0.105375946 0.24887972 -0.2765856 0.7076112

conv2.1.running_var f4 [64]
00000000: 184b a23d 2ee7 cf3d fa8d 6f3d d99f 423d
00000010: aa8d 093e 762a 2d3d fe71 a03d e720 5e3d
00000020: 0b4b f83d 41da 0c3d 8901 8f3d 8f64 5d3d
00000030: b995 6c3d 1119 923d ca65 353e 7172 0a3d
00000040: 7511 3c3d 40d7 d63c b2a3 3f3e e656 fb3c
00000050: d6d8 353d dd73 7e3e 0d50 7e3c 215e 0f3d
00000060: fe6e 283d bacc f93c ec3f af3c af6b 813d
00000070: 62ba 3c3d 6d66 9b3d 9cbd d43d 5dcf 843d
00000080: 6d33 003e f9a5 113d 5f5a 2d3e a7cd 573d
00000090: 6f07 333d 0d89 633d 9e96 c63c 215d 893d
000000a0: 9dd9 893d 93db 563d 3c76 013e f466 153d
000000b0: 014f 793d b635 873d aa07 8e3d 26ce 9f3d
000000c0: 7602 c73d 0dea 173e b9de 783d 1045 033d
000000d0: 4dbf 503e 6c16 243d 3487 7d3d c25b 653d
000000e0: 64dc 403d 462a bf3d cce1 223d f045 983c
000000f0: 2b64 2d3e 86b4 043d 636b 403d 58d6 fb3d
0.07924479 0.10151516 0.05848501 0.047515724 0.13432947 0.042276822 0.07834242 0.054230597
0.12123688 0.03438783 0.06982715 0.05405098 0.057759974 0.07133687 0.1771461 0.033800546
0.045915086 0.026225686 0.18714789 0.030681085 0.044396244 0.24848886 0.015522015 0.035001878
0.041121475 0.030493129 0.021392785 0.06319367 0.046076186 0.075878955 0.103877276 0.06484864
0.12519617 0.035558674 0.16929005 0.05268636 0.04370826 0.055550624 0.024241742 0.06707216
0.067309596 0.052455496 0.12642759 0.036475137 0.06086636 0.066020414 0.069350556 0.078029916
0.09717266 0.14835377 0.06075928 0.032048285 0.20385475 0.040060446 0.061896518 0.05599571
0.04708518 0.09334235 0.039766118 0.018588036 0.16932742 0.032398723 0.046977412 0.12296742

conv3.0.depthwise.weight f4 [64, 1, 3, 3]
00000000: f5c6 473d 8982 753e 376c 8ebe 8ed8 9a3d
00000010: 3320 293e a0e3 363e 53e8 6abe 4263 4cbe
00000020: fb01 ccbc a0d7 06be 928b d8bc 234e c73e
00000030: 997f 76be 2fc6 93bd 6bd4 c3bd f353 8e3e
00000040: 62ed b0be e18b 4d3e deb0 c5bd 5b16 07be
00000050: 0986 043d ecb9 b33d 8715 883e 5827 713e
00000060: 5c53 f2bd d70f 37be 96d2 1f3d 78b9 9d3d
00000070: 520b 91be 7363 763e 2cbd 763e 18b0 083e
00000080: 7068 ae3e 0257 303e 7f5f 493e 9990 773e
00000090: 83c7 4e3e a922 a0be 6964 a43d 1ab2 cbbd
000000a0: 773b ac3e ee46 8a3d 9a54 903e 8a6d 2d3e
000000b0: 58a6 88bd 31e8 973e c61b 8d3e 9ecc 823e
000000c0: 6639 9c3e 22a9 533e c028 06be c48b c1bd
000000d0: dc95 4e3e 9f35 abbe 9abd 19be 1703 9ebe
000000e0: a80a 8cbe bcba afbb 4a91 563e e4fb e83d
000000f0: 4505 1abe 8a6f 14be 7a72 513e bed1 b7bd
00000100: c1d9 d23c 2607 84bd cd1b 78be 88d8 0f3e
00000110: 5a92 463e 51c0 49bd e022 84be eaef 6e3e
00000120: 5e57 9ebe 9bf9 3d3e 1ce2 adbe 6a9c 35be
00000130: fdc0 a2be d55b 9cbd 976b b7be f336 c1bd
00000140: 44ac 833d 4146 4e3e 0a5e a73e bdfd 123e
00000150: 990d 84be 858d 453d 3905 b33e a17d fcbd
00000160: 8cf9 5fbd 2ca3 db3d 08d2 97be c8c0 283e
00000170: b15a 1ebe 1dc6 31bd 18b6 91be 8469 8e3e
00000180: da42 573e 3871 db3d 483a 913e f535 9fbe
00000190: bb65 d23d ed82 1c3d 1592 6bbe f374 aa3b
000001a0: c1a9 c23c 6652 273e b236 60bb 869c 003e
000001b0: 0df1 de3d 8482 223e b87c 67be 7304 15be
000001c0: bb04 153d 73cc 9f3e f119 1f3e 3450 483e
000001d0: 3d2a 823e 9d10 80be 5171 013e ba5b 89be
000001e0: 52a0 17be ee7c 3b3e 0a24 063e 2f46 b4bd
000001f0: 70cd cb3d 67a1 c43c d7a5 373e 2304 863e
00000200: ee42 c53d 414d a63e fe5c b53d 30bf 6d3d
00000210: 9fad 723e 93ff f5bd b9fb e43b 3acf 923c
00000220: c1d5 533e 346c 7e3d fadf acbd c742 55be
00000230: 006f 3ebe c1ca 7b3e e6a8 9abe a68f 443e
00000240: b07c 92be a798 64be 39cd 0c3d b92e 6b3e
00000250: aeaa 8abe ce3b bdbd e62e 323c 891a 9e3e
00000260: e4b5 d73a 7208 bebd a6aa 13bc 157f 9f3e
00000270: ffcb 073e 5ebd b0b9 5c56 033e e489 41be
00000280: 17bc 1abe 756d 35bd c88b 8c3e f851 bc3c
00000290: ac23 debd 8843 653b 4572 d73c c536 3b3e
000002a0: 7f38 7a3e e682 733e 27da 9abe 196c f73d
000002b0: b648 b83e f6ea e8bd b379 e23c f6dc bd3b
000002c0: 87b3 b8be ad70 3ebd ad7a 953e e20e 6fbe
000002d0: f44c 53bd ec60 9d3e b0ac 853e d03d 2bbe
000002e0: 9976 9d3e 54cb 503e 305a 0b3e 98d7 e53d
000002f0: f025 da3d 460f 0d3d 66cc ca3d 0960 4c3d
00000300: f22d 9fbd 15fd 9dbe 8e2b 2f3c 6225 b5be
00000310: 8224 8abc 15c0 273e 11b2 0b3e 4177 923d
00000320: b7e1 d1bc 0850 b0bb 3982 c0be f946 8dbd
00000330: 1227 a93e 5f39 1ebe 6592 813c a3ec c53e
00000340: bd50 8d3e cd04 3dbe 96c5 823e 3daf 98be
00000350: 97f5 c5bd 122c d63d 0193 26be 47c6 7fbe
00000360: 6a0f 32be 0dcf bd3e 5fbc 8a3e 69c9 07be
00000370: df13 db3c f0f7 613d c9c3 2fbc 7af8 bdbe
00000380: ef48 38be b4d5 1d3e 0c32 803e 3ff1 13be
00000390: 987c fdbd 2361 2abc c11c af3e 354e 71be
000003a0: 8e0f 6bbe f130 253d 0f1d c1be 5f8f aabe
000003b0: 6695 473e 23b2 1a3d d393 1f3e 2ee0 763e
000003c0: bb3a 783e c048 d2bd 49f2 033e 6df3 963d
000003d0: 4c30 3d3e 398e 85be c411 7e3e 56ef 973d
000003e0: f7bb 9d3e 93e4 103e 725e a53e d701 c1bd
000003f0: 4806 133e 3939 853e 0e29 8c3e ba1b 78be
0.048773725 0.23975576 -0.27816936 0.07560836 0.1651619 0.1786027 -0.22940187 -0.19959739
-0.024903288 -0.13168192 -0.02643374 0.389268 -0.24072112 -0.07215535 -0.09562 0.27798423
-0.3455611 0.20072891 -0.09652875 -0.13192122 0.03235439 0.08775696 0.26578924 0.23550165
-0.11832306 -0.17877136 0.03901919 0.07701391 -0.2832895 0.24061374 0.24095601 0.13348424
0.34064054 0.17220691 0.19665335 0.24176253 0.20193295 -0.31276444 0.08026964 -0.099460796
0.33639118 0.0675181 0.28189546 0.16936317 -0.066723526 0.29669335 0.27560252 0.25546736
0.30512542 0.20669988 -0.13101482 -0.09450486 0.20174354 -0.33439347 -0.15013734 -0.30861732
-0.2735188 -0.0053628366 0.20953861 0.11376169 -0.15041073 -0.14495674 0.20453826 -0.08975552
0.025738599 -0.06446676 -0.24229355 0.14047444 0.19391766 -0.049255673 -0.25807858 0.23333707
-0.3092603 0.18552248 -0.3396157 -0.17735448 -0.31787863 -0.07634703 -0.35824272 -0.09434309
0.064293414 0.20143987 0.32688934 0.14354606 -0.25791624 0.048230667 0.34964922 -0.12328649
-0.054681346 0.10724482 -0.2965243 0.1647979 -0.15464284 -0.043401826 -0.2845924 0.27814877
0.21021596 0.10714954 0.28364778 -0.31095853 0.1027331 0.038210798 -0.23004945 0.0052019297
0.023762586 0.16340026 -0.0034212288 0.12559709 0.108858205 0.158701 -0.2260617 -0.14552478
0.036381464 0.3121067 0.1553724 0.19561845 0.2542285 -0.25012675 0.12640883 -0.26827794
-0.14807251 0.18309376 0.13099685 -0.08802449 0.099512935 0.024002744 0.17934357 0.2617503
0.096319064 0.32480815 0.088556275 0.05804366 0.23699044 -0.120116375 0.0069880155 0.017921079
0.2068701 0.06211491 -0.08441158 -0.20826255 -0.1859703 0.24589063 -0.30206984 0.19195423
-0.28610754 -0.22323857 0.034375403 0.22967042 -0.27083343 -0.092399225 0.010875439 0.3087962
0.0016457406 -0.092789546 -0.009012854 0.31151643 0.13261412 -0.00033710425 0.12825912 -0.18900257
-0.15110813 -0.04429384 0.27450395 0.022988304 -0.108466476 0.0034982879 0.026299605 0.18282612
0.24435614 0.23780403 -0.30244562 0.12081165 0.35992974 -0.1137294 0.027645921 0.005794163
-0.36074468 -0.046494175 0.29195157 -0.23345521 -0.05158706 0.30738008 0.26108313 -0.16722798
0.30754545 0.20390064 0.13608623 0.11222762 0.10651767 0.034438394 0.09902267 0.049896274
-0.07772435 -0.3085715 0.010691537 -0.35380083 -0.016863111 0.16381867 0.13642146 0.07151652
-0.025620325 -0.005380634 -0.37599352 -0.068983026 0.3303762 -0.15451573 0.015816877 0.38657102
0.2760066 -0.18458863 0.2554137 -0.29821196 -0.09665983 0.104576245 -0.16267015 -0.2497798
-0.17388692 0.3707203 0.2709684 -0.13260426 0.026742874 0.055168092 -0.010727831 -0.37103635
-0.17996572 0.15413553 0.25038183 -0.14447497 -0.1237728 -0.010399136 0.34201625 -0.2356499
-0.22955152 0.040329877 -0.37717482 -0.33312508 0.19490585 0.03776754 0.15583734 0.24108955
0.24241154 -0.10267782 0.12885393 0.073706485 0.18475455 -0.2608507 0.24811465 0.074186966
0.30807468 0.14149694 0.3229862 -0.09424179 0.14357865 0.2602022 0.27375072 -0.24229327

conv3.0.depthwise.bias f4 [64]
00000000: da64 1d3e fb24 29bc 0cf0 39bd b8fd f5bd
00000010: f491 323e fad6 bbbe f2c8 b53c 1a85 5f3d
00000020: 4c49 3ebe 9c9d 61be d436 72bc cb9a dfbc
00000030: cd47 36be 0763 0a3e c472 803e 249e 25bd
00000040: 78ad 1d3e 9e1c 91be 20e9 9a3d cfea 70be
00000050: c9d3 433e 3491 a43e efe9 843e eada 8abd
00000060: 778f 203d de8f 0b3e d30c 76be 0e7c 91be
00000070: 92fc 0b3d bfe1 b5bd 0f81 abbd 8de3 bfbd
00000080: c98b 26be 4a19 203e 640c 623e b5b3 3bbe
00000090: ebd6 43be c09b 89bd 4826 cdbd 9191 743e
000000a0: ee25 f9bd 3d17 94bc 9a75 4bbe ce24 5bbd
000000b0: a222 6fbe bfa2 153e f5ff 653e 4fed 59be
000000c0: 4757 23bd ca55 27bd 50ca 0f3e c578 993e
000000d0: c2f8 a43b 5727 9b3e f274 a6be b64e 02be
000000e0: 47df a0be fbe8 b4be 3aef ad3e f6b5 64be
000000f0: 82e3 923e 07de 81be 3fa8 1c3e d62c 973c
0.15370503 -0.010323758 -0.045394942 -0.12011284 0.17438489 -0.36687452 0.022190545 0.054570295
-0.18582648 -0.2203278 -0.01478358 -0.02729549 -0.17800827 0.13514338 0.2508756 -0.040434018
0.15398204 -0.28342146 0.07563996 -0.23527072 0.19123758 0.3214203 0.25959727 -0.06780036
0.03919932 0.136291 -0.2402833 -0.2841496 0.034176417 -0.08880948 -0.08374225 -0.09369574
-0.16264261 0.15634647 0.22075039 -0.18330272 -0.19124953 -0.0671916 -0.10017067 0.23883654
-0.12165438 -0.018077487 -0.1986908 -0.053501897 -0.23353055 0.14612864 0.22460921 -0.21281932
-0.039878156 -0.0408533 0.1404202 0.29974952 0.005034537 0.3030345 -0.32511097 -0.12725338
-0.31420347 -0.35334 0.33971578 -0.22335038 0.286892 -0.25364706 0.15298556 0.018453997

conv3.0.pointwise.weight f4 [128, 64, 1, 1]
00000000: 0cbd 643d ae0e e73d 8138 a93d 5305 2c3d
00000010: 02e7 f2bd 826b 04ba 1f33 f73d cc3e 35bd
00000020: e5f7 813d 1dc3 cebc bb54 1c3e fb7c 3f3e
00000030: 7fd8 013e b969 e8bb 5b1e e3bb 3e56 333d
00000040: 4046 2b3d e098 ebbd 4dac 483d a35c 32bd
00000050: 90a2 d0b7 4237 7ebd 84f2 debd d0ee 81bd
00000060: 2b92 82bd aaaf 3dbd 548b 413e d7e2 a33d
00000070: 079c bd3c a031 af3d 2e58 8f3d 689f 14bd
00000080: 14fa ae3d eb86 f9bc e424 8bbd 6972 f33d
00000090: 527b 593e 9259 f93d 5d52 393e 887b c93c
000000a0: bff0 b13c 72a2 6cbd a1b5 003e e181 61bd
000000b0: 5e1e 82bd 348f b5bb a2b2 ea3c 9bdf 5bbd
000000c0: 1112 ce3c a7d7 8dbe dc09 0b3e 8c67 683c
000000d0: 3e90 203c e799 0fbe 3557 7ebe 1169 c63c
000000e0: 37b7 b13c 7be8 d4bd 9c5d 683d c130 ddbd
000000f0: 0ac6 2bbd 1730 773d 3d50 a83c 5c00 a83c
00000100: a808 083d 2265 84bd ef64 403e af15 a2bd
00000110: 099e 19be eda1 f53c d23f 7fbd aa8d 0cbd
00000120: 979a 7cbd caaf d1bd 5ca2 fdbb 4641 a0bb
00000130: ba3c 18bd c22a c73d 53a6 e0bd 43e3 29be
00000140: 3e02 dc3d 3d00 d2bd 400d 023a d65f 1bbd
00000150: 5ed6 6e3d 5687 e63c 6f7d 213d e34c 92be
00000160: 70be 773e 37ea ba3c 1b16 90bd c271 ad3c
00000170: a6d2 22bd ac8f 5bbd 34ea 7f3d 12e8 9ebd
00000180: b7e9 033e 2486 cc3b 3e11 063e 847d 153e
00000190: ec9e 873d 0052 643d 2f3a 90bc ce26 833d
000001a0: de49 4abd f4dd 64bd e5d4 a8bd 0870 c73d
000001b0: 3480 7fbc bb33 ce3d d8e9 24bd 5f1f 58bd
000001c0: 51f1 81bc 3945 be3d 866b 6dbd 1e15 90bd
000001d0: 2f86 f23d 076d 07be f5b0 063d 3506 bbbd
000001e0: f91f e9b9 d046 d43c 1cc5 813e cafa 213e
000001f0: 7ba8 153e 56f2 e83d dfdb 08be 0f70 11be
00000200: c433 033e dd63 043e 145c fabd 385d 213d
00000210: 47a4 643d 1047 dc3d 541b f4bc 7899 f23d
00000220: f3ef 28bd 8f70 03be 650a dabc d354 81bd
00000230: 8d4d 023e 50fb e9bd 0102 17be 19b2 14be
00000240: 41ad 863d cc69 a3bc 16fe b83d 5c77 0b3e
00000250: 0b82 cebd 36b1 7fbd 921b 5c3d 119e 3d3d
00000260: 93d5 30be 8eed 3abe e12f a2bd b197 a13d
00000270: b52d d53c dc5a 85bd 4b42 02be b3b9 853d
00000280: eac0 c0bd f8e6 e93d 9d49 63bd dc83 c83c
00000290: cd12 363e f8ee b0bd 6639 da3c 2b5d 323e
000002a0: 2caf f73b 030f 68bd a202 0c3e 2178 e6bd
000002b0: 9883 853d bc22 d73d ef74 44bd 0139 e7bd
000002c0: 408e 94bb 54dc 0bbd 1050 1cbe 405e 393c
000002d0: 7309 bf3c edbf 82be 6fa7 8bbd adbc b4bd
000002e0: 7268 27be 6157 5ebd 6ebd 293e ab96 8c3e
000002f0: acf5 2dbd ddad 243e 44f8 7fbd c0c8 873c
00000300: 7b70 9c3d 3819 74bd f2ec 94bd 2c12 05bc
00000310: 24d2 8d3d 3a88 3d3d d867 cabd 1da6 f43d
00000320: 546c 843b f05e e339 54f4 abbd 51cc 6cbb
00000330: ae83 e8bd 31ee 8a3d 87b8 adbd d69d b03d
00000340: a378 b53d 5ea2 a33c b0d3 82bd 3982 c8bd
00000350: 9698 d9bb 390f b7bc 5b9e 7c3d d2fb 0b3e
00000360: c4c9 e93d 5fa2 5bbd ae1b 63bd 026f f4bd
00000370: e6a6 8cbd fdd3 183c fcfc 1ebe 9198 883d
00000380: a78c 32be 0db4 7f3d bd1c 07be 96c8 dcbd
00000390: 7d76 253e 93f2 623d bf7d c9bd ef5b 1b3e
000003a0: 0cc6 ac3d 8516 3a3d efa5 c3bd 8fbd 99bd
000003b0: a1c4 2a3c 74b4 bebd 8b0a d7bc 1052 68bc
000003c0: 8524 7d3d 2d60 993c 15f8 a1bc c29d 3bbd
000003d0: 0d11 b23d f376 9d3d 15bc 12be 3020 ec3d
000003e0: dbe3 ca3c dd25 aabd b846 3ebd 345d 953d
000003f0: d323 223e eb8b ec3d 7109 89bd 829d 403d
0.05584435 0.11282097 0.082627304 0.041997265 -0.118604675 -0.00050514203 0.120702974 -0.04424934
0.0634611 -0.025239522 0.15266697 0.1870002 0.12680243 -0.0070926812 -0.006931109 0.04378342
0.041815042 -0.11503768 0.048992444 -0.043545377 -2.4871231e-05 -0.062064417 -0.108861 -0.06344378
-0.063755356 -0.046310104 0.18900806 0.08002251 0.023145689 0.08554387 0.06999241 -0.036284834
0.08543792 -0.030459842 -0.06794146 0.118870564 0.21238449 0.12175287 0.18097825 0.024595037
0.021721242 -0.057772107 0.12569286 -0.055055503 -0.06353448 -0.005540753 0.028649632 -0.053680044
0.0251551 -0.27703592 0.1357798 0.014184844 0.009800015 -0.14023553 -0.24837954 0.024220021
0.021693809 -0.10395905 0.056729898 -0.10800315 -0.04193691 0.060348596 0.020546073 0.020507984
0.03321138 -0.06464602 0.18788503 -0.07914292 -0.15001692 0.029984439 -0.062316723 -0.03431479
-0.061670866 -0.10238607 -0.007740302 -0.0048905937 -0.03716729 0.09724952 -0.10969224 -0.165906
0.10742615 -0.10253952 0.0004961081 -0.037933193 0.058309905 0.028140705 0.039426263 -0.28574285
0.2419374 0.02281676 -0.07035466 0.021172408 -0.03975167 -0.053603813 0.062479213 -0.07759108
0.12882124 0.0062415767 0.13092515 0.14598662 0.06622109 0.055742264 -0.01760587 0.06403886
-0.04938685 -0.055875733 -0.082437314 0.09738165 -0.015594531 0.100684606 -0.040262073 -0.052764293
-0.015862139 0.09290547 -0.05796387 -0.07035278 0.11842 -0.13225184 0.032883603 -0.09132043
-0.00044465045 0.025912672 0.25345695 0.15818325 0.14615051 0.11374347 -0.13365124 -0.14202903
0.12812716 0.1292872 -0.12224594 0.03939554 0.05582073 0.107557416 -0.029798187 0.11845678
-0.04124446 -0.12835906 -0.026616285 -0.06315007 0.12724896 -0.11424887 -0.14746858 -0.14521064
0.06576014 -0.019947909 0.09032838 0.1361975 -0.100833975 -0.06242486 0.05373723 0.046293322
-0.17268972 -0.18254682 -0.079192884 0.07890261 0.026022771 -0.06511471 -0.12720601 0.0652956
-0.094117954 0.11421007 -0.055490125 0.024476938 0.1778061 -0.0863933 0.026638698 0.17418353
0.007558724 -0.05665494 0.1367288 -0.112533815 0.0651924 0.10504672 -0.04796308 -0.112901695
-0.004533559 -0.03414567 -0.15264916 0.011313975 0.023319935 -0.25537053 -0.06819045 -0.088250495
-0.16348436 -0.05428255 0.16576168 0.274587 -0.04247062 0.16081949 -0.062492624 0.016575217
0.076386414 -0.059594363 -0.07271756 -0.008122008 0.06924847 0.046272494 -0.09883088 0.11945746
0.004041234 0.00043367548 -0.08396211 -0.0036132524 -0.11353241 0.06783713 -0.084824614 0.08623855
0.088609 0.019974884 -0.063880324 -0.09790463 -0.006640504 -0.022346126 0.061674457 0.1367028
0.11415437 -0.053621646 -0.05544632 -0.119352356 -0.06867771 0.009327886 -0.15526193 0.06669725
-0.17436467 0.06242757 -0.13194557 -0.10780446 0.16158481 0.055407118 -0.09838437 0.15171789
0.08436212 0.045431633 -0.09553134 -0.075068586 0.010422857 -0.093117625 -0.026250144 -0.0141797215
0.061802406 0.018722618 -0.019771615 -0.045804746 0.086946584 0.076887034 -0.1432956 0.11529577
0.024766853 -0.08308003 -0.04645416 0.07293168 0.15833978 0.11550125 -0.06691254 0.04702521

conv3.0.pointwise.bias f4 [128]
00000000: 55da e53c 8615 31ba 2f75 903c 2230 59bc
00000010: 427a 94bd b460 ffbd 12aa 4dbc 0662 623d
00000020: e6f5 073e d264 09be b32f 1dbe bd99 503d
00000030: f6c4 093d 5d17 a13c 76ae 2ebb 8cf3 b7bd
00000040: 9027 98bc 7d4a 0e3e b210 4b3d 8668 75bd
00000050: 505d c2bc f86f a8bd 0052 843b 25f8 a2bd
00000060: 7317 de3d ce8a 373d 4267 94bb 085b 323c
00000070: 845e 163e 0502 8bbc 54be be3d 0d5c ec3d
00000080: afdd a2bd 555c 983c ea21 9f3d b659 9ebc
00000090: b95d 00be 1ff5 57bd 0550 953c 3daa 203e
000000a0: 7ba9 2d3e 7b7c a93d b45c 46bc 2859 b13d
000000b0: 5510 873d 6e17 16bb e30c c8bd 4426 25be
000000c0: da33 7abc 0a92 d13d 5dc8 043e b781 72bd
000000d0: 7d59 a43d 5696 ecb9 1739 9c3b c738 0fbe
000000e0: 4428 15bd 64d3 c23b f15d 64bd b45b e1bc
000000f0: 78ef 30bc c828 0ebd fb9b 94bd 3843 513d
00000100: fecc 003e e5d5 5cbd 2a20 403d 9c48 b2bd
00000110: b926 8bbd 1150 9cba 465c 813c e22b 7cbc
00000120: ffd5 443d 0035 553d b04a 6b3d ebd8 34bd
00000130: 2170 ba3b 6ca9 de3d 2842 003e aed4 e3bc
00000140: 3025 423d 4353 43bd 7a13 ee3d 7fcc 1dbd
00000150: a21b a4bd ae11 c23d 17b2 f9bd a6e7 5c3d
00000160: 5002 d2bc e886 833d a118 203d a99f f0ba
00000170: 1258 2ebd 0c5d 86bc df87 96bd b4df cdbd
00000180: 6245 f43d 7d2a 7abc d970 143e d84b 083e
00000190: 0651 4c3d adb0 4c3d b109 153e 552c 1bbd
000001a0: 1d0e 8d3d ac20 253e 3587 103b 70ae 9bbd
000001b0: 07fb 0abb 9eb4 c23d 1ad1 f4bd d79c 02be
000001c0: e4cc 8bbd 9786 ffbd caa2 0cbe a294 3a3c
000001d0: 2c37 f2bd e5ec 6e3d 251a de3d a5b9 163d
000001e0: 83d9 983d 9867 6bbc 5cae 383c 9552 2f3e
000001f0: 29ce 0b3d 75f6 023e 96ba 4ebc f5da d03c
0.02805821 -0.00067552214 0.017634002 -0.013256105 -0.07249881 -0.124696165 -0.012552755 0.055269264
0.13277397 -0.13417366 -0.15350227 0.050927866 0.033635102 0.01966446 -0.002665428 -0.08982
-0.018573552 0.13895603 0.04957647 -0.059914134 -0.023726135 -0.08224481 0.0040380955 -0.07957486
0.10844316 0.04481011 -0.004528911 0.010885961 0.14684492 -0.016968736 0.09313646 0.11540995
-0.07952439 0.018598715 0.077701405 -0.019329887 -0.12535752 -0.052724 0.018226633 0.15689941
0.16959183 0.08275696 -0.012107063 0.08659583 0.06594912 -0.0022902149 -0.09768083 -0.16127878
-0.015271151 0.10232933 0.12967058 -0.059205737 0.08024881 -0.00045125437 0.004767548 -0.13986503
-0.036415353 0.00594561 -0.055753652 -0.027509548 -0.010799281 -0.03470686 -0.072563134 0.051089495
0.12578198 -0.053914923 0.046905674 -0.087052554 -0.06794495 -0.0011925717 0.01579107 -0.015391322
0.048055645 0.052052498 0.057444274 -0.04415218 0.0056896363 0.108721584 0.12525237 -0.027811375
0.047398746 -0.047686826 0.116248086 -0.0385251 -0.08013083 0.094760284 -0.12192171 0.053931855
-0.025635868 0.06422216 0.039085988 -0.0018358129 -0.04256446 -0.01640179 -0.07350134 -0.100524336
0.11927296 -0.015268919 0.14496173 0.13310182 0.049881957 0.04997318 0.14554478 -0.037884075
0.068874575 0.16125745 0.0022053246 -0.07601631 -0.0021206753 0.09507106 -0.119539455 -0.12755142
-0.06826189 -0.12476843 -0.13733974 0.011387976 -0.118269295 0.05833139 0.108448304 0.03679814
0.07463362 -0.01436796 0.011272039 0.17121346 0.034132157 0.12789328 -0.012617728 0.025495032

conv3.1.weight f4 [128]
00000000: bfe0 6f3f c9c6 6e3f d402 6b3f cead 683f
00000010: b935 813f 6fe9 793f b437 663f 7620 813f
00000020: 936c 863f 860b 633f b5db 7d3f 3428 7c3f
00000030: 21a6 833f 7e83 7d3f 83e6 7c3f 1697 7f3f
00000040: 1206 6b3f 871c 773f 9882 593f aeff 7d3f
00000050: f13e 7e3f f8c0 7b3f 233d 763f a32f 7e3f
00000060: ca6f 6d3f aa3a 793f dbfd 823f 025e 883f
00000070: bfa1 853f 4241 673f d7f5 7a3f 76d5 763f
00000080: 0d07 823f 0fb3 743f 7410 6f3f 0b61 7d3f
00000090: cf55 793f 2c2b 6c3f 7779 853f 0150 853f
000000a0: 9c9e 803f 295a 773f 9176 663f c166 713f
000000b0: 5e0d 6e3f 2819 773f d302 6a3f 856d 873f
000000c0: c243 863f fcd2 793f 7357 703f 8f09 813f
000000d0: a42d 733f 4610 803f da45 793f b100 8a3f
000000e0: 567b 883f 5d24 793f 6036 6b3f 58ca 753f
000000f0: 5f88 823f 746a 683f a103 843f a2f1 803f
00000100: 2afb 833f 7429 6c3f 8d60 7d3f 31a6 5e3f
00000110: acfb 793f 092e 7e3f 26a2 793f 7fa5 803f
00000120: b2b3 7c3f f684 833f 7e2c 813f 313e 533f
00000130: 7ee5 6f3f 14b3 7b3f 1a1c 803f eb8a 6c3f
00000140: f224 893f e71c 813f 640a 6b3f 4a4c 803f
00000150: f5d8 763f 1c53 7a3f f86f 603f d369 653f
00000160: 4773 7d3f 37bc 753f b521 803f 2c6b 853f
00000170: 0f59 753f 9ab1 873f ca1f 823f df81 893f
00000180: 55ba 803f 1c86 753f 1a10 763f b67b 793f
00000190: df34 843f 529c 873f 72a3 843f 3c12 823f
000001a0: 642b 813f 1249 823f ab02 813f 44d2 8c3f
000001b0: 6bdc 703f a5f3 673f b6a3 563f 0448 6f3f
000001c0: b810 7d3f 9893 823f 5ed3 803f 5a9e 6f3f
000001d0: d583 7b3f e339 713f f2d9 863f 75c5 7b3f
000001e0: 4092 713f 28b5 733f d97d 883f 43f9 883f
000001f0: dea6 813f 7acf 7c3f 9436 6c3f 648c 593f
0.9370231 0.9327207 0.9180119 0.90890205 1.009452 0.97621816 0.89928746 1.0088031
1.0501884 0.8868946 0.9916337 0.98498845 1.0285074 0.99028766 0.9878923 0.99839914
0.9180614 0.96527904 0.84964895 0.9921826 0.9931479 0.9834132 0.9618704 0.9929144
0.927487 0.9735514 1.023372 1.0653689 1.0439986 0.9033395 0.9803137 0.96419466
1.0158402 0.9558572 0.9338448 0.989762 0.9739656 0.92253375 1.0427693 1.041504
1.0048404 0.9662195 0.9002467 0.94297415 0.92989147 0.9652276 0.9141056 1.0580298
1.0489428 0.9758756 0.93883437 1.0081042 0.9499152 1.0004966 0.9737221 1.0781461
1.0662639 0.9732111 0.91879845 0.9601188 1.0197867 0.90787435 1.0313607 1.007374
1.0311024 0.9225075 0.9897545 0.8697234 0.97649646 0.99288994 0.97513044 1.0050505
0.98711693 1.0274951 1.0091703 0.8251677 0.9370955 0.98320127 1.0008576 0.9239947
1.07144 1.0086945 0.9181273 1.0023282 0.964248 0.97783065 0.8767085 0.896146
0.99004024 0.9599032 1.0010287 1.0423331 0.9583902 1.0601075 1.0165951 1.0742759
1.0056864 0.9590776 0.9611832 0.9745439 1.0328635 1.059458 1.036238 1.0161815
1.0091367 1.0178549 1.0078939 1.1001668 0.9408633 0.9060615 0.83843553 0.9346926
0.98853636 1.0201292 1.0064504 0.93601 0.98248035 0.94228953 1.0535262 0.9834817
0.94363785 0.951983 1.0663406 1.0701069 1.0129049 0.98754084 0.9227078 0.84979844
