models/model.onnx (onnx, 606570 bytes, 26 tensors)

conv1.0.depthwise.bias f4 [4]
0	0xbeb7ac65	-0.35873714
1	0xbe5fbe75	-0.21849997
2	0x3e6236fd	0.22091289
3	0x3e05ee20	0.13079119

conv1.0.depthwise.weight f4 [4, 1, 3, 3]
0	0x3dd8a595	0.10578457
1	0x3d530071	0.051514093
2	0x3d3d88b3	0.046272945
3	0x3e4d84f0	0.20070243
4	0x3ec51265	0.38490596
5	0x3e94c479	0.29056147
6	0x00000000	0.0
7	0x3d18f30b	0.03734116
8	0xbde362a3	-0.11102798
9	0xbe0dd833	-0.13852005
10	0xbd8417d3	-0.064498566
11	0xbd29f0e4	-0.041489497
12	0x3decee82	0.11568929
13	0xbe449752	-0.19198349
14	0x00000000	0.0
15	0xbea0e3c5	-0.31423774
16	0xbd9bf0f4	-0.076143175
17	0xbe41ba6f	-0.18918775
18	0x80000000	-0.0
19	0x3e95939b	0.29214177
20	0xbd05cacd	-0.03266411
21	0x3d977136	0.0739464
22	0xbe11f53d	-0.14253707
23	0xbea1a272	-0.31569248
24	0xbe62ab87	-0.22135745
25	0xbe9c0af3	-0.30477104
26	0x3e25c14e	0.16187021
27	0x3e33b6eb	0.17550246
28	0xbea9b2fc	-0.33144367
29	0xbe9b1cc7	-0.30295393
30	0xbe86ce86	-0.2632944
31	0x3e9a3ccc	0.3012451
32	0xbcf9aac2	-0.030476931
33	0xbe182798	-0.14858854
34	0xbe8beabc	-0.27327526
35	0x3e7bfef5	0.24608977

conv2.0.depthwise.bias f4 [32]
0	0x3c9535c1	0.018214108
1	0x3e741cf8	0.23839176
2	0xbe0afd2b	-0.13573138
3	0xbe0e105e	-0.13873431
4	0x3df1daec	0.11809334
5	0x3e414b3e	0.18876359
6	0x3dfb5d71	0.12273682
7	0xbe266bfb	-0.16252129
8	0xbe1c6c24	-0.15275627
9	0x3d8fee95	0.07027928
10	0xbe80914d	-0.25110856
11	0x3d3d9134	0.046281055
12	0x3e971d3f	0.295145
13	0x3e29b587	0.16573153
14	0x3c20136c	0.009770256
15	0x3d8d72a3	0.06906631
16	0xbe84ee76	-0.2596318
17	0x3e2b4eee	0.16729328
18	0x3e568b35	0.20951541
19	0xbd917630	-0.071026206
20	0xbe341595	-0.17586358
21	0xbe7dcc25	-0.24784906
22	0xbc682ee0	-0.014171332
23	0xbe84c128	-0.25928617
24	0x3e816ef0	0.2527995
25	0xbe76dce7	-0.24107705
26	0xbe56eafd	-0.20988078
27	0xbb2aec1c	-0.0026080674
28	0x3ee9bad9	0.45650366
29	0x3e52c036	0.20581135
30	0xbe14d4e0	-0.1453433
31	0xbeca3818	-0.3949592

conv2.0.depthwise.weight f4 [32, 1, 3, 3]
0	0xbe9089ab	-0.28230032
1	0xbe2b2036	-0.16711506
2	0xbea72811	-0.32647756
3	0xbe703e07	-0.23461162
4	0x3e4102ef	0.18848775
5	0x3dd144b9	0.10218186
6	0x3e0861ed	0.13318606
7	0xbe253121	-0.16132022
8	0xbec483ab	-0.38381705
9	0xbe3f6ebd	-0.18694587
10	0x3e0118a2	0.12607053
11	0xbe0a152d	-0.1348464
12	0xbe4cab16	-0.19987139
13	0xbdbbf7f8	-0.09178156
14	0xbd6cf649	-0.057852063
15	0x3e909065	0.28235164
16	0x3ea92f75	0.3304402
17	0x3e36162e	0.17781898
18	0x3d88a9f0	0.06673038
19	0xbe079513	-0.13240461
20	0xbd7cb67a	-0.06169746
21	0x3e1d4083	0.1535664
22	0xbebbaf8e	-0.36657375
23	0x00000000	0.0
24	0x3e63050f	0.22169898
25	0xbf009158	-0.50221777
26	0xbece8699	-0.40337065
27	0x3e4472e4	0.19184452
28	0x3de0f5a7	0.109843545
29	0x3d90d95c	0.07072708
30	0xbec82021	-0.39087012
31	0xbe64ab94	-0.22331077
32	0x3e5e683d	0.21719451
33	0x80000000	-0.0
34	0x00000000	0.0
35	0x3d01d569	0.031697664
36	0x3ebed514	0.3727194
37	0xbe3cfe8c	-0.18456477
38	0x3e32ddba	0.17467394
39	0x3e847736	0.258722
40	0xbea623df	-0.32449242
41	0x3cf6a0f7	0.03010605
42	0xbe4b1982	-0.19833949
43	0xbe5b430e	-0.21412298
44	0x3d80dc65	0.06292037
45	0xbdaabb6b	-0.083365284
46	0x3eb1f203	0.34754953
47	0xbe6407d0	-0.22268605
48	0x3ddc7043	0.107636
49	0xbda10b3a	-0.078634694
50	0x3e8a9e4c	0.27073896
51	0x3e89bdc2	0.26902586
52	0xbe8d8e25	-0.2764751
53	0xbeb6ce0c	-0.35704076
54	0x3e06f8fe	0.1318092
55	0xbe438cef	-0.1909673
56	0x3e3c563c	0.18392271
57	0xbe9fde19	-0.31224135
58	0xbea77498	-0.3270614
59	0xbe5b86d4	-0.21438152
60	0x3e3f7afc	0.18699259
61	0xbe63da9e	-0.22251365
62	0xbd61b82a	-0.055107273
63	0x3e922243	0.28541765
64	0xbe36e26d	-0.17859812
65	0x3e9d3520	0.30704594
66	0xbdd5406a	-0.10412677
67	0x3ea129c7	0.31477186
68	0xbe242ece	-0.1603348
69	0xbe7be60c	-0.24599475
70	0x3d7d24ad	0.061802555
71	0xbe91e998	-0.2849853
72	0x3e669d2f	0.22520898
73	0xbd9a4889	-0.07533366
74	0xbeb7dc44	-0.35910237
75	0xbe0fea0b	-0.14054124
76	0x3e14ddac	0.14537686
77	0x3e22913f	0.1587572
78	0xbe90b3ab	-0.28262076
79	0x3e8cbfb6	0.27490014
80	0x3df5cb11	0.120016225
81	0x3e953789	0.29143932
82	0xbe6df474	-0.23237783
83	0xbe863c5f	-0.26217934
84	0xbe7fd6d0	-0.24984288
85	0x3e28b4c6	0.1647521
86	0x3e7fe225	0.24988611
87	0xbeb7aa45	-0.35872093
88	0xbdde3224	-0.10849407
89	0xbe7fa0b8	-0.24963653
90	0xbd848d64	-0.064722806
91	0x3e61c1fd	0.22046657
92	0x3dbf7221	0.0934794
93	0x3d79abe4	0.060954943
94	0x3e76514e	0.24054453
95	0x00000000	0.0
96	0x3e83faa7	0.2577717
97	0x3e9f0e53	0.31065616
98	0xbe4336d6	-0.19063887
99	0x00000000	0.0
100	0xbe7e0bb6	-0.24809155
101	0xbe9188e1	-0.28424743
102	0xbe20b9cf	-0.1569588
103	0xbe328583	-0.17433743
104	0xbdca7bba	-0.0988688
105	0xbe5e17f3	-0.21688823
106	0x3e29a456	0.16566595
107	0x3e77f8ce	0.24216005
108	0x3e68b402	0.22724918
109	0xbcd2d512	-0.025736365
110	0xbe59bfe0	-0.21264601
111	0xbd1c7109	-0.038193736
112	0xbd4515df	-0.04811656
113	0xbe5dacef	-0.21648
114	0x3e82d20d	0.2555088
115	0xbd747d14	-0.059689596
116	0x00000000	0.0
117	0x3e5c715b	0.21527617
118	0x3ec1f4a5	0.3788196
119	0x3e8f6c63	0.2801238
120	0x3e312ee7	0.17303048
121	0x80000000	-0.0
122	0x3e9fc839	0.31207445
123	0x3e5abbc2	0.21360686
124	0x3dfb3711	0.122663625
125	0xbe45a414	-0.19300872
126	0x80000000	-0.0
127	0x3cfbbe8a	0.030730505
128	0xbe0469cd	-0.12930985
129	0x3ede7635	0.4344956
130	0x80000000	-0.0
131	0x00000000	0.0
132	0x3f010b97	0.5040831
133	0x3d7d28ce	0.061806493
134	0x3e5b2be8	0.21403468
135	0x3dc6dffb	0.0971069
136	0xbe66b592	-0.22530201
137	0xbea5d5a9	-0.32389572
138	0x3e90f850	0.28314447
139	0x3e4f64d4	0.20253307
140	0xbe0685e5	-0.13137014
141	0x3df2bcbf	0.11852407
142	0x3eaf2b90	0.34212923
143	0xbeb84b98	-0.35995173
144	0xbe694e53	-0.22783785
145	0xbdc8bd61	-0.09801746
146	0x3e17ea75	0.14835532
147	0x3e9127ae	0.28350586
148	0xbdc169f9	-0.09444041
149	0xbe9c77fc	-0.3056029
150	0x3e98943a	0.29800588
151	0x3e73029f	0.23731469
152	0x3e71f5c0	0.23628902
153	0x3eb40a4e	0.35164112
154	0xbe8c16a9	-0.27361038
155	0xbdace8c9	-0.08442838
156	0x3ea83148	0.328501
157	0xbddbb873	-0.1072854
158	0x3dc68fe6	0.09695415
159	0x00000000	0.0
160	0x3e02a2f7	0.12757479
161	0x3e04ee95	0.12981637
162	0x3e93de3b	0.28880486
163	0x3e9c7098	0.30554652
164	0x80000000	-0.0
165	0xbe95bf86	-0.29247683
166	0xbe7136e8	-0.23556101
167	0x3e4e260d	0.20131703
168	0xbd048e8e	-0.032362513
169	0xbdb657d6	-0.08903472
170	0xbecbde0c	-0.39817846
171	0xbdd3320f	-0.10312282
172	0xbe83d312	-0.2574697
173	0xbde1dc1a	-0.11028309
174	0xbe65f3c7	-0.22456275
175	0xbe95a1dd	-0.29225054
176	0x3d9b5466	0.07584457
177	0xbe33b7ab	-0.17550533
178	0xbd7372aa	-0.059435524
179	0x3e8ae31c	0.27126396
180	0xbdf319ce	-0.11870156
181	0x3ebc4d3a	0.3677767
182	0xbe064ac0	-0.13114452
183	0xbe664643	-0.2248774
184	0xbd655d41	-0.055997137
185	0x3d19e51c	0.03757201
186	0xbdf5996f	-0.11992156
187	0xbe44bbd3	-0.19212274
188	0x3eda086c	0.4258455
189	0xbea7c3bc	-0.3276652
190	0xbd17d4fa	-0.037068345
191	0xbea0bbf8	-0.3139341
192	0x3eafa8ea	0.3430856
193	0x3dff71fa	0.12472911
194	0xbd37242b	-0.044712227
195	0x3e43a3bc	0.19105428
196	0x3efd749f	0.49503037
197	0xbea9a3f0	-0.33132887
198	0x3d80a08a	0.062806204
199	0x3d9aa036	0.07550089
200	0xbe022e91	-0.12713076
201	0xbe5346b4	-0.2063244
202	0xbd29cdea	-0.04145614
203	0x80000000	-0.0
204	0x3e42e984	0.19034392
205	0xbdf8bd08	-0.1214543
206	0xbe5c77c3	-0.2153006
207	0x3ddc88f5	0.1076831
208	0xbe5e6e08	-0.21721661
209	0xbd46b6f0	-0.048514307
210	0x3e3dfecb	0.18554227
211	0xbeb61e58	-0.35570025
212	0x3e345c29	0.17613281
213	0x3e32721c	0.17426342
214	0xbec1a63b	-0.37822136
215	0x3de515bc	0.11185786
216	0x3e9f8515	0.3115622
217	0x3de15e70	0.11004341
218	0xbdbb137c	-0.09134576
219	0x3e54e1e8	0.20789301
220	0xbd44cf98	-0.04804954
221	0xbdada6d0	-0.084790826
222	0xbe880200	-0.26564026
223	0xbdeb7ca8	-0.11498386
224	0xbda0096e	-0.078142986
225	0x3e69e703	0.2284203
226	0xbd2fc54c	-0.042912766
227	0x3e1af751	0.15133406
228	0x3e53f8be	0.20700356
229	0xbe5ce05d	-0.21569963
230	0x3e5bd9d5	0.21469815
231	0x3e20a856	0.15689215
232	0x3e8a4b41	0.2701054
233	0xbecaece0	-0.39633846
234	0x3e1d36ae	0.1535289
235	0x3cae24c1	0.02125776
236	0xbe3262c0	-0.17420483
237	0x3d69251e	0.056920163
238	0x3cf83f10	0.030303508
239	0x3ea937bd	0.33050337
240	0x3e033c28	0.12815917
241	0xbdad2152	-0.08453621
242	0x3d819237	0.063267164
243	0x3e68fc14	0.2275241
244	0xbec8f1c2	-0.39246947
245	0xbe032954	-0.12808734
246	0xbeb3ee8c	-0.35142934
247	0xbe3045d3	-0.17214136
248	0xbdec9f90	-0.11553872
249	0xbe663f1e	-0.22485015
250	0xbe189652	-0.14901093
251	0xbe6165a5	-0.2201143
252	0x3e87269d	0.26396647
253	0xbd753027	-0.059860375
254	0x00000000	0.0
255	0x3ea1a4e7	0.31571123

conv3.0.depthwise.bias f4 [64]
0	0x3b52295f	0.0032068116
1	0x3d856238	0.06512874
2	0x3cd7dd9e	0.026350792
3	0xbe11b58b	-0.1422941
4	0x3e678b14	0.22611648
5	0xbec541cc	-0.38526762
6	0xbd87f3d6	-0.06638305
7	0x3b95b2ec	0.0045684483
8	0xbe801d0e	-0.25022167
9	0xbe18b905	-0.1491433
10	0xbd3b07b2	-0.045661636
11	0xbdea0125	-0.114259996
12	0xbdb2744d	-0.08713589
13	0x3e4043ef	0.18775915
14	0x3e2058ff	0.1565895
15	0xbd510d6b	-0.051038187
16	0x3e238fe3	0.15972857
17	0xbe870dae	-0.26377624
18	0x3c94c2e4	0.018159337
19	0xbe54b6e0	-0.20772886
20	0x3e8561e9	0.26051262
21	0x3ed46cdc	0.41489303
22	0x3ebd693d	0.36994353
23	0x3c3987f4	0.011323918
24	0x3d59ce10	0.053175032
25	0x3df2305d	0.11825631
26	0xbe920961	-0.2852278
27	0xbeb7cc3c	-0.35898006
28	0xbc134d21	-0.008990557
29	0xbda6f4ad	-0.08152137
30	0x3d030f5b	0.031997066
31	0xbd4eb9ab	-0.050470036
32	0xbe3c6b60	-0.18400335
33	0x3dc6b37f	0.09702205
34	0x3e9814cd	0.2970337
35	0xbe56023d	-0.20899291
36	0xbdae1e20	-0.0850184
37	0xbe2a2f75	-0.16619666
38	0xbdc644bf	-0.09681081
39	0x3e6fc07f	0.23413275
40	0xbde9806a	-0.11401446
41	0xbdc55e4c	-0.09637126
42	0xbe714f0a	-0.23565307
43	0xbddf2cef	-0.10897242
44	0xbe3860e8	-0.18005717
45	0x3e5c1e5a	0.21495953
46	0x3e8bedbe	0.2732982
47	0xbe7b66ac	-0.24550885
48	0xbd7af457	-0.061268177
49	0x3d67d310	0.05659777
50	0x3d9f1890	0.07768357
51	0x3e11856f	0.14211057
52	0xbcefa56f	-0.02925369
53	0x3ebee1f2	0.37281758
54	0xbe94b992	-0.2904783
55	0xbe102ab9	-0.14078797
56	0xbdd8e154	-0.10589853
57	0xbeb8479e	-0.3599214
58	0x3e52197f	0.20517538
59	0xbcba1e32	-0.022719476
60	0x3e9b139d	0.302884
61	0xbe0847ff	-0.13308714
62	0x3e2e8a32	0.17044905
63	0x3befa1d6	0.0073129935

conv3.0.depthwise.weight f4 [64, 1, 3, 3]
0	0x3e18fa05	0.14939125
1	0x3ec3f053	0.3826929
2	0xbe4ec3d9	-0.20191897
3	0x3e1b7528	0.1518141
4	0x3e8e75ce	0.27824253
5	0x3e854aa5	0.26033512
6	0xbe58635b	-0.21131651
7	0xbe3abd39	-0.18236245
8	0x80000000	-0.0
9	0xbe2b5a92	-0.16733769
10	0xbd18b7f2	-0.0372848
11	0x3ee21892	0.4415937
12	0xbe951d5c	-0.29123962
13	0xbdc89ade	-0.097951636
14	0xbd4e775c	-0.0504068
15	0x3e8786f4	0.2647015
16	0xbeb0290d	-0.3440632
17	0x3e751411	0.23933436
18	0xbe600763	-0.21877818
19	0xbe4a8be2	-0.19779924
20	0x3d397b35	0.045283515
21	0x3d450035	0.0480959
22	0x3e9b72cd	0.30361024
23	0x3e84eec0	0.25963402
24	0xbdfd5bbe	-0.12371014
25	0xbe1ba6ed	-0.15200396
26	0x3d07d0df	0.03315818
27	0x3d6c0192	0.057618685
28	0xbe9ef8f0	-0.310493
29	0x3e421112	0.18951824
30	0x3e65d69c	0.22445148
31	0x3de4ad3f	0.111658566
32	0x3e9943b9	0.2993448
33	0x3e178637	0.14797293
34	0x3e2e5554	0.17024738
35	0x3e4e88f3	0.2016943
36	0x3e518de3	0.20464282
37	0xbe9cb5f6	-0.30607575
38	0x3da14231	0.07873953
39	0xbda6addd	-0.081386305
40	0x3eb02dc1	0.34409907
41	0x3d81e421	0.0634234
42	0x3e9534e5	0.29141918
43	0x3e32bde1	0.17455246
44	0xbd99efa2	-0.075164095
45	0x3e8d1e8d	0.2756237
46	0x3e92183c	0.28534114
47	0x3e6b4d63	0.2297874
48	0x3e9c3313	0.30507717
49	0x3e6ebba9	0.23313774
50	0xbe25d9f8	-0.1619643
51	0xbdcc4784	-0.09974578
52	0x3e2c5566	0.16829452
53	0xbec3b227	-0.38221857
54	0xbe018218	-0.12647283
55	0xbe988b57	-0.29793808
56	0xbe8e9489	-0.27847698
57	0x80000000	-0.0
58	0x3e3e95e6	0.18611869
59	0x3db883e8	0.09009534
60	0xbe226669	-0.15859379
61	0xbe325fd2	-0.17419365
62	0x3e2f6e8a	0.17132011
63	0xbe4a910c	-0.19781893
64	0x80000000	-0.0
65	0x00000000	0.0
66	0xbea5b1fd	-0.32362357
67	0x3e2fb23f	0.17157839
68	0x3ecc7ef4	0.39940608
69	0xbdd5d16d	-0.104403354
70	0xbe7824db	-0.24232809
71	0x3ebbb6df	0.36662957
72	0xbe8f26a6	-0.27959174
73	0x3e4b3b1b	0.19846766
74	0xbe9f9310	-0.31166887
75	0xbe22a70b	-0.15884034
76	0xbea02f53	-0.31286106
77	0xbd70625f	-0.058687564
78	0xbea034a1	-0.31290153
79	0xbd53efa3	-0.051742207
80	0x3dc4f79f	0.096175425
81	0x3e314998	0.1731323
82	0x3eb8684b	0.3601707
83	0x3e09cdd7	0.13457428
84	0xbe9690b5	-0.29407278
85	0x3d3c4b87	0.045970466
86	0x3ea48fd9	0.32140997
87	0xbe478e5e	-0.19487903
88	0xbde7eb2a	-0.11324151
89	0x3d5520dd	0.052033294
90	0xbe949494	-0.29019606
91	0x3e3256ae	0.17415878
92	0xbe05e9cf	-0.13077472
93	0xbd699ca7	-0.05703416
94	0xbe92795e	-0.2860822
95	0x3e8fb77f	0.28069684
96	0x3e3d5646	0.18489942
97	0x3db54eaa	0.088528946
98	0x3e8883db	0.26663098
99	0xbec0e202	-0.3767243
100	0x3d129d8a	0.035794772
101	0x80000000	-0.0
102	0xbe9214bc	-0.28531444
103	0x80000000	-0.0
104	0x3d29fa29	0.041498337
105	0x3e245625	0.16048487
106	0x00000000	0.0
107	0x3e0cfe97	0.13768993
108	0x3d8bea50	0.06831801
109	0x3e14edb0	0.14543796
110	0xbe637c16	-0.22215304
111	0xbe2203b3	-0.15821724
112	0x3d37be30	0.04485911
113	0x3e9cfbab	0.30660757
114	0x3e105af0	0.1409719
115	0x3e46dcf8	0.1942023
116	0x3e73168c	0.2373907
117	0xbece0d14	-0.40244353
118	0x00000000	0.0
119	0xbe907d39	-0.28220537
120	0xbe5ef709	-0.21773924
121	0x3e7c17e7	0.24618493
122	0x3e8162fa	0.25270826
123	0xbd867e21	-0.06567026
124	0x3e6f6da6	0.23381671
125	0x3e22ee32	0.15911177
126	0x3dbae8b1	0.091264136
127	0x3e407e31	0.18798138
128	0x80000000	-0.0
129	0x3e6ce1fb	0.2313308
130	0x00000000	0.0
131	0xbd5fcc6b	-0.054638308
132	0x3e2444a0	0.16041803
133	0xbe4ee06b	-0.20202796
134	0xbdb17370	-0.08664596
135	0x3e3ef253	0.18647127
136	0x3ec35cb5	0.38156667
137	0x3dcdf730	0.10056913
138	0xbd6c85a4	-0.057744637
139	0xbe876497	-0.2644393
140	0xbe8a0526	-0.26957053
141	0x3e6df9f6	0.23239884
142	0xbeaf3668	-0.34221196
143	0x3e3bbb52	0.18333176
144	0xbea5b079	-0.323612
145	0xbe7252e6	-0.23664436
146	0x3d192de7	0.03739729
147	0x3e63bafc	0.22239298
148	0xbe852534	-0.26004946
149	0xbdb2902c	-0.08718905
150	0x3c9867de	0.018604215
151	0x3ea2b118	0.31775737
152	0x00000000	0.0
153	0xbe10d3b4	-0.14143258
154	0x00000000	0.0
155	0x3ea93d28	0.3305447
156	0x3e019649	0.12654985
157	0x3dcc0ed5	0.099637665
158	0x3e520f5b	0.2051367
159	0xbe792607	-0.24330913
160	0xbe37db5d	-0.17954774
161	0xbd6f57bd	-0.058433283
162	0x3e62c820	0.22146654
163	0xbd4c8c0a	-0.04993824
164	0xbe40858c	-0.18800944
165	0xbd01d721	-0.031699304
166	0xbcd90156	-0.026489895
167	0x3de4e69e	0.11176799
168	0x3e5c5ced	0.21519823
169	0x3e4a15db	0.197349
170	0xbeb3f7da	-0.35150033
171	0x3e0a1ed0	0.13488317
172	0x3ec2a91b	0.38019642
173	0xbdc7654e	-0.09736119
174	0x3daec0dd	0.085328795
175	0x3c9ccff9	0.019142138
176	0xbed7ad60	-0.42124462
177	0x00000000	0.0
178	0x3e960655	0.29301706
179	0xbe928b66	-0.28621978
180	0xbdbac4b8	-0.091195524
181	0x3e9219da	0.28535348
182	0x3e7d2eb3	0.24724846
183	0xbe444380	-0.19166374
184	0x3e99eb25	0.30062214
185	0x3e4f1206	0.20221719
186	0x3df055e3	0.117351316
187	0x3df2ceb3	0.11855831
188	0x3ddaa2ca	0.10675581
189	0x3d1afa74	0.037836507
190	0x3db0a598	0.086253345
191	0x3cb89efb	0.022536745
192	0xbda69e9c	-0.08135721
193	0xbeae5ac7	-0.34053633
194	0xbd00ea8b	-0.031473678
195	0xbeb39da9	-0.35081223
196	0xbd8aeee8	-0.06783849
197	0x3dec00bb	0.11523577
198	0x3ded6552	0.11591591
199	0x3da45690	0.08024323
200	0x3d86a4f8	0.06574434
201	0xbd3c1263	-0.045915972
202	0xbedccd92	-0.43125588
203	0xbdd14c5d	-0.10219643
204	0x3e8d1fe5	0.27563396
205	0xbe520ef6	-0.2051352
206	0xbdd064a4	-0.10175446
207	0x3f0a0678	0.5391612
208	0x3eba62fc	0.36403644
209	0xbe4751a7	-0.19464742
210	0x3ea8c178	0.32960105
211	0xbebd88af	-0.37018344
212	0xbe65fbf5	-0.22459395
213	0x3db55bda	0.0885541
214	0xbe8f8305	-0.28029647
215	0xbea54588	-0.3227961
216	0xbe10654d	-0.14101143
217	0x3ed9ca38	0.42537093
218	0x3ea4e45c	0.32205474
219	0xbe297792	-0.16549519
220	0x80000000	-0.0
221	0x3d30e439	0.0431864
222	0xbced6395	-0.028978148
223	0xbee3f8ca	-0.44525748
224	0xbe765ccb	-0.24058835
225	0x3e2a3d69	0.16624989
226	0x3e9846b0	0.2974143
227	0xbe0803ff	-0.13282774
228	0xbe30bab2	-0.17258719
229	0x3d46cbdb	0.048534255
230	0x3edd2d71	0.43198732
231	0xbea4d4c2	-0.3219357
232	0xbe976e79	-0.2957647
233	0x3cddd7a9	0.027080374
234	0xbed71aad	-0.4201254
235	0xbeb4fa85	-0.3534738
236	0x3e2f6cf7	0.1713141
237	0x00000000	0.0
238	0x3e41cb02	0.18925098
239	0x3e89ef0c	0.2694019
240	0x3e77721a	0.2416462
241	0xbd6e2f50	-0.05815059
242	0x3e2932d2	0.16523293
243	0x3db9dc8d	0.0907527
244	0x3e44769b	0.1918587
245	0xbe8b6ae5	-0.27229992
246	0x3e805c45	0.25070396
247	0x3d839a5e	0.064259276
248	0x3e912055	0.2834498
249	0x3e2cb3c0	0.16865444
250	0x3ea7d277	0.3277776
251	0xbda8d58b	-0.08243855
252	0x3e56f9b8	0.20993698
253	0x3e9b4449	0.30325535
254	0x3e9e23f9	0.3088682
255	0xbe43f6de	-0.19137141

upconv3.3.bias f4 [64]
0	0x3eee820f	0.46583602
1	0x3ed08370	0.4072528
2	0xbe6d5c5a	-0.2317976
3	0x3f58f581	0.8474961
4	0xbf2d1708	-0.6761327
5	0x3ed9578c	0.42449605
6	0xbe64b0bb	-0.22333042
7	0x3e2b9639	0.16756524
8	0x3e67b38a	0.22627082
9	0xbe0c41d9	-0.13696994
10	0xbf49d904	-0.78846765
11	0xbf733120	-0.94996834
12	0x3daa778e	0.083235845
13	0x3e26fd97	0.16307674
14	0x3f40a7c0	0.75255966
15	0xbd39aba8	-0.04532972
16	0x3f18b95b	0.5965783
17	0xbed30f67	-0.4122269
18	0xba2545b6	-0.0006304638
19	0x3e13edc0	0.14446163
20	0xbeca9724	-0.39568436
21	0xbf5415b0	-0.8284559
22	0xbd83b32a	-0.06430657
23	0x3eb93395	0.36172166
24	0xbf540694	-0.8282254
25	0x3c9b4082	0.018951658
26	0x3f5ee710	0.87071323
27	0x3f170256	0.5898794
28	0x3ef9adf5	0.4876553
29	0x3f371d22	0.7152883
30	0xbf5559a2	-0.83339894
31	0x3db4fe6a	0.08837588
32	0xbd928dd0	-0.07155955
33	0xbe92b57f	-0.28654096
34	0x3ea04d70	0.3130908
35	0xbf3d2bd1	-0.73894984
36	0xbfbcced8	-1.4750624
37	0xbf004003	-0.50097674
38	0x3e37145f	0.17878865
39	0xbf348b2d	-0.70524865
40	0xbf451b9f	-0.7699527
41	0x3f1211e4	0.5705855
42	0xbf155af0	-0.58341885
43	0x3e471475	0.19441397
44	0xbc9f6109	-0.01945545
45	0xbdc67d03	-0.09691813
46	0xbf0e6e69	-0.5563722
47	0x3f43704c	0.76343226
48	0xbe7638b2	-0.24045065
49	0x3e8356aa	0.25652057
50	0x3e550f4f	0.20806621
51	0x3d694a6f	0.05695575
52	0xbed07853	-0.407168
53	0xbecba361	-0.39773086
54	0xbf5600a7	-0.83594745
55	0x3c0ac7af	0.00847046
56	0xbf2b8881	-0.67005163
57	0x3dc9223b	0.09820982
58	0xbd3471ad	-0.044053722
59	0x3f3ac91c	0.7296312
60	0x3f81ac08	1.0130625
61	0xbf80b447	-1.0055016
62	0xbfd937a1	-1.6970102
63	0x3e99d75f	0.30047128

upconv3.3.weight f4 [64, 64, 3, 3]
0	0xbcb4a565	-0.022051523
1	0x3dd18baa	0.10231717
2	0x00000000	0.0
3	0x3dbbf18a	0.09176929
4	0x3d3ca057	0.04605135
5	0xbd882e82	-0.06649496
6	0x3dc27f11	0.09496892
7	0x3c9a6418	0.018846557
8	0xbe0b4566	-0.13600692
9	0x00000000	0.0
10	0xbca74493	-0.02041844
11	0x3dad2c6d	0.08455739
12	0x80000000	-0.0
13	0xbcad0c13	-0.021123921
14	0xbd496252	-0.04916603
15	0x80000000	-0.0
16	0xbdc4a69e	-0.09602092
17	0x80000000	-0.0
18	0xbd99f241	-0.075169094
19	0xbcf91be8	-0.030408815
20	0xbd1715e4	-0.03688611
21	0xbdf8b5f4	-0.1214408
22	0xbc9dc28c	-0.019257806
23	0x00000000	0.0
24	0xbd74dfd5	-0.059783775
25	0xbd058001	-0.032592777
26	0xbdd3cfd3	-0.10342374
27	0x80000000	-0.0
28	0xbd0d980e	-0.03456884
29	0x3cf70db2	0.030157898
30	0x3d273f8a	0.04083208
31	0xbd029e38	-0.03188917
32	0x80000000	-0.0
33	0x3da6a8e4	0.08137682
34	0xbd018e52	-0.031629868
35	0xbd16ac8c	-0.036785647
36	0x3da33f0f	0.07971012
37	0x3db7b2b1	0.089696296
38	0x3d9b9d67	0.075983815
39	0x3dede75d	0.11616395
40	0x3e2784a7	0.16359197
41	0x3da26a85	0.07930473
42	0x3d842735	0.06452791
43	0x3de86335	0.11347047
44	0x3e0b846a	0.1362473
45	0xbce29d24	-0.027662821
46	0x3dd0951f	0.101846926
47	0xbce80485	-0.028322468
48	0x00000000	0.0
49	0x3de2e328	0.11078483
50	0x00000000	0.0
51	0xbca4a7e2	-0.020099584
52	0x3e0c48ee	0.13699695
53	0x00000000	0.0
54	0x80000000	-0.0
55	0x3d63a2f2	0.05557532
56	0xbe0f974b	-0.14022557
57	0xbd127fd0	-0.035766423
58	0x3d47d89a	0.04879055
59	0x3de52f89	0.11190707
60	0xbdd6c30e	-0.104864225
61	0xbdc51727	-0.096235566
62	0xbd78e680	-0.060766697
63	0x3d90d3b1	0.07071627
64	0x3d8fdbd1	0.070243485
65	0x80000000	-0.0
66	0x3df646d7	0.120252304
67	0x3d469936	0.048485957
68	0x00000000	0.0
69	0x3d1ca2d1	0.03824121
70	0x3d4c7592	0.04991681
71	0x3dc804ed	0.097665645
72	0xbd8020cd	-0.06256256
73	0xbdb0066a	-0.085949734
74	0x3d91a1cf	0.07110941
75	0xbd3a207c	-0.045441136
76	0xbdef44bb	-0.11683031
77	0xbe64aa29	-0.22330536
78	0x3d1967c8	0.03745249
79	0x3d66cc70	0.05634731
80	0xbdfcdcad	-0.12346778
81	0xbd981615	-0.07426087
82	0x3d649fb5	0.05581637
83	0x3d594bda	0.053050853
84	0xbdcac207	-0.09900289
85	0x3d2a7118	0.04161176
86	0xbdbcd291	-0.0921985
87	0xbda7f476	-0.08200924
88	0x3d9d061f	0.07667183
89	0xbdc837ae	-0.09776245
90	0x3d9e76d3	0.07737508
91	0x3d65c18c	0.056092784
92	0x3d339a7b	0.043848496
93	0x3dfc9563	0.12333181
94	0x3e02c1de	0.12769267
95	0x3d91ae6b	0.07113346
96	0x3dad8381	0.08472348
97	0x3dfcddb5	0.12346975
98	0x3df70b4c	0.120627016
99	0x3d306f78	0.043075055
100	0x3ca916ec	0.020640813
101	0x00000000	0.0
102	0x3cfe1978	0.031018004
103	0x3d6780fd	0.056519497
104	0x3d8a0d3a	0.06740804
105	0xbcd2bd42	-0.02572501
106	0x3d398ee3	0.045302283
107	0x3dec116e	0.11526762
108	0xbdc0a1a8	-0.094058335
109	0xbdf37a49	-0.118885584
110	0xbdf0eee0	-0.11764312
111	0xbe28e215	-0.16492493
112	0xbe346767	-0.1761757
113	0xbe4026b6	-0.18764767
114	0xbe36497b	-0.17801468
115	0xbe4cf4a2	-0.20015195
116	0xbe323c8d	-0.17405911
117	0xbdde94e4	-0.108682424
118	0xbe2b4728	-0.16726363
119	0x00000000	0.0
120	0x00000000	0.0
121	0xbe028199	-0.1274475
122	0xbe54f284	-0.20795637
123	0x3dd796ec	0.10526833
124	0xbd1225ef	-0.035680708
125	0xbe106e10	-0.14104486
126	0x3cd44240	0.025910497
127	0xbd18cec6	-0.03730657
128	0x00000000	0.0
129	0xbd70d28d	-0.058794547
130	0xbdbee774	-0.0932149
131	0x80000000	-0.0
132	0x80000000	-0.0
133	0xbe0160d4	-0.12634593
134	0xbd369e06	-0.044584297
135	0xbe0a23e5	-0.13490255
136	0xbea1084f	-0.3145165
137	0xbd27c173	-0.040955972
138	0xbe21d04f	-0.1580212
139	0xbe716a3d	-0.23575683
140	0xbd814ef8	-0.0631389
141	0xbd25c6f3	-0.040472936
142	0xbd480625	-0.048833985
143	0x80000000	-0.0
144	0x3d9a4199	0.07532043
145	0x3d16b532	0.036793895
146	0xbd2c12ce	-0.04201012
147	0x3d16d12a	0.03682057
148	0x3e0499a9	0.12949242
149	0xbd61698e	-0.055032305
150	0x3dfa3bae	0.12218414
151	0x3da9b2ae	0.082860336
152	0x3d5308c9	0.05152205
153	0x3d458363	0.048221003
154	0x3da248c7	0.079240374
155	0x3d84c6c8	0.06483227
156	0x3e068329	0.13135971
157	0x3e129a07	0.1431657
158	0x3da28a5e	0.07936548
159	0x3dc03db0	0.09386766
160	0x3dba9c00	0.09111786
161	0x3d80f6c9	0.062970705
162	0x3dec2b89	0.11531741
163	0x3db943da	0.09046145
164	0x3d4a0855	0.049324352
165	0x3de6a027	0.112610154
166	0x3df5dc86	0.12004952
167	0x3df31be7	0.11870556
168	0x3d815727	0.06315451
169	0x3c94df1e	0.018172797
170	0x3daddfd6	0.08489959
171	0x3e1d3504	0.15352255
172	0x3e0618fc	0.13095468
173	0x3dd7bfac	0.105346054
174	0x3e254157	0.16138206
175	0x3e70c334	0.23511964
176	0x3e2081f2	0.1567457
177	0x3e546d1e	0.2074475
178	0x3e23dba0	0.16001749
179	0x3e3d8d32	0.18510893
180	0xbd84073d	-0.06446693
181	0xbceaa4b2	-0.028642986
182	0x80000000	-0.0
183	0xbe0ff9e5	-0.14060171
184	0xbda4b291	-0.08041871
185	0xbd445cda	-0.047940113
186	0xbe071445	-0.13191326
187	0xbce48a0e	-0.02789786
188	0xbda28fa4	-0.079375535
189	0x3d700446	0.058597825
190	0x3d9a100a	0.075225905
191	0x3d3e8de3	0.046522032
192	0x3df365cf	0.11884653
193	0x3de63ef3	0.11242475
194	0x3df1d33c	0.11807868
195	0x3de5906d	0.11209188
196	0x3e187ef6	0.14892182
197	0x3dd22215	0.10260407
198	0x00000000	0.0
199	0x3d5a0821	0.05323041
200	0xbceb3141	-0.02871001
201	0x3d71657b	0.05893467
202	0x3e0c4e55	0.13701756
203	0x3dca6bcc	0.09883842
204	0xbd19ba45	-0.037531156
205	0xbca21c4a	-0.01978888
206	0x3d18a10a	0.037262954
207	0x80000000	-0.0
208	0x3cc5f535	0.024164775
209	0x80000000	-0.0
210	0x3d5eae27	0.054365303
211	0x3d702f2b	0.058638733
212	0x3d71c176	0.05902239
213	0x3d534e52	0.051588364
214	0x3d6c6ee7	0.057722952
215	0x3d975346	0.0738893
216	0x3d0211c9	0.031755242
217	0x3db447f9	0.0880279
218	0x3dc14ffe	0.094390854
219	0x3d96eb32	0.07369079
220	0x3e183021	0.1486211
221	0x3e0999b3	0.13437538
222	0x3db632d6	0.08896415
223	0x3de4dc6d	0.111748554
224	0x3de57cd3	0.11205449
225	0x3da0af55	0.07845942
226	0x3d3ec7ce	0.046577267
227	0x3dec0abc	0.11525485
228	0x3dcafb1a	0.09911175
229	0x3ccf828d	0.025330806
230	0x3dbf6588	0.093455374
231	0x3cef4f23	0.02921254
232	0x3cc430f3	0.023949122
233	0x3d83e3e3	0.0643995
234	0x80000000	-0.0
235	0xbe004ce7	-0.12529336
236	0x00000000	0.0
237	0x00000000	0.0
238	0xbde653b1	-0.112464316
239	0xbd36de43	-0.04464556
240	0x3d83e029	0.064392395
241	0xbdd84d7c	-0.10561654
242	0xbd2bfc57	-0.041988697
243	0x00000000	0.0
244	0x80000000	-0.0
245	0x3cdc31ec	0.026879273
246	0xbcd418de	-0.025890764
247	0x00000000	0.0
248	0x00000000	0.0
249	0x3d9eee22	0.07760264
250	0x00000000	0.0
251	0xbd93d088	-0.072175086
252	0xbd85d995	-0.06535641
253	0xbda8cb17	-0.08241861
254	0xbd2244f4	-0.03961654
255	0xbd9b0426	-0.075691506

upconv2.3.bias f4 [32]
0	0x3e90f7c5	0.28314033
1	0xbb98467c	-0.0046470743
2	0xbdd0abb8	-0.10189003
3	0xbdb872e6	-0.0900629
4	0xbdf50df4	-0.11965552
5	0x3eb1be34	0.34715426
6	0x3f20e698	0.6285186
7	0x3dee798c	0.11644277
8	0xbfb396dd	-1.4030415
9	0x3fb9f1ba	1.4526894
10	0xbec4f4de	-0.3846807
11	0x3e836346	0.25661677
12	0xbeb2d8ea	-0.34931117
13	0x3eaef6b1	0.34172586
14	0xbe3b6e12	-0.18303707
15	0xbede5911	-0.43427327
16	0xbd3e2dfa	-0.046430565
17	0x3e43a6a0	0.19106531
18	0x3ef87738	0.48528457
19	0x3e95f4b2	0.2928825
20	0xbe0cc7b8	-0.13748062
21	0x3e72eccd	0.23723145
22	0xbde5c64e	-0.11219464
23	0x3f0bd9ff	0.5462951
24	0x3eb18cf5	0.34677854
25	0x3d489cdd	0.04897772
26	0x3fc1c007	1.5136727
27	0xbf00f5b6	-0.50374925
28	0xbd4b4d05	-0.049634
29	0xbf00ffa0	-0.5039005
30	0xbe9bd8e2	-0.30438906
31	0x3d989bc7	0.07451587

upconv2.3.weight f4 [32, 32, 3, 3]
0	0x3da0336c	0.07822308
1	0x3d7348ed	0.05939572
2	0x80000000	-0.0
3	0x3e2aa1eb	0.1666333
4	0x3d131196	0.035905443
5	0x3d31ca0b	0.043405574
6	0x3e182b69	0.1486031
7	0xbd51c29a	-0.051210977
8	0xbdb9aee9	-0.090665646
9	0x00000000	0.0
10	0x3da6adda	0.08138628
11	0x3da9659b	0.08271333
12	0x3da1bc21	0.07897211
13	0x3e0893a7	0.13337575
14	0x3dde6b87	0.10860353
15	0x3d1a7f48	0.03771904
16	0x3d966aaf	0.07344567
17	0x3d998345	0.07495741
18	0x3caeb9db	0.021328857
19	0xbcfed367	-0.031106664
20	0xbe12e174	-0.14343816
21	0x00000000	0.0
22	0x3dca2fe0	0.09872413
23	0xbd1d511f	-0.03840744
24	0x3e2fbd1c	0.17161983
25	0x3d0d0f19	0.034438226
26	0x3d660b15	0.056162912
27	0xbd9a880b	-0.075454794
28	0xbd1e188d	-0.038597632
29	0x00000000	0.0
30	0xbe1de366	-0.15418777
31	0xbd823552	-0.06357826
32	0xbdcbe0c5	-0.09954981
33	0xbccf1fb2	-0.025283668
34	0x80000000	-0.0
35	0x3d157a32	0.036493488
36	0x3d0e4a68	0.034738928
37	0x80000000	-0.0
38	0x3d07917f	0.03309774
39	0x3d15edd7	0.036603775
40	0x3dbb7427	0.09153014
41	0x3e060631	0.130883
42	0x3d04867a	0.03235481
43	0x3e05f1bc	0.13080496
44	0x3de691f9	0.11258311
45	0x3d5a64b7	0.053318705
46	0x80000000	-0.0
47	0x00000000	0.0
48	0x3d738ac2	0.0594585
49	0x00000000	0.0
50	0x80000000	-0.0
51	0x3cde69b6	0.027150016
52	0xbde1c0ce	-0.11023103
53	0xbcda95cf	-0.026682762
54	0xbcda310d	-0.026634717
55	0xbd5e9899	-0.054344747
56	0x00000000	0.0
57	0xbd907654	-0.07053819
58	0xbd24df56	-0.040252052
59	0xbd774d66	-0.060376547
60	0xbc9921d4	-0.018692888
61	0xbe078cbc	-0.1323728
62	0xbd5c08ff	-0.053719517
63	0xbda04e16	-0.07827394
64	0xbcaaa8a1	-0.020832362
65	0xbd245397	-0.04011878
66	0xbdb2c384	-0.08728698
67	0xbdfe8688	-0.124280035
68	0xbd7dbcb5	-0.061947543
69	0xbde9f389	-0.11423404
70	0xbd9f0bf4	-0.07765952
71	0xbdc39326	-0.09549551
72	0x80000000	-0.0
73	0x3dcf3e2d	0.10119281
74	0x00000000	0.0
75	0x3d90ace2	0.07064225
76	0x3cc5bbf9	0.024137484
77	0x3cb9a8d2	0.022663508
78	0x3da89066	0.08230667
79	0x3d105cb9	0.035244677
80	0x3d5dd970	0.054162443
81	0x00000000	0.0
82	0xbcfaee0c	-0.030631088
83	0xbce3f0ca	-0.027824778
84	0xbd1a5f22	-0.037688382
85	0xbd5a8d44	-0.053357378
86	0xbde31f76	-0.11089985
87	0xbdcadbb4	-0.09905186
88	0xbe08e3cf	-0.13368152
89	0xbd9374cf	-0.07200014
90	0x3d8a7f8f	0.06762611
91	0x3dd073e1	0.10178352
92	0x3da1c3b8	0.078986585
93	0x3d5271a3	0.051377904
94	0x3db9424c	0.09045848
95	0x3d814f08	0.06313902
96	0x3d3340fb	0.043763142
97	0x3e0fe4ab	0.14052074
98	0x3ddabb75	0.10680286
99	0xbd0eaf0f	-0.034834918
100	0x3d13f7e8	0.036125094
101	0x3cf5de01	0.030013086
102	0x80000000	-0.0
103	0xbd27001e	-0.040771596
104	0xbd445884	-0.047935978
105	0x3ccd4222	0.025055949
106	0xbd1f06b3	-0.03882475
107	0x80000000	-0.0
108	0x3da32aec	0.07967171
109	0x3d7cefd9	0.061752174
110	0x00000000	0.0
111	0x3e048cbb	0.1294431
112	0x3e1768a2	0.14786008
113	0x3daaf813	0.08348098
114	0x3d704680	0.058660984
115	0x3e12970e	0.14315435
116	0x3d8d8f0e	0.06912051
117	0xbd409b03	-0.04702283
118	0xbdb80574	-0.08985415
119	0x80000000	-0.0
120	0xbd8d23a3	-0.06891563
121	0xbdafb4a8	-0.08579379
122	0xbc999499	-0.018747615
123	0xbd6e563d	-0.058187712
124	0x00000000	0.0
125	0xbd246108	-0.0401316
126	0xbdbe5b8f	-0.09294807
127	0xbdcfd8bc	-0.10148761
128	0xbd671d43	-0.05642439
129	0xbdac5393	-0.08414378
130	0xbd96e7f6	-0.07368462
131	0x00000000	0.0
132	0xbdaf7227	-0.08566695
133	0x80000000	-0.0
134	0xbcc2e1f2	-0.02378938
135	0x3d2a5770	0.041587293
136	0x3c9a1eae	0.018813457
137	0x00000000	0.0
138	0x3dc8ed0d	0.09810839
139	0x3e116c29	0.14201416
140	0x3dcc439d	0.09973834
141	0x00000000	0.0
142	0x3d6ed394	0.058307245
143	0x3de38caa	0.11110814
144	0x80000000	-0.0
145	0x80000000	-0.0
146	0xbcb3a316	-0.021928351
147	0xbde69054	-0.11257997
148	0xbd3b3267	-0.045702364
149	0xbd3355f1	-0.043783132
150	0xbdbe4aa5	-0.09291581
151	0xbdf387d5	-0.11891142
152	0xbe152511	-0.14564921
153	0xbc9c7a6e	-0.019101348
154	0x3d972113	0.07379355
155	0xbd2ebc57	-0.042660084
156	0xbd2aaefb	-0.04167078
157	0xbd12e41a	-0.035862066
158	0x3d24763d	0.040151823
159	0x00000000	0.0
160	0xbcee7461	-0.029108228
161	0x80000000	-0.0
162	0x3d535a6d	0.05159991
163	0xbd3f13fc	-0.046649918
164	0x00000000	0.0
165	0xbd448bd1	-0.0479849
166	0xbceb8542	-0.028750066
167	0xbdb6b452	-0.08921112
168	0xbdcb287d	-0.09919832
169	0xbe05d330	-0.13068843
170	0xbe1852bf	-0.14875315
171	0x3d05d23c	0.0326712
172	0x00000000	0.0
173	0x3d6ce9e1	0.05784023
174	0xbd8c83a8	-0.06861049
175	0xbd4e26a7	-0.05032983
176	0x3d553396	0.05205115
177	0x80000000	-0.0
178	0x00000000	0.0
179	0x3cc4a147	0.024002684
180	0xbd0deb2d	-0.03464811
181	0x00000000	0.0
182	0x3cf505be	0.029909965
183	0x3de5a867	0.11213761
184	0x3d280f55	0.041030247
185	0x3d275e7b	0.040861588
186	0x3dc0c4e5	0.09412555
187	0x3e14c5b0	0.14528537
188	0x3dd5d07f	0.10440158
189	0x00000000	0.0
190	0xbe089e58	-0.13341653
191	0xbd3ed00e	-0.046585135
192	0x80000000	-0.0
193	0xbdebf9d1	-0.11522258
194	0x80000000	-0.0
195	0x80000000	-0.0
196	0xbd0e7002	-0.034774788
197	0xbdbc87ed	-0.09205613
198	0x3d405f65	0.046965975
199	0xbd7b957e	-0.061421864
200	0xbd94fb08	-0.07274443
201	0xbd9e2ea2	-0.07723738
202	0xbe0e5368	-0.13899004
203	0xbdd93b90	-0.10607064
204	0xbd018ddf	-0.03162944
205	0xbdc1f481	-0.094704635
206	0xbd9347fa	-0.07191463
207	0x80000000	-0.0
208	0xbdc79120	-0.09744477
209	0xbd997af0	-0.074941516
210	0xbd25d96f	-0.040490564
211	0xbdf57acd	-0.11986313
212	0xbde847e5	-0.11341838
213	0x3d23a7b1	0.039954845
214	0xbd444c25	-0.04792418
215	0xbd9e423c	-0.07727477
216	0x80000000	-0.0
217	0x00000000	0.0
218	0x3d492bea	0.049114145
219	0xbda638a6	-0.081162736
220	0xbdf8562e	-0.121258125
221	0xbe06035d	-0.1308722
222	0x3d4cc36e	0.049991064
223	0x80000000	-0.0
224	0x3cdc479b	0.026889613
225	0x80000000	-0.0
226	0x3d806313	0.06268897
227	0x00000000	0.0
228	0x3d71cec2	0.05903507
229	0x3db6fddc	0.089351386
230	0x3d649833	0.05580921
231	0x3d2d00c2	0.04223705
232	0x80000000	-0.0
233	0x00000000	0.0
234	0xbdbcb868	-0.0921486
235	0xbdd44d39	-0.103662916
236	0xbdb07cfb	-0.08617588
237	0xbdcdf5b2	-0.10056628
238	0xbdec4814	-0.11537185
239	0xbdf2ebae	-0.118613586
240	0xbd2e6863	-0.04258002
241	0xbdb5af81	-0.08871365
242	0xbdba2f04	-0.09090999
243	0xbd12e8c8	-0.03586653
244	0x80000000	-0.0
245	0x80000000	-0.0
246	0x3cd203f7	0.025636656
247	0x3d9ca633	0.076488875
248	0x3e07c8d3	0.13260202
249	0x3da2a91e	0.07942413
250	0x3d2cb296	0.0421625
251	0x3d84c12d	0.06482158
252	0x3cd85a5a	0.02641027
253	0xbce6b72f	-0.02816352
254	0xbcb3a5e5	-0.02192969
255	0x80000000	-0.0

upconv1.3.bias f4 [2]
0	0xbfa58790	-1.2931995
1	0x3fb395a8	1.4030046

upconv1.3.weight f4 [2, 2, 3, 3]
0	0x3dde31b8	0.10849327
1	0x3ee43eb5	0.44579092
2	0x3db32893	0.08747973
3	0x3ea17f1d	0.31542292
4	0x3f8e389c	1.1111026
5	0x3f35f8dc	0.71082854
6	0x3ebe6f8b	0.37194476
7	0x3eef3ac3	0.4672452
8	0x3f0f602c	0.5600612
9	0xbdb464f3	-0.08808317
10	0xbf4d2779	-0.80138355
11	0xbecd8009	-0.40136746
12	0xbf2335a9	-0.63753754
13	0xbf84973b	-1.0358652
14	0xbf21b213	-0.63162345
15	0xbedef015	-0.43542543
16	0xbf5a92b3	-0.85380095
17	0xbea728cd	-0.32648316
18	0x3e269267	0.16266786
19	0x3ee0f270	0.43934965
20	0x3e83dded	0.25755253
21	0x3f22a080	0.63526154
22	0x3f9c1fb4	1.2197175
23	0x3f11feb7	0.5702929
24	0x3e5e5c75	0.21714957
25	0x3ee472ef	0.44618937
26	0x3e7a59a8	0.24448264
27	0xbeeca6ab	-0.46220908
28	0xbf1a00b9	-0.6015735
29	0xbf089410	-0.53350925
30	0xbeec2810	-0.46124315
31	0xbfa0a83d	-1.2551342
32	0xbf3b3850	-0.731328
33	0xbe83b805	-0.25726333
34	0xbf476eae	-0.7790326
35	0xbe8cbace	-0.2748627

out.0.bias f4 [2]
0	0xbf318059	-0.6933647
1	0x3ea7c16e	0.32764763

out.0.weight f4 [2, 2, 1, 1]
0	0x40469f5f	3.1034772
1	0xbfe93103	-1.8218082
2	0xc01bec43	-2.4362953
3	0x40278fe8	2.6181583

onnx::Conv_81 f4 [32, 4, 1, 1]
0	0x4145c722	12.361116
1	0x4195b83f	18.714964
2	0xc1a06ad7	-20.052168
3	0x41969a26	18.825268
4	0xc188bd5d	-17.092463
5	0xc15bafde	-13.730436
6	0xc217487d	-37.82079
7	0x41920d7b	18.256582
8	0x41c20d64	24.256538
9	0x00000000	0.0
10	0x80000000	-0.0
11	0x422061f8	40.095673
12	0x3f93d8fb	1.1550592
13	0xc0863f51	-4.195229
14	0x401993bb	2.3996418
15	0xc04919e2	-3.1422048
16	0xc086c148	-4.211094
17	0x3f8c2a1b	1.095035
18	0x401fae77	2.4950235
19	0xc1b11595	-22.135538
20	0x3fa3f825	1.2810103
21	0xbf893a66	-1.0720947
22	0x4129abb4	10.60442
23	0xc178858f	-15.532607
24	0xc215378f	-37.304256
25	0xc2725c8b	-60.590374
26	0x417321f8	15.195793
27	0x4198516d	19.039759
28	0x40fc27c5	7.8798547
29	0x402e514d	2.7237122
30	0x4130f342	11.059389
31	0xc11880f1	-9.53148
32	0xc1e1dc7d	-28.23266
33	0xc187586e	-16.918179
34	0xc1470238	-12.438042
35	0xc19d3271	-19.64963
36	0xc221d46b	-40.45744
37	0xc207d50d	-33.958057
38	0xc1643a65	-14.2642565
39	0xc165be13	-14.358905
40	0xbff724ca	-1.9308102
41	0x4089ff7e	4.312438
42	0x401b3e4d	2.4256775
43	0x3f759bee	0.95941055
44	0x42007edf	32.123898
45	0x41817752	16.183262
46	0x41e9fedf	29.249449
47	0x80000000	-0.0
48	0x40df27e7	6.973621
49	0x40c09652	6.0183496
50	0x3feda4f7	1.8565968
51	0xc10ee37d	-8.930539
52	0x4070f942	3.7652135
53	0x4130da7b	11.05334
54	0x4187d309	16.978045
55	0xc13ee252	-11.930254
56	0xc1c5b7b4	-24.714699
57	0xc21495bf	-37.146236
58	0x41db0bff	27.380857
59	0x40222fb0	2.5341606
60	0x40bc7b33	5.890039
61	0x4048b2a0	3.1359024
62	0xc0ae8c64	-5.4546375
63	0xc0281cd2	-2.626759
64	0xc109e0e5	-8.617406
65	0xc20ca37d	-35.159657
66	0x41e341b5	28.407084
67	0x41acea8d	21.614527
68	0xc0f4d088	-7.6504555
69	0x3f46f4e7	0.7771744
70	0x3f06534e	0.5247086
71	0xbff72ebd	-1.9311138
72	0x4151cf46	13.113104
73	0x411824a7	9.508948
74	0x41313994	11.076557
75	0xc13bd841	-11.740296
76	0xc1746629	-15.274941
77	0x409fb967	4.991382
78	0xc0f156ba	-7.5418367
79	0xc194c5e5	-18.596628
80	0xc0321b6c	-2.7829237
81	0xbfeadd3d	-1.8348767
82	0xc0afafed	-5.4902253
83	0xc10616eb	-8.380595
84	0xc1b37672	-22.432835
85	0xc10fe7dd	-8.994107
86	0xc0baacdc	-5.833601
87	0xc0204b56	-2.5045981
88	0x00000000	0.0
89	0xc0599c6d	-3.4001725
90	0x00000000	0.0
91	0xc0aa4fc5	-5.3222375
92	0x3f344d06	0.7043003
93	0x4157db57	13.49105
94	0xc0919296	-4.549144
95	0xc0117f1a	-2.2733827
96	0x404eb735	3.229932
97	0x40712dfb	3.7684314
98	0xc0b596ea	-5.674672
99	0xc0f4f822	-7.6552896
100	0xc19d24c0	-19.642944
101	0xc15b5023	-13.707065
102	0xc220b78f	-40.179256
103	0x415bc063	13.734469
104	0x41bd5522	23.666569
105	0xc10cebfa	-8.807611
106	0x423d8def	47.388607
107	0x419fa079	19.953356
108	0xc0b56a17	-5.6692004
109	0xc0acc6df	-5.3992763
110	0xbfddc888	-1.7326822
111	0xc14ad077	-12.675895
112	0xc081d1e3	-4.056871
113	0x40a1df96	5.058543
114	0x3e975f87	0.2956507
115	0xbfc0af98	-1.5053587
116	0x40782e97	3.8778436
117	0xbf25e809	-0.6480718
118	0xc0342d24	-2.8152552
119	0x80000000	-0.0
120	0xc1315998	-11.084373
121	0xc1671944	-14.443668
122	0xc192e5b5	-18.362162
123	0x40d08f02	6.517457
124	0xc082e3dd	-4.0903153
125	0x40410c87	3.0163896
126	0x4125376d	10.326032
127	0xc0492448	-3.1428394

onnx::Conv_82 f4 [32]
0	0x4142f478	12.184685
1	0xc0407e50	-3.0077095
2	0x40960251	4.687783
3	0xc00f8130	-2.24226
4	0xbf87f49d	-1.0621525
5	0xbff073c2	-1.8785326
6	0xc1fb6665	-31.424997
7	0x3f507f1f	0.8144397
8	0xc11c0330	-9.750778
9	0xc1938a7e	-18.442623
10	0x3f942b2f	1.1575679
11	0x41065c8a	8.397593
12	0x40462b38	3.0963879
13	0x403f30b7	2.9873483
14	0xc1ad72de	-21.681087
15	0x4044f336	3.0773444
16	0xc1965694	-18.792274
17	0xbf8423f4	-1.0323472
18	0x40897442	4.2954416
19	0x3eb95885	0.36200348
20	0xbf145d28	-0.57954645
21	0xc0d5e68f	-6.6843944
22	0xbfd05901	-1.6277162
23	0x40cd9114	6.4239597
24	0x401e65c5	2.4749615
25	0xc06bb858	-3.6831264
26	0xc0a4810d	-5.1407533
27	0xc0511834	-3.2671022
28	0x3fc87c30	1.5662899
29	0x3ef79106	0.48352832
30	0xc0a98709	-5.297734
31	0xbf30730c	-0.6892555

onnx::Conv_84 f4 [64, 32, 1, 1]
0	0xbf06f317	-0.52714676
1	0xbe841b45	-0.25802055
2	0x80000000	-0.0
3	0xbe13579c	-0.14388889
4	0xbe1f1eba	-0.15539065
5	0xbe64235f	-0.22279118
6	0x3f74c9d2	0.95620453
7	0xbd64f2c2	-0.055895574
8	0xbecb4c30	-0.39706564
9	0x3e34b9cb	0.17649
10	0x3e26104b	0.16217153
11	0x3e2a5baa	0.1663653
12	0x3e1d2c79	0.15348996
13	0x3e2ec72c	0.17068166
14	0x80000000	-0.0
15	0x3e2cc227	0.16870938
16	0xbf4194c1	-0.75617605
17	0x00000000	0.0
18	0x00000000	0.0
19	0x3e8c1587	0.27360174
20	0x3f109e93	0.56491965
21	0xbd7216eb	-0.059103888
22	0x3e6ab6b5	0.2292126
23	0xbdae1031	-0.08499182
24	0x00000000	0.0
25	0xbf2141e8	-0.6299119
26	0x3f1480a4	0.5800879
27	0x3e884d5e	0.26621526
28	0x3e94d01a	0.2906502
29	0xbd429644	-0.047506586
30	0xbed0fc61	-0.4081755
31	0x3ed36abe	0.41292375
32	0xbdce8fec	-0.10086045
33	0xbe313681	-0.17305948
34	0x80000000	-0.0
35	0xbf218081	-0.63086706
36	0xbdb02b85	-0.08602051
37	0x3f6b62f3	0.9194786
38	0x3e4df8b6	0.20114407
39	0xbe889db0	-0.26682806
40	0x3ef925f9	0.48661783
41	0x3de742c3	0.11292031
42	0x3f0f7dfe	0.56051624
43	0x3f4330e5	0.7624648
44	0x3f26b33b	0.65117234
45	0x3dabdf97	0.08392256
46	0x3ec5c1f4	0.38624537
47	0x3fd68c9e	1.6761663
48	0x3ea6fe4b	0.32615885
49	0xbf06e160	-0.52687645
50	0xbeea3a59	-0.4574764
51	0xbe54f996	-0.20798334
52	0xbf21e8b3	-0.63245696
53	0x3ef67e95	0.4814345
54	0xbf73cc2a	-0.95233405
55	0xc003d91d	-2.0601265
56	0x3f31bdd1	0.6943026
57	0xbe7979b8	-0.24362838
58	0x80000000	-0.0
59	0x3e176c70	0.1478746
60	0x3ec4d5e9	0.3844445
61	0xbdf2f73f	-0.11863565
62	0x3f75b30b	0.9597632
63	0x00000000	0.0
64	0xbf6f024c	-0.9336288
65	0x3fa776a2	1.3083079
66	0xbf3fbea6	-0.7490028
67	0x3f893837	1.072028
68	0x80000000	-0.0
69	0xbf83686a	-1.026624
70	0x3ecc9043	0.39953813
71	0xbef9f004	-0.4881593
72	0x3f786421	0.97027785
73	0x3f54ef49	0.8317762
74	0xbe95d652	-0.29265076
75	0xbf06352b	-0.5242488
76	0xbdd0b0ba	-0.10189958
77	0x3f4e3b56	0.8055929
78	0xbe9b7eee	-0.30370277
79	0xbe739a9f	-0.23789452
80	0x3ead64d4	0.33865988
81	0x00000000	0.0
82	0x3eed548b	0.46353564
83	0x3f351971	0.70741946
84	0x3f9964db	1.1983904
85	0xbecbc1c1	-0.3979626
86	0xbe9f9cd4	-0.31174338
87	0xbee0f445	-0.43936363
88	0xbf574e03	-0.8410341
89	0xbf6d3751	-0.9266253
90	0xbf367fd6	-0.7128881
91	0x80000000	-0.0
92	0x80000000	-0.0
93	0x3e34158a	0.17586342
94	0x3f0c00e4	0.5468886
95	0xc0081f49	-2.1269095
96	0xbddd51bf	-0.108066075
97	0x3ea9021c	0.33009422
98	0x3f0526a0	0.5201206
99	0x3e15f3ab	0.14643733
100	0xbf2b125a	-0.6682488
101	0xbea5f7cf	-0.32415625
102	0x3e0d10ee	0.1377599
103	0xbef1300f	-0.47106978
104	0x00000000	0.0
105	0x3f1c7097	0.611093
106	0x3e2e7c67	0.17039643
107	0xbe93df12	-0.28881127
108	0xbe4f4052	-0.2023938
109	0x3e32c66f	0.17458509
110	0xbde6a7f2	-0.11262502
111	0x3e88a8a3	0.2669116
112	0x80000000	-0.0
113	0x00000000	0.0
114	0xbf02ccd6	-0.51093805
115	0xbe738787	-0.23782168
116	0xbdc4328d	-0.09579954
117	0xbf8a0354	-1.0782266
118	0x3e70513f	0.23468493
119	0x3e543b12	0.20725659
120	0xbf230fb8	-0.6369586
121	0xbe7491a6	-0.23883685
122	0x3dbe8dc9	0.09304387
123	0x3f08e2ef	0.53471273
124	0x3e57716d	0.21039362
125	0xbe87b007	-0.26501486
126	0xbdba18bf	-0.09086751
127	0xbeb92bcc	-0.36166227
128	0x3d7d172f	0.061789688
129	0xbe518e71	-0.20464493
130	0x3f10a113	0.5649578
131	0x3e767bfa	0.24070731
132	0xbe2b03bf	-0.16700648
133	0xbe24750d	-0.16060276
134	0x3dcc84e5	0.09986285
135	0xbe6923c2	-0.22767547
136	0xbd24b17e	-0.040208332
137	0x3d88333f	0.066503994
138	0xbe2d9e46	-0.16954908
139	0x3ee8ec36	0.45492715
140	0xbe908ecf	-0.28233954
141	0xbe81f5d1	-0.25382856
142	0xbd270f0b	-0.04078583
143	0x3dfd7945	0.12376646
144	0xbdad8c64	-0.08474043
145	0xbec460be	-0.38355058
146	0xbdd16849	-0.10224969
147	0x3ec2f7cd	0.38079682
148	0x00000000	0.0
149	0x3e82e399	0.25564268
150	0xbe61a6a8	-0.2203623
151	0x3e9c060b	0.3047336
152	0x80000000	-0.0
153	0x00000000	0.0
154	0xbef7b850	-0.48382807
155	0xbdd209b6	-0.102557585
156	0xbea9d9ef	-0.33174083
157	0x3e01beb3	0.12670402
158	0x00000000	0.0
159	0x3d6ec90c	0.058297202
160	0x3f1d63bc	0.6148031
161	0xbf211122	-0.6291677
162	0x3de6b086	0.11264138
163	0x00000000	0.0
164	0x3ef11975	0.47089735
165	0x3dbd584f	0.09245359
166	0x3e01953b	0.12654583
167	0x3f10d5e0	0.5657635
168	0xbf54f359	-0.8318382
169	0xbe14829c	-0.14502949
170	0xbf527529	-0.8221002
171	0xbe5b7f51	-0.21435286
172	0x3ed3d553	0.4137369
173	0x80000000	-0.0
174	0x3eb24018	0.34814525
175	0xbe7cf646	-0.24703321
176	0xbeb25c8b	-0.3483623
177	0xbf0ea158	-0.5571494
178	0x3f0135df	0.50472826
179	0x3eebab78	0.46029258
180	0xbec7507d	-0.38928595
181	0xbecc505c	-0.3990506
182	0x3f01a42f	0.5064115
183	0x3f39fa32	0.7264739
184	0x3e8d0aa1	0.27547172
185	0x3ebd4dad	0.36973324
186	0x3f3b9a5b	0.732824
187	0x3d8a76c1	0.06760932
188	0xbe961da9	-0.29319504
189	0x3ef90c76	0.4864232
190	0xbf13dde5	-0.5776046
191	0xbf4807e4	-0.7813704
192	0x3f10a3cf	0.5649995
193	0x3db4aef0	0.08822429
194	0x3e89cb47	0.269129
195	0x3e374c06	0.17900094
196	0x80000000	-0.0
197	0xbd8ed302	-0.0697384
198	0x3dd570f9	0.104219384
199	0xbe934e33	-0.287706
200	0xbd32a9ae	-0.04361885
201	0x3dd9d6aa	0.10636647
202	0xbe2fca16	-0.17166933
203	0xbd2a4c14	-0.04157646
204	0xbd500176	-0.050782643
205	0x3e8b4cf6	0.27207154
206	0x3e01f97d	0.12692828
207	0x00000000	0.0
208	0xbdd3753b	-0.10325094
209	0xbf0c67a4	-0.54845643
210	0xbec977c3	-0.39349183
211	0x3e656735	0.22402652
212	0x3e043cb0	0.12913775
213	0xbf462744	-0.77403665
214	0x3e3c8d0b	0.18413179
215	0x3ecf2544	0.4045812
216	0xbf02a9f1	-0.5104056
217	0x80000000	-0.0
218	0xbe806577	-0.25077412
219	0x3e82715e	0.25477117
220	0xbf0efe5f	-0.5585689
221	0xbe3b6fb6	-0.18304333
222	0x3e95ba42	0.29243666
223	0x80000000	-0.0
224	0x3eccb203	0.39979562
225	0xbe49e345	-0.19715603
226	0x3eb8ac1b	0.36068806
227	0xbe090a84	-0.13382918
228	0x3ff9e14a	1.9521878
229	0x3f6ad70f	0.91734403
230	0x80000000	-0.0
231	0xbfccd4c3	-1.600243
232	0xbe9c98c3	-0.30585298
233	0x3ec7782a	0.38958865
234	0x3f56596c	0.83730197
235	0x3f848fff	1.0356444
236	0xbf4c5802	-0.7982179
237	0xbfbc390a	-1.4704907
238	0xbe884425	-0.2661449
239	0xbfbfbb8c	-1.497911
240	0xc00a1b29	-2.1579077
241	0x3ebb3087	0.3656046
242	0x00000000	0.0
243	0x3f94891a	1.160434
244	0xbf8c70a2	-1.0971873
245	0x3f452d59	0.7702232
246	0x3ee212ef	0.4415507
247	0x3f8ce12c	1.1006217
248	0xbe5c2074	-0.21496755
249	0xbf271d5e	-0.65279186
250	0x3f94e171	1.1631299
251	0x3f077a7f	0.5292129
252	0x3f504b7c	0.8136518
253	0x3f4c6248	0.79837465
254	0x3f126e47	0.5719952
255	0xbf2b7a39	-0.6698337

onnx::Conv_85 f4 [64]
0	0x3e5b67c3	0.214263
1	0xc00c12a0	-2.1886368
2	0xbfff316f	-1.9936961
3	0x3dde2c48	0.1084829
4	0x3feeced9	1.8656875
5	0x3f5957fc	0.8489988
6	0x3fb0323a	1.3765328
7	0x3fe7dbbe	1.8113935
8	0xbf443cb3	-0.7665512
9	0xbf5125a1	-0.8169804
10	0xbfb25d22	-1.3934672
11	0xbfc9ddf8	-1.5770864
12	0xbf34dbce	-0.70647895
13	0x3fb64148	1.4238672
14	0x3ecc99c0	0.39961052
15	0x3fd1e55f	1.6398124
16	0x3f5ae687	0.85508007
17	0x40144fcc	2.3173704
18	0x3f112393	0.56694907
19	0xbf8ddd7a	-1.1083214
20	0x3fa83e66	1.3144042
21	0x3fe225a7	1.766774
22	0x3fdf8858	1.7463484
23	0x400a2b9e	2.1589122
24	0x4023af7a	2.5575852
25	0x403a1607	2.9075944
26	0x3ff18daf	1.8871363
27	0x3f41e7fa	0.75744593
28	0xbf62a95e	-0.88539684
29	0xbf70271a	-0.93809664
30	0x40051f79	2.080046
31	0xbfac218d	-1.3447739
32	0x3f8071fd	1.0034786
33	0xbf5d38b3	-0.8641464
34	0xbfae4207	-1.36139
35	0xbf5da2ba	-0.86576426
36	0x3fd89d88	1.6923075
37	0xbfb98446	-1.4493492
38	0xbfd93c9e	-1.6971624
39	0x3fa64699	1.2990295
40	0x3f8b9cb7	1.09072
41	0xbf386831	-0.72033983
42	0xbe9ab444	-0.30215657
43	0x3ff4660e	1.9093645
44	0x3fd60b92	1.6722281
45	0x3f39f485	0.7263873
46	0x3d98eff2	0.07467641
47	0x3f1d4a03	0.6144106
48	0xc0096d41	-2.1472933
49	0xbf5fbb00	-0.87394714
50	0x40216ecb	2.5223873
51	0x3f733d51	0.95015436
52	0x3fb8294b	1.4387602
53	0x40113076	2.2685828
54	0xbf536ef4	-0.82591176
55	0x3f46a4a2	0.7759496
56	0x3f85aa0c	1.0442519
57	0x3fad95ec	1.3561378
58	0x3f6d9e71	0.9281989
59	0xbf1dfca3	-0.6171362
60	0xbf871f60	-1.055645
61	0xbfd56bbc	-1.6673503
62	0xbea68463	-0.32522878
63	0xbfcf72ca	-1.6206906
