models/model.pth (torch, 679677 bytes, 50 tensors)

bias f4 [4]
000000 65 ac b7 be 75 be 5f be fd 36 62 3e 20 ee 05 3e
       -0.35873714 -0.21849997 0.22091289 0.13079119

weight f4 [4, 1, 3, 3]
000000 95 a5 d8 3d 71 00 53 3d b3 88 3d 3d f0 84 4d 3e
       0.10578457 0.051514093 0.046272945 0.20070243
000010 65 12 c5 3e 79 c4 94 3e 00 00 00 00 0b f3 18 3d
       0.38490596 0.29056147 0.0 0.03734116
000020 a3 62 e3 bd 33 d8 0d be d3 17 84 bd e4 f0 29 bd
       -0.11102798 -0.13852005 -0.064498566 -0.041489497
000030 82 ee ec 3d 52 97 44 be 00 00 00 00 c5 e3 a0 be
       0.11568929 -0.19198349 0.0 -0.31423774
000040 f4 f0 9b bd 6f ba 41 be 00 00 00 80 9b 93 95 3e
       -0.076143175 -0.18918775 -0.0 0.29214177
000050 cd ca 05 bd 36 71 97 3d 3d f5 11 be 72 a2 a1 be
       -0.03266411 0.0739464 -0.14253707 -0.31569248
000060 87 ab 62 be f3 0a 9c be 4e c1 25 3e eb b6 33 3e
       -0.22135745 -0.30477104 0.16187021 0.17550246
000070 fc b2 a9 be c7 1c 9b be 86 ce 86 be cc 3c 9a 3e
       -0.33144367 -0.30295393 -0.2632944 0.3012451
000080 c2 aa f9 bc 98 27 18 be bc ea 8b be f5 fe 7b 3e
       -0.030476931 -0.14858854 -0.27327526 0.24608977

bias f4 [32]
000000 51 b1 a0 be 53 65 d0 3e 93 57 94 be ed 47 79 bd
       -0.31385282 0.40702304 -0.28973064 -0.06085961
000010 9f 70 87 bd 7e 15 5b 3e a2 c8 ec 3d 4a 95 32 bd
       -0.06613278 0.21394917 0.11561705 -0.043599404
000020 b3 52 cd 3e 2e 6d 88 be 33 89 bd be e0 65 34 3d
       0.40102157 -0.26645797 -0.37018737 0.044042468
000030 0e ee ed be 33 80 c3 be d0 65 c1 be 24 5d 51 3e
       -0.46470684 -0.38183746 -0.3777299 0.20445687
000040 67 3e d0 bd 1e 5a 54 3e 66 6c 10 bf 61 4d 67 3e
       -0.10168152 0.20737502 -0.564154 0.22588111
000050 3a a0 8b 3e f2 05 88 3e 5f a7 f1 3e 23 55 03 3f
       0.2727068 0.26567036 0.47198007 0.51301783
000060 5e 7c cc bc 57 7f a3 be db 65 d0 be 45 8c 05 3f
       -0.024961647 -0.3193309 -0.4070271 0.5216716
000070 99 10 05 3f e6 b7 e2 bd c3 30 8d bd cd 56 c5 3e
       0.5197845 -0.11070232 -0.06894066 0.38542786

weight f4 [32, 4, 1, 1]
000000 5d f0 17 3e d4 09 66 3e 92 79 76 be eb 64 67 3e
       0.14837785 0.22464687 -0.24069813 0.22597091
000010 38 88 24 be 52 2b 04 be 11 08 b6 be e8 bc 2f 3e
       -0.16067588 -0.1290715 -0.3555303 0.17161906
000020 ae 86 52 3e 00 00 00 00 00 00 00 80 87 ff ad 3e
       0.20559189 0.0 -0.0 0.33984014
000030 0d 3b f7 3d 04 7d e0 be e0 67 80 3e fe 23 a8 be
       0.1207181 -0.4384538 0.2507925 -0.3283996
000040 8e ec 01 be bc 23 07 3d fa f4 99 3d 60 bc 2a bf
       -0.12687895 0.032993063 0.07517429 -0.6669369
000050 b6 8f 46 3d be 2d 26 bd 30 77 cd 3e cb 79 16 bf
       0.048476897 -0.040570967 0.40129995 -0.5877959
000060 ba f1 a1 be 44 84 03 bf 66 ef 03 3e 4f 4f 25 3e
       -0.31629735 -0.51373696 0.12884292 0.16143535
000070 14 94 a2 3e c6 c8 e0 3d da 2d e4 3e b0 a7 c4 be
       0.317536 0.109757945 0.44566232 -0.38409185
000080 8e 29 0a bf cd 95 a5 be f2 78 73 be a9 51 c0 be
       -0.5396966 -0.3234085 -0.23776606 -0.37562302
000090 bc d9 b4 be 20 cc 97 be 95 0d ff bd 6a 5f 00 be
       -0.35322368 -0.29647923 -0.124537624 -0.12536398
0000a0 d5 f1 b3 be b4 f3 48 3f 85 10 e2 3e cb d3 32 3e
       -0.3514544 0.7849686 0.44153228 0.17463605
0000b0 fd bd a6 3e 64 00 28 3e 72 d2 97 3e 00 00 00 80
       0.32566825 0.16406399 0.29652745 -0.0
0000c0 cd fd e2 3e b7 e5 c3 3e 9d ba f1 3d 35 58 11 bf
       0.4433426 0.38261196 0.11803172 -0.5677522
0000d0 3d 00 cd 3d df 73 96 3e c7 18 e7 3e 85 63 a2 be
       0.10009811 0.29385278 0.4513609 -0.31716552
0000e0 f4 31 b9 be 9f 2c 0b bf 6b 2c cd 3e 09 ea 17 3d
       -0.36170924 -0.5436496 0.4007295 0.037088428
0000f0 f3 e6 0a 3f b8 e7 93 3e 5f a2 00 bf 60 c8 77 be
       0.5425865 0.28887725 -0.5024776 -0.24197531
000100 51 c3 c3 bd 8e ae c7 be 00 55 a1 3e a2 82 75 3e
       -0.09558738 -0.39000362 0.31510162 0.23975614
000110 23 bd dc be 04 64 33 3d 1f 3b f2 3c ba df de bd
       -0.4311305 0.043796554 0.029569207 -0.10882516
000120 ae ea e6 3e ed 72 a7 3e cd 0d c3 3e fb bd ce be
       0.4510092 0.3270487 0.38096467 -0.4037932
000130 52 ed c1 be 45 7a fd 3d ae 7f 3f be 2f 19 ec be
       -0.37876374 0.12376837 -0.1870105 -0.46112964
000140 83 f9 9b bd c8 ad 4d bd ff da 19 be 94 da 6a be
       -0.0761595 -0.05021456 -0.15024947 -0.22934943
000150 dc 0e 94 be 53 72 ed bd 2a 02 9a bd 75 3e 04 bd
       -0.28917587 -0.11594071 -0.07519944 -0.032286126
000160 00 00 00 00 d5 f9 6c be 00 00 00 00 a5 77 b9 be
       0.0 -0.23142178 0.0 -0.36224094
000170 26 c5 b8 3c 17 35 dd 3e 56 2e 15 be 5f 1a 95 bd
       0.022554945 0.43204567 -0.14568457 -0.072804205
000180 db 94 10 3e b2 af 28 3e f0 03 7e be 3e 56 ab be
       0.14119284 0.16473272 -0.2480619 -0.33464235
000190 04 7a 7d be f9 e0 30 be d0 9e 01 bf 81 3b 31 3e
       -0.24753577 -0.1727332 -0.50632954 0.17307855
0001a0 07 d5 9a 3e 56 7c e6 bd 7b 03 1b 3f 19 8a 82 3e
       0.30240652 -0.11254184 0.60552186 0.25495985
0001b0 72 87 56 be 9a 50 4c be 26 22 83 bd d2 d5 ef be
       -0.20950106 -0.19952622 -0.06402998 -0.4684282
0001c0 4e bc bd be 2e 95 ec 3e 80 3c dd 3c de ce 0c be
       -0.37057728 0.46207565 0.027006388 -0.13750789
0001d0 41 61 0f 3f f4 b1 bf bd e8 2e d0 be 00 00 00 80
       0.5600777 -0.09360114 -0.40660787 -0.0
0001e0 b4 13 54 be d5 2c 8a be 4d a9 af be 88 65 f9 3d
       -0.20710641 -0.2698733 -0.34308854 0.12177569
0001f0 c5 9b 6d be 3d 39 2f 3e 0a f6 15 3f b2 91 36 be
       -0.23203953 0.17111678 0.5857855 -0.17829016

weight f4 [32]
000000 db f1 7e 3f 49 1a 6f 3f 96 83 ae 3f 8e 12 3d 3f
       0.9958779 0.9339948 1.3633907 0.7385644
000010 b7 79 8e 3f 15 9b 7c 3f e2 91 78 3f f4 c7 5d 3f
       1.1130894 0.98674136 0.970976 0.8663323
000020 f4 4a 63 3f e1 1d 81 3f 37 28 7e 3f 11 4c 64 3f
       0.88786244 1.0087243 0.99280113 0.8917857
000030 84 ed 5d 3f 45 bf 87 3f 75 9e 88 3f ed 85 7e 3f
       0.86690545 1.0605246 1.0673357 0.99423105
000040 a2 ea 70 3f 6e 4e 83 3f 99 93 7d 3f da 6f 76 3f
       0.9410802 1.025831 0.9905334 0.9626442
000050 32 24 63 3f 40 02 bc 3f 55 21 5a 3f 21 14 7e 3f
       0.88727105 1.4688187 0.8520711 0.99249464
000060 c1 6c 7f 3f 0d d0 68 3f e2 a6 6b 3f 06 08 85 3f
       0.9977532 0.9094246 0.9205152 1.0393074
000070 1b 92 85 3f 6f 5a 4a 3f 9e 4c 7a 3f 77 97 ab 3f
       1.0435213 0.7904424 0.9777316 1.3405598

bias f4 [32]
000000 99 90 5b 3d 7f be be 3e 26 ab 89 3d 8d dd a9 be
       0.053604696 0.37254712 0.06722097 -0.33176842
000010 ff 50 04 be 0b 14 e0 bd e7 45 ef 3b b0 7c 2b bb
       -0.12921523 -0.10941323 0.007302034 -0.002616685
000020 2e 37 6e 3e ff a0 2a be 5f 1c ab bd 05 19 f2 3e
       0.23263237 -0.16662978 -0.08355021 0.47284713
000030 e1 6e 5a 3d 03 b7 28 bb 40 3b a6 3c c8 69 d9 3e
       0.0533284 -0.002574385 0.020291924 0.42463517
000040 fd 3c 95 3c 7f 34 2c be 8b 34 a0 3c b9 0c a6 3a
       0.018217558 -0.168169 0.019556304 0.0012668587
000050 e2 df 06 3e ef f2 aa be 7b 3e 05 be b3 da 38 3e
       0.13171342 -0.3338847 -0.13012116 0.18052177
000060 41 6b 18 3c 88 c7 22 3e 11 c3 3c be b6 e7 10 be
       0.009302915 0.15896428 -0.18433787 -0.1415089
000070 a4 40 d7 3d 58 6f db bd 1d 98 30 bd 5b dd 23 be
       0.10510376 -0.107145965 -0.043113817 -0.16002409

running_mean f4 [32]
000000 93 3f eb be 3c aa e0 3e b3 64 a8 be 5d 24 0e 3e
       -0.4594694 0.4387988 -0.32889327 0.13881059
000010 b4 be 1b bd ca d1 8f 3e 24 a6 c3 3e de b8 9c bd
       -0.038023666 0.28089744 0.38212693 -0.07652448
000020 74 84 17 3f b5 eb da bd 14 9a 18 bf dd ac 14 bd
       0.5918648 -0.10689489 -0.59610105 -0.036297668
000030 a2 7d 28 bf b9 32 ec be 39 42 76 bd 95 77 23 bd
       -0.658167 -0.46132448 -0.06012175 -0.039908964
000040 bd 13 db 3d 34 1c 83 3e 60 12 36 bf 82 24 5e 3e
       0.10697124 0.25607455 -0.7112179 0.21693614
000050 86 97 95 3e dd ef b1 3e b4 eb 12 3f 41 4b a0 3e
       0.29217166 0.34753314 0.57390904 0.31307414
000060 57 ee 07 be 36 b5 8a be cc f8 af be f0 1d 23 3f
       -0.13274513 -0.27091378 -0.34369504 0.63717556
000070 a2 ca c5 3e c5 b7 48 be aa 87 ef 3c f2 b5 d4 3e
       0.3863116 -0.19601353 0.029239494 0.41545063

running_var f4 [32]
000000 50 5b 0b 39 0c b1 8c 38 29 89 01 39 e1 e8 c2 3b
       0.0001329009 6.708698e-05 0.00012353495 0.0059481715
000010 3d 1c 92 3a 00 73 b5 3a 14 57 72 38 49 6f 9e 3a
       0.0011147332 0.0013843477 5.7778394e-05 0.0012087609
000020 f4 c8 91 39 f6 af 8d 38 6c b9 05 3d 2e 71 96 38
       0.00027806277 6.756179e-05 0.032647535 7.173639e-05
000030 c9 67 46 3b ef c1 4d 3a 0a 61 75 39 54 45 09 3c
       0.0030274263 0.0007849028 0.0002340117 0.0083783455
000040 5a 8d cf 38 26 5c 5a 3b 21 d1 96 3a 63 be 12 3a
       9.896858e-05 0.0033319085 0.0011506417 0.0005597828
000050 5b f0 17 3a 36 b7 b6 39 14 c2 5b 3b 74 1a 83 3a
       0.00057960086 0.00034850248 0.0033532428 0.001000239
000060 e6 07 f8 3a c6 77 fe 38 39 95 06 39 13 08 c0 3a
       0.0018923252 0.00012133973 0.00012834826 0.0014650844
000070 f4 b3 14 3c f0 5f 55 3c 37 bb a9 39 bc 2e bd 3b
       0.009076107 0.013023362 0.00032373678 0.0057733934

bias f4 [32]
000000 c1 35 95 3c f8 1c 74 3e 2b fd 0a be 5e 10 0e be
       0.018214108 0.23839176 -0.13573138 -0.13873431
000010 ec da f1 3d 3e 4b 41 3e 71 5d fb 3d fb 6b 26 be
       0.11809334 0.18876359 0.12273682 -0.16252129
000020 24 6c 1c be 95 ee 8f 3d 4d 91 80 be 34 91 3d 3d
       -0.15275627 0.07027928 -0.25110856 0.046281055
000030 3f 1d 97 3e 87 b5 29 3e 6c 13 20 3c a3 72 8d 3d
       0.295145 0.16573153 0.009770256 0.06906631
000040 76 ee 84 be ee 4e 2b 3e 35 8b 56 3e 30 76 91 bd
       -0.2596318 0.16729328 0.20951541 -0.071026206
000050 95 15 34 be 25 cc 7d be e0 2e 68 bc 28 c1 84 be
       -0.17586358 -0.24784906 -0.014171332 -0.25928617
000060 f0 6e 81 3e e7 dc 76 be fd ea 56 be 1c ec 2a bb
       0.2527995 -0.24107705 -0.20988078 -0.0026080674
000070 d9 ba e9 3e 36 c0 52 3e e0 d4 14 be 18 38 ca be
       0.45650366 0.20581135 -0.1453433 -0.3949592

weight f4 [32, 1, 3, 3]
000000 ab 89 90 be 36 20 2b be 11 28 a7 be 07 3e 70 be
       -0.28230032 -0.16711506 -0.32647756 -0.23461162
000010 ef 02 41 3e b9 44 d1 3d ed 61 08 3e 21 31 25 be
       0.18848775 0.10218186 0.13318606 -0.16132022
000020 ab 83 c4 be bd 6e 3f be a2 18 01 3e 2d 15 0a be
       -0.38381705 -0.18694587 0.12607053 -0.1348464
000030 16 ab 4c be f8 f7 bb bd 49 f6 6c bd 65 90 90 3e
       -0.19987139 -0.09178156 -0.057852063 0.28235164
000040 75 2f a9 3e 2e 16 36 3e f0 a9 88 3d 13 95 07 be
       0.3304402 0.17781898 0.06673038 -0.13240461
000050 7a b6 7c bd 83 40 1d 3e 8e af bb be 00 00 00 00
       -0.06169746 0.1535664 -0.36657375 0.0
000060 0f 05 63 3e 58 91 00 bf 99 86 ce be e4 72 44 3e
       0.22169898 -0.50221777 -0.40337065 0.19184452
000070 a7 f5 e0 3d 5c d9 90 3d 21 20 c8 be 94 ab 64 be
       0.109843545 0.07072708 -0.39087012 -0.22331077
000080 3d 68 5e 3e 00 00 00 80 00 00 00 00 69 d5 01 3d
       0.21719451 -0.0 0.0 0.031697664
000090 14 d5 be 3e 8c fe 3c be ba dd 32 3e 36 77 84 3e
       0.3727194 -0.18456477 0.17467394 0.258722
0000a0 df 23 a6 be f7 a0 f6 3c 82 19 4b be 0e 43 5b be
       -0.32449242 0.03010605 -0.19833949 -0.21412298
0000b0 65 dc 80 3d 6b bb aa bd 03 f2 b1 3e d0 07 64 be
       0.06292037 -0.083365284 0.34754953 -0.22268605
0000c0 43 70 dc 3d 3a 0b a1 bd 4c 9e 8a 3e c2 bd 89 3e
       0.107636 -0.078634694 0.27073896 0.26902586
0000d0 25 8e 8d be 0c ce b6 be fe f8 06 3e ef 8c 43 be
       -0.2764751 -0.35704076 0.1318092 -0.1909673
0000e0 3c 56 3c 3e 19 de 9f be 98 74 a7 be d4 86 5b be
       0.18392271 -0.31224135 -0.3270614 -0.21438152
0000f0 fc 7a 3f 3e 9e da 63 be 2a b8 61 bd 43 22 92 3e
       0.18699259 -0.22251365 -0.055107273 0.28541765
000100 6d e2 36 be 20 35 9d 3e 6a 40 d5 bd c7 29 a1 3e
       -0.17859812 0.30704594 -0.10412677 0.31477186
000110 ce 2e 24 be 0c e6 7b be ad 24 7d 3d 98 e9 91 be
       -0.1603348 -0.24599475 0.061802555 -0.2849853
000120 2f 9d 66 3e 89 48 9a bd 44 dc b7 be 0b ea 0f be
       0.22520898 -0.07533366 -0.35910237 -0.14054124
000130 ac dd 14 3e 3f 91 22 3e ab b3 90 be b6 bf 8c 3e
       0.14537686 0.1587572 -0.28262076 0.27490014
000140 11 cb f5 3d 89 37 95 3e 74 f4 6d be 5f 3c 86 be
       0.120016225 0.29143932 -0.23237783 -0.26217934
000150 d0 d6 7f be c6 b4 28 3e 25 e2 7f 3e 45 aa b7 be
       -0.24984288 0.1647521 0.24988611 -0.35872093
000160 24 32 de bd b8 a0 7f be 64 8d 84 bd fd c1 61 3e
       -0.10849407 -0.24963653 -0.064722806 0.22046657
000170 21 72 bf 3d e4 ab 79 3d 4e 51 76 3e 00 00 00 00
       0.0934794 0.060954943 0.24054453 0.0
000180 a7 fa 83 3e 53 0e 9f 3e d6 36 43 be 00 00 00 00
       0.2577717 0.31065616 -0.19063887 0.0
000190 b6 0b 7e be e1 88 91 be cf b9 20 be 83 85 32 be
       -0.24809155 -0.28424743 -0.1569588 -0.17433743
0001a0 ba 7b ca bd f3 17 5e be 56 a4 29 3e ce f8 77 3e
       -0.0988688 -0.21688823 0.16566595 0.24216005
0001b0 02 b4 68 3e 12 d5 d2 bc e0 bf 59 be 09 71 1c bd
       0.22724918 -0.025736365 -0.21264601 -0.038193736
0001c0 df 15 45 bd ef ac 5d be 0d d2 82 3e 14 7d 74 bd
       -0.04811656 -0.21648 0.2555088 -0.059689596
0001d0 00 00 00 00 5b 71 5c 3e a5 f4 c1 3e 63 6c 8f 3e
       0.0 0.21527617 0.3788196 0.2801238
0001e0 e7 2e 31 3e 00 00 00 80 39 c8 9f 3e c2 bb 5a 3e
       0.17303048 -0.0 0.31207445 0.21360686
0001f0 11 37 fb 3d 14 a4 45 be 00 00 00 80 8a be fb 3c
       0.122663625 -0.19300872 -0.0 0.030730505
000200 cd 69 04 be 35 76 de 3e 00 00 00 80 00 00 00 00
       -0.12930985 0.4344956 -0.0 0.0
000210 97 0b 01 3f ce 28 7d 3d e8 2b 5b 3e fb df c6 3d
       0.5040831 0.061806493 0.21403468 0.0971069
000220 92 b5 66 be a9 d5 a5 be 50 f8 90 3e d4 64 4f 3e
       -0.22530201 -0.32389572 0.28314447 0.20253307
000230 e5 85 06 be bf bc f2 3d 90 2b af 3e 98 4b b8 be
       -0.13137014 0.11852407 0.34212923 -0.35995173
000240 53 4e 69 be 61 bd c8 bd 75 ea 17 3e ae 27 91 3e
       -0.22783785 -0.09801746 0.14835532 0.28350586
000250 f9 69 c1 bd fc 77 9c be 3a 94 98 3e 9f 02 73 3e
       -0.09444041 -0.3056029 0.29800588 0.23731469
000260 c0 f5 71 3e 4e 0a b4 3e a9 16 8c be c9 e8 ac bd
       0.23628902 0.35164112 -0.27361038 -0.08442838
000270 48 31 a8 3e 73 b8 db bd e6 8f c6 3d 00 00 00 00
       0.328501 -0.1072854 0.09695415 0.0
000280 f7 a2 02 3e 95 ee 04 3e 3b de 93 3e 98 70 9c 3e
       0.12757479 0.12981637 0.28880486 0.30554652
000290 00 00 00 80 86 bf 95 be e8 36 71 be 0d 26 4e 3e
       -0.0 -0.29247683 -0.23556101 0.20131703
0002a0 8e 8e 04 bd d6 57 b6 bd 0c de cb be 0f 32 d3 bd
       -0.032362513 -0.08903472 -0.39817846 -0.10312282
0002b0 12 d3 83 be 1a dc e1 bd c7 f3 65 be dd a1 95 be
       -0.2574697 -0.11028309 -0.22456275 -0.29225054
0002c0 66 54 9b 3d ab b7 33 be aa 72 73 bd 1c e3 8a 3e
       0.07584457 -0.17550533 -0.059435524 0.27126396
0002d0 ce 19 f3 bd 3a 4d bc 3e c0 4a 06 be 43 46 66 be
       -0.11870156 0.3677767 -0.13114452 -0.2248774
0002e0 41 5d 65 bd 1c e5 19 3d 6f 99 f5 bd d3 bb 44 be
       -0.055997137 0.03757201 -0.11992156 -0.19212274
0002f0 6c 08 da 3e bc c3 a7 be fa d4 17 bd f8 bb a0 be
       0.4258455 -0.3276652 -0.037068345 -0.3139341
000300 ea a8 af 3e fa 71 ff 3d 2b 24 37 bd bc a3 43 3e
       0.3430856 0.12472911 -0.044712227 0.19105428
000310 9f 74 fd 3e f0 a3 a9 be 8a a0 80 3d 36 a0 9a 3d
       0.49503037 -0.33132887 0.062806204 0.07550089
000320 91 2e 02 be b4 46 53 be ea cd 29 bd 00 00 00 80
       -0.12713076 -0.2063244 -0.04145614 -0.0
000330 84 e9 42 3e 08 bd f8 bd c3 77 5c be f5 88 dc 3d
       0.19034392 -0.1214543 -0.2153006 0.1076831
000340 08 6e 5e be f0 b6 46 bd cb fe 3d 3e 58 1e b6 be
       -0.21721661 -0.048514307 0.18554227 -0.35570025
000350 29 5c 34 3e 1c 72 32 3e 3b a6 c1 be bc 15 e5 3d
       0.17613281 0.17426342 -0.37822136 0.11185786
000360 15 85 9f 3e 70 5e e1 3d 7c 13 bb bd e8 e1 54 3e
       0.3115622 0.11004341 -0.09134576 0.20789301
000370 98 cf 44 bd d0 a6 ad bd 00 02 88 be a8 7c eb bd
       -0.04804954 -0.084790826 -0.26564026 -0.11498386
000380 6e 09 a0 bd 03 e7 69 3e 4c c5 2f bd 51 f7 1a 3e
       -0.078142986 0.2284203 -0.042912766 0.15133406
000390 be f8 53 3e 5d e0 5c be d5 d9 5b 3e 56 a8 20 3e
       0.20700356 -0.21569963 0.21469815 0.15689215
0003a0 41 4b 8a 3e e0 ec ca be ae 36 1d 3e c1 24 ae 3c
       0.2701054 -0.39633846 0.1535289 0.02125776
0003b0 c0 62 32 be 1e 25 69 3d 10 3f f8 3c bd 37 a9 3e
       -0.17420483 0.056920163 0.030303508 0.33050337
0003c0 28 3c 03 3e 52 21 ad bd 37 92 81 3d 14 fc 68 3e
       0.12815917 -0.08453621 0.063267164 0.2275241
0003d0 c2 f1 c8 be 54 29 03 be 8c ee b3 be d3 45 30 be
       -0.39246947 -0.12808734 -0.35142934 -0.17214136
0003e0 90 9f ec bd 1e 3f 66 be 52 96 18 be a5 65 61 be
       -0.11553872 -0.22485015 -0.14901093 -0.2201143
0003f0 9d 26 87 3e 27 30 75 bd 00 00 00 00 e7 a4 a1 3e
       0.26396647 -0.059860375 0.0 0.31571123

bias f4 [64]
000000 72 72 c2 3d 7d 31 2e 3e 30 af 0c 3e df aa bb bc
       0.09494485 0.17011066 0.13738704 -0.022908626
000010 2c 80 3c be 37 9c 9a bd 09 f2 1e be 0c 87 9b be
       -0.18408269 -0.07549327 -0.15522017 -0.3037647
000020 1f c1 b4 bb 0c 00 94 3d 97 86 90 bc bb e6 46 3d
       -0.005516186 0.072265714 -0.017642302 0.048559885
000030 65 6e fc bd 24 10 28 3e b4 b4 35 be 55 d9 30 be
       -0.123257436 0.16412407 -0.17744714 -0.17270406
000040 d6 23 14 3e 64 ee 2e 3c dd c4 7d 3e 94 01 d4 3c
       0.14466795 0.010676954 0.24782129 0.025879659
000050 74 5a 92 3d c5 47 78 3d 52 4f 3c 3d 6a cf 2b 3d
       0.07146159 0.06061532 0.045974083 0.041945852
000060 2d 4c 08 be 0b 62 e4 bd d2 16 97 3d 29 26 9b bc
       -0.13310309 -0.11151513 0.073773995 -0.018939095
000070 3f a3 91 bd bc 04 26 be 80 f3 b9 3c 00 3a 56 be
       -0.07111215 -0.16212744 0.022699118 -0.20920563
000080 2d f7 11 be 8b eb aa 3c 28 42 be bc e8 af 07 3e
       -0.14254446 0.020864269 -0.023224905 0.13250697
000090 73 e7 82 bd ae 19 29 bd 81 33 af 3c 4c dc 95 bd
       -0.06391802 -0.041284256 0.021386864 -0.07317409
0000a0 52 bf 3a 3e e1 1f 1f 3e 30 32 64 bc 0a 90 04 be
       0.18237045 0.15539505 -0.013927981 -0.12945572
0000b0 2c 08 62 3d 0f 20 8d bd c3 41 6d 3e a8 a3 2b 3e
       0.055183575 -0.0689088 0.23169617 0.16761649
0000c0 d9 8b ce bc 29 7e d5 3d 75 33 03 be a4 41 7c 3d
       -0.025213169 0.10424454 -0.12812598 0.061586037
0000d0 78 be b3 be f0 42 57 3e b0 91 11 be 6a c2 a3 3c
       -0.35106254 0.21021628 -0.14215732 0.019990165
0000e0 3c 1c 03 3b a4 f1 6b be b8 91 02 3e 89 84 94 3e
       0.0020005843 -0.23041397 0.127509 0.29007366
0000f0 b7 d8 40 be 66 00 31 bd 17 d2 03 be 90 3d e8 3d
       -0.1883267 -0.04321327 -0.12873112 0.11339867

weight f4 [64, 32, 1, 1]
000000 bf 00 67 be e2 22 e2 bd 00 00 00 80 61 37 7c bd
       -0.22558878 -0.110418096 -0.0 -0.06157625
000010 49 30 88 bd a2 42 c3 bd ce 82 d1 3e 22 f4 c3 bc
       -0.06649835 -0.095341936 0.4092011 -0.023920123
000020 e5 ff 2d be 40 ae 9a 3d ae 21 8e 3d 9e ce 91 3d
       -0.16992147 0.07552767 0.06940018 0.07119487
000030 d6 85 86 3d 0f 97 95 3d 00 00 00 80 8c dc 93 3d
       0.06568496 0.07304203 -0.0 0.072198
000040 f0 ae a5 be 00 00 00 00 00 00 00 00 c4 ca ef 3d
       -0.3236003 0.0 0.0 0.11708596
000050 36 8e 77 3e 78 33 cf bc 60 e3 c8 3d 73 fa 14 bd
       0.24175343 -0.025293097 0.09808993 -0.03637166
000060 00 00 00 00 9c 04 8a be d3 33 7e 3e 7f 51 e9 3d
       0.0 -0.26956642 0.24824457 0.11392497
000070 d8 bb fe 3d 56 8b a6 bc 3b de 32 be e7 f2 34 3e
       0.12438172 -0.020330112 -0.17467587 0.17670785
000080 a9 5d d9 bc 46 7b 3a bd 00 00 00 80 ea f2 29 be
       -0.026533918 -0.04552772 -0.0 -0.1659657
000090 54 62 b9 bc a1 b2 77 3e 8b be 58 3d e4 c2 8f bd
       -0.022629894 0.24189235 0.05291609 -0.07019594
0000a0 f5 16 03 3e 33 5b f3 3c 43 ff 16 3e 62 66 4d 3e
       0.12801726 0.029706573 0.14745812 0.20058587
0000b0 3e 6b 2f 3e de dc b4 3c ce 19 d0 3d 4d c5 e1 3e
       0.17130753 0.022077974 0.10161172 0.4409584
0000c0 3b ba af 3d 57 ef 0d be 84 7a f6 bd 30 1d 60 bd
       0.085804425 -0.13860832 -0.12035087 -0.054715335
0000d0 8f 60 2a be 7f b1 01 3e 3b 46 80 be 7a be 0a bf
       -0.16638397 0.12665366 -0.25053582 -0.54196894
0000e0 aa 09 3b 3e 05 43 83 bd 00 00 00 80 e8 57 1f 3d
       0.18265405 -0.06409267 -0.0 0.038902193
0000f0 6b 21 cf 3d 68 ac ff bc 67 46 81 3e 00 00 00 00
       0.10113796 -0.03121014 0.25249025 0.0
000100 d7 39 50 be 22 e5 91 3e 8f 0c 27 be ca 17 6f 3e
       -0.20334564 0.28495127 -0.16313384 0.23348919
000110 00 00 00 80 6d f7 64 be 85 37 b2 3d 3a bf d9 bd
       -0.0 -0.2236001 0.08701996 -0.10632177
000120 54 66 58 3e 88 82 39 3e fb 89 82 bd 50 d8 e9 bd
       0.21132785 0.181162 -0.06373974 -0.114182115
000130 eb cf b5 bc 97 ab 33 3e 04 78 87 bd a9 3a 54 bd
       -0.02219387 0.17545925 -0.06614688 -0.051813755
000140 cb 0f 97 3d 00 00 00 00 70 c3 ce 3d 58 c6 1d 3e
       0.07376059 0.0 0.100958705 0.15407693
000150 3e a3 85 3e 9c 83 b1 bd 2e 0e 8b bd 38 fb c3 bd
       0.26101106 -0.086676806 -0.06789814 -0.095694005
000160 1e 93 3b be f9 a9 4e be 94 fe 1e be 00 00 00 80
       -0.1831784 -0.20182027 -0.15526801 -0.0
000170 00 00 00 80 ea e3 1c 3d 90 f1 f3 3d 4b 2e ed be
       -0.0 0.038303293 0.11911309 -0.4632438
000180 e7 67 55 bd 18 f7 22 3e d4 63 80 3e 16 97 90 3d
       -0.052101042 0.15914571 0.25076163 0.07060067
000190 73 f4 a4 be 9f 08 20 be af 05 88 3d 59 90 68 be
       -0.3221775 -0.15628289 0.06641709 -0.22711314
0001a0 00 00 00 00 9f d8 96 3e 3f 3f a8 3d 88 95 0e be
       0.0 0.29462144 0.08215188 -0.13924229
0001b0 3f d7 c7 bd 04 62 ac 3d a3 68 5e bd bb c5 03 3e
       -0.09757852 0.084171325 -0.054299008 0.12868397
0001c0 00 00 00 80 00 00 00 00 1d 3f 7c be 62 d2 ea bd
       -0.0 0.0 -0.24633451 -0.114659086
0001d0 a9 2e 3d bd 07 14 05 bf 81 b9 e7 3d 6b a4 cc 3d
       -0.046187077 -0.51983684 0.11314679 0.09992298
0001e0 23 3b 9d be fd d2 eb bd 8d bd 37 3d f2 fd 83 3e
       -0.3070918 -0.11514852 0.044858504 0.25779682
0001f0 5f bd cf 3d 03 d6 02 be 50 71 33 bd d6 8c 32 be
       0.101435415 -0.12776951 -0.043809235 -0.17436537
000200 e0 55 02 3d 36 d5 d7 bd 04 f6 94 3e e3 dd fd 3d
       0.031820178 -0.10538714 0.29093945 0.12395837
000210 ff 22 b0 bd 06 62 a9 bd 0a a5 52 3d 5a 1f f0 bd
       -0.08600425 -0.082706496 0.051426925 -0.1172473
000220 46 a0 a9 bc 8f 47 0c 3d 7d d1 b2 bd 24 e6 6f 3e
       -0.020706307 0.03424793 -0.08731363 0.23427635
000230 34 e3 14 be 48 da 05 be f6 0f ac bc 63 88 82 3d
       -0.14539796 -0.13071549 -0.021003705 0.0637367
000240 12 bf 32 bd 77 42 4a be e9 ad 57 bd b6 ce 48 3e
       -0.04363925 -0.19751917 -0.052656088 0.19610104
000250 00 00 00 00 30 cf 06 3e d4 68 e8 bd 5a b2 20 3e
       0.0 0.13164973 -0.113481194 0.15693036
000260 00 00 00 80 00 00 00 00 b3 23 7f be 2c 54 58 bd
       -0.0 0.0 -0.24915962 -0.052814648
000270 44 f0 2e be 84 a1 85 3d 00 00 00 00 ed ef f5 3c
       -0.17083842 0.06524947 0.0 0.030021632
000280 13 d1 5b 3e df f3 60 be 5f 18 21 3d 00 00 00 00
       0.21466474 -0.2196803 0.039329883 0.0
000290 59 5d 28 3e 33 39 04 3d 15 fb 34 3d 78 48 4a 3e
       0.1644186 0.032281112 0.044184763 0.19754207
0002a0 2d b5 94 be 56 6a 4f bd 84 f7 92 be 8a 47 99 bd
       -0.29044476 -0.05063852 -0.28704464 -0.07484348
0002b0 71 ed 13 3e 00 00 00 80 a4 f3 f8 3d 05 a6 b0 bd
       0.14446045 -0.0 0.12155846 -0.08625416
0002c0 5f 1b f9 bd 06 34 47 be e7 75 34 3e b1 92 24 3e
       -0.12163424 -0.19453439 0.17623101 0.16071583
0002d0 70 2f 0b be 33 ad 0e be f8 0f 35 3e 2b df 81 3e
       -0.13592315 -0.13933258 0.17681873 0.25365576
0002e0 fc fb c4 3d c6 31 04 3e c8 01 83 3e 61 62 c1 3c
       0.09618375 0.12909612 0.25587296 0.023606481
0002f0 6d a8 d1 bd 6f ea 2d 3e 4a 84 4e be 83 af 8b be
       -0.10237203 0.1698396 -0.20167652 -0.27282342
000300 ff f7 9d 3e 6c 55 45 3d f7 7d 16 3e 2a 30 c8 3d
       0.30853269 0.048177168 0.1469649 0.097748116
000310 00 00 00 80 5d fc 1b bd 3f 1c 69 3d 45 e1 20 be
       -0.0 -0.03808247 0.056911703 -0.15710934
000320 7f 20 c3 bc ac e9 6d 3d 1e fd bf bd 8b fd b9 bc
       -0.023819206 0.058084175 -0.0937445 -0.022703907
000330 81 2c e3 bc 30 23 18 3e b5 f3 8d 3d 00 00 00 00
       -0.027731182 0.14857173 0.06931249 0.0
000340 b7 f1 66 bd eb 57 99 be 92 08 5c be 09 8b fa 3d
       -0.05638286 -0.2994989 -0.21487644 0.1223355
000350 48 6c 90 3d e2 69 d8 be 21 ed cd 3d 04 3c 62 3e
       0.07051903 -0.42268282 0.100549944 0.22093207
000360 6b b4 8e be 00 00 00 80 73 3a 0c be a2 76 0e 3e
       -0.27872023 -0.0 -0.13694172 0.13912442
000370 b8 2b 9c be 81 b5 cc bd 78 86 23 3e 00 00 00 80
       -0.30502105 -0.099955566 0.15969265 -0.0
000380 b6 f4 87 3d 55 17 06 bd 4e 50 75 3d ab 0a b6 bc
       0.06638472 -0.032737095 0.059891038 -0.022221884
000390 8a f7 a5 3e 45 fa 1b 3e 00 00 00 80 ca 0b 88 be
       0.3241542 0.15232189 -0.0 -0.26571494
0003a0 d5 04 50 bd 21 7c 84 3d 30 5e 0e 3e a9 17 30 3e
       -0.05078586 0.06468988 0.13903117 0.17196526
0003b0 ee b8 07 be b5 07 7a be 28 03 35 bd 43 b1 7e be
       -0.13254139 -0.24417002 -0.044192463 -0.24872307
0003c0 d7 74 b7 be 56 a8 78 3d 00 00 00 00 85 4f 45 3e
       -0.3583133 0.060707413 0.0 0.19268616
0003d0 82 8e 3a be 60 f6 02 3e c0 27 96 3d 00 24 3b 3e
       -0.18218425 0.12789297 0.073318005 0.18275452
0003e0 8a 34 12 bd 9d fd dd bd de c4 45 3e 4b f7 b3 3d
       -0.035694636 -0.108393885 0.1931338 0.08787402
0003f0 bd 58 0a 3e c1 bf 07 3e c3 83 c2 3d 37 c9 e3 bd
       0.13510413 0.13256742 0.09497788 -0.11122363

weight f4 [64]
000000 da bf 99 3f e0 fc 96 3f 31 86 82 3f 65 2d 75 3f
       1.2011673 1.1795921 1.0197202 0.9577239
000010 e9 73 75 3f ac 07 7b 3f 79 b3 6b 3f f5 22 db 3f
       0.9587999 0.9805858 0.9207073 1.7120043
000020 6f ef 7a 3f 2b 45 77 3f 38 0b 4f 3f 8d ad 7b 3f
       0.98021597 0.96589917 0.80876493 0.9831169
000030 44 38 71 3f 5f 21 a4 3f 86 cc 5a 3f 42 b4 ab 3f
       0.9422648 1.2822684 0.8546833 1.3414385
000040 e9 38 6e 3f b1 83 80 3f 89 10 57 3f ea 0c 8c 3f
       0.9305559 1.0040189 0.84009606 1.0941441
000050 a5 91 7b 3f ac be 77 3f a1 d3 91 3f aa ec ae 3f
       0.9826911 0.9677532 1.1392709 1.3665974
000060 2c 65 a2 3f 7b dc 9d 3f d6 6a 86 3f 09 25 80 3f
       1.2687125 1.233291 1.0501354 1.0011302
000070 cc 95 83 3f 02 b8 8b 3f b2 43 9f 3f df 4d ab 3f
       1.0280089 1.091553 1.2442534 1.3383139
000080 93 37 82 3f af d4 78 3f f1 3a 78 3f 73 8b 87 3f
       1.017321 0.9719953 0.9696494 1.0589432
000090 50 de 83 3f 5b 13 70 3f 97 69 77 3f f8 95 85 3f
       1.0302219 0.93779534 0.9664549 1.0436392
0000a0 3e 4f 86 3f 39 c7 5d 3f 16 58 6f 3f 4d 8e 80 3f
       1.0492933 0.86632115 0.93493783 1.0043427
0000b0 53 b3 7c 3f 72 bb 7e 3f be 93 8b 3f cc d9 82 3f
       0.9871113 0.9950477 1.0904462 1.0222716
0000c0 a5 08 94 3f 31 00 a4 3f b3 86 a1 3f 28 9d 7e 3f
       1.1565138 1.2812558 1.2619232 0.9945855
0000d0 08 9d 8d 3f cf ed a5 3f 40 0f 8f 3f 9f 17 71 3f
       1.1063547 1.2963198 1.1176529 0.9417667
0000e0 54 ce 81 3f 61 38 73 3f 13 92 9f 3f ef ab b5 3f
       1.0141091 0.950079 1.2466453 1.4193095
0000f0 e8 6c 6d 3f ea f8 67 3f b0 16 83 3f 70 12 67 3f
       0.927443 0.9061419 1.0241299 0.9026251

bias f4 [64]
000000 2a fe d5 bc cf dc 94 be 31 7c e1 3d c0 a9 06 be
       -0.026122171 -0.29074714 0.11010016 -0.13150692
000010 d9 a3 1f be 7c 04 de 3c a3 0c 32 be c1 8f 9d bd
       -0.15589847 0.027101748 -0.17387633 -0.076934345
000020 b9 29 fd 3b e1 81 23 be e0 46 17 be 41 56 1e be
       0.007725921 -0.15967514 -0.1477313 -0.15462591
000030 9f 21 2d 3e 51 68 03 3d ac c9 63 be 6c f8 ff bd
       0.16907357 0.032081906 -0.222449 -0.124985546
000040 53 f6 0c 3d a1 28 2d ba d7 3e 12 be d3 96 d5 3e
       0.0344146 -0.00066054804 -0.14281784 0.41716632
000050 97 87 73 be b5 68 03 be f7 de 90 3e 3a 95 05 3f
       -0.23782192 -0.12832911 0.2829511 0.52180827
000060 6e c3 ef 39 10 74 6f 3e 82 fb 7b 3e ad 79 05 be
       0.0004573124 0.23384118 0.24607661 -0.13034697
000070 1d 1d 93 be fe 5b 13 be 01 b3 4c 3d 44 ca 87 be
       -0.2873315 -0.14390561 0.0499754 -0.26521504
000080 b2 0d bd 3d 86 fb a0 bc e2 c2 03 be 23 49 5b be
       0.09231128 -0.019651186 -0.1286731 -0.21414618
000090 14 d1 2f be 3a d8 ac bd 35 8c ae 3c d4 87 24 3d
       -0.171696 -0.084396794 0.02130709 0.0401686
0000a0 3e 1c 04 be 93 2a df be e4 d2 89 bd 65 c2 9f bb
       -0.12901399 -0.4358717 -0.06729677 -0.0048754686
0000b0 97 03 09 3e 76 7d c7 bd f1 ad 0c be 09 d1 51 be
       0.13380276 -0.09740727 -0.13738228 -0.20489897
0000c0 64 07 13 3e b8 f7 e6 bd 6f 86 94 3e 05 e4 63 be
       0.14358288 -0.11277717 0.29008815 -0.22254951
0000d0 bf 78 ab 3c 8d 89 5c bc 1f 0f 9b 3e 53 3f bc bd
       0.0209316 -0.013460529 0.30284974 -0.09191766
0000e0 70 e0 64 bd 79 ae 18 be 6c 1e 53 be ce 47 f6 3e
       -0.055878103 -0.14910306 -0.20617074 0.48101658
0000f0 02 e1 ab bd 24 6f 7c be 50 53 5a 3d d2 11 e6 bd
       -0.08392526 -0.24651772 0.05330211 -0.11233868

running_mean f4 [64]
000000 5d dd 01 bc bc 5d 2b 3f 08 79 18 3f 92 f0 0d be
       -0.007926312 0.669399 0.5955968 -0.13861302
000010 b7 d1 9c bf 46 95 b9 be fe 3c 80 bf 5e 08 1e bf
       -1.22515 -0.362467 -1.0018613 -0.6173152
000020 0e f1 d0 3e c6 cb 01 3f 48 fc 01 3f b3 07 1d 3f
       0.4080891 0.5070156 0.50775576 0.61339873
000030 f2 af 64 3e bb 45 b8 be b4 c4 f7 be 32 82 0c bf
       0.22332743 -0.359907 -0.4839226 -0.5488616
000040 a2 43 20 be a6 55 e0 be 24 af 4d be a4 c7 14 3f
       -0.156508 -0.43815345 -0.20086342 0.5811713
000050 82 5d 13 bf e5 e4 74 bf 5a 8e a0 be 6f 87 ce be
       -0.57564557 -0.95661765 -0.31358606 -0.40337703
000060 4b e3 44 bf 1d 7c 33 bf ae f7 c0 be f9 1e ae be
       -0.7690932 -0.70111257 -0.37688965 -0.34008005
000070 38 a0 fe 3d 6e b6 1d 3e 05 df 41 bf 96 0c f9 3d
       0.12432903 0.15401623 -0.75730926 0.12160604
000080 f6 af f7 be 3c 45 5b 3e b4 65 7d 3f 1d b2 93 3e
       -0.48376435 0.2141313 0.9898331 0.28846827
000090 cb e5 0f bf d0 d5 fd 3e 46 07 e0 3e c6 1f ec be
       -0.5621001 0.49577188 0.4375555 -0.4611799
0000a0 b1 2d b3 be c3 7e 94 3e a9 56 c9 3d 18 06 33 bf
       -0.34995797 0.29002962 0.09830982 -0.69931173
0000b0 48 8b 18 bf a4 f1 a2 be cd cc 30 3e 21 8b 3f be
       -0.59587526 -0.31824982 0.17265625 -0.18705417
0000c0 78 cc 0c 3f 85 47 bf 3e 16 35 4b bf 6e ff d5 be
       0.54999495 0.37359253 -0.7937788 -0.4179644
0000d0 5b 73 53 bf 92 ec f2 be 6f 4d d1 3d 81 b4 c1 be
       -0.82597893 -0.47446114 0.102198474 -0.37833026
0000e0 56 33 d3 be 14 92 76 bf 2e 3c 72 be 38 bc 0e 3f
       -0.41250104 -0.9631665 -0.23655769 0.5575595
0000f0 56 0b 0f 3f 0c f9 01 3f 51 ed 19 bd 5f 29 8e 3f
       0.5587667 0.5077064 -0.03757984 1.1106375

running_var f4 [64]
000000 98 47 87 3e 83 33 c5 3d 76 00 4a 3d 74 4f 5a 3e
       0.2642181 0.09628966 0.049316846 0.21319371
000010 6b a3 79 3e 78 0e f0 3d 92 6b 81 3e f0 7a a5 3d
       0.24378745 0.1172151 0.25277382 0.08080089
000020 f2 5e 8c 3e 4d f6 d0 3e 1e 44 ee 3d 93 0b 1c 3e
       0.27416188 0.40812913 0.11634086 0.1523879
000030 ca 73 0e 3e 0f ad 6e 3e a1 8e 35 3e a5 67 a7 3d
       0.13911358 0.23308204 0.1773019 0.081740655
000040 10 d4 ee 3d 33 c2 1a 3d 14 66 90 3e 2e 6c 22 3e
       0.116615415 0.03778286 0.2820288 0.1586158
000050 b3 d9 2b 3e ff 26 8a 3e e6 73 a0 3d 3a 7f 0d 3e
       0.16782264 0.26982877 0.07834606 0.13818064
000060 5c e5 cb 3d 58 73 97 3d ca 4d aa 3d 0e 48 06 3e
       0.09955856 0.07395047 0.08315618 0.13113424
000070 59 1c e7 3d ec 52 41 3e 25 08 6a 3e d8 35 2c 3e
       0.11284704 0.18879288 0.2285467 0.16817415
000080 11 9d 14 3e 69 a3 4a 3d 7c 8e 22 3f 07 8a 83 3d
       0.14513041 0.049472246 0.63498664 0.06422811
000090 a9 3e 9b 3d 86 68 0b 3e 00 56 60 3d c2 e3 d3 3d
       0.07580311 0.13614091 0.054769516 0.10346176
0000a0 0e bc 56 3e 71 23 2c 3e 43 69 4c 3e 36 0e b7 3d
       0.20970175 0.16810395 0.19962029 0.089382574
0000b0 16 b0 32 3e f8 be b9 3d 32 be bc 3d f8 85 48 3e
       0.17449984 0.090696275 0.092159644 0.19582355
0000c0 8a ac ac 3d 5f 7b 52 3e 67 fc 10 3e 0e 60 29 3e
       0.08431347 0.20554875 0.14158784 0.16540548
0000d0 76 9e 0c 3e 85 e3 1a 3e 72 bd 6f 3d 96 4d 3f 3e
       0.13732323 0.15125854 0.05853028 0.1868194
0000e0 ba 7c 15 3e 72 07 5b 3e 87 e9 23 3e 2b c0 f4 3d
       0.1459836 0.21389559 0.16007052 0.11950716
0000f0 aa 28 02 3f e8 cc fc 3d ee 11 79 3d 49 55 b6 3e
       0.508433 0.1234377 0.060808115 0.35611942

bias f4 [64]
000000 5f 29 52 3b 38 62 85 3d 9e dd d7 3c 8b b5 11 be
       0.0032068116 0.06512874 0.026350792 -0.1422941
000010 14 8b 67 3e cc 41 c5 be d6 f3 87 bd ec b2 95 3b
       0.22611648 -0.38526762 -0.06638305 0.0045684483
000020 0e 1d 80 be 05 b9 18 be b2 07 3b bd 25 01 ea bd
       -0.25022167 -0.1491433 -0.045661636 -0.114259996
000030 4d 74 b2 bd ef 43 40 3e ff 58 20 3e 6b 0d 51 bd
       -0.08713589 0.18775915 0.1565895 -0.051038187
000040 e3 8f 23 3e ae 0d 87 be e4 c2 94 3c e0 b6 54 be
       0.15972857 -0.26377624 0.018159337 -0.20772886
000050 e9 61 85 3e dc 6c d4 3e 3d 69 bd 3e f4 87 39 3c
       0.26051262 0.41489303 0.36994353 0.011323918
000060 10 ce 59 3d 5d 30 f2 3d 61 09 92 be 3c cc b7 be
       0.053175032 0.11825631 -0.2852278 -0.35898006
000070 21 4d 13 bc ad f4 a6 bd 5b 0f 03 3d ab b9 4e bd
       -0.008990557 -0.08152137 0.031997066 -0.050470036
000080 60 6b 3c be 7f b3 c6 3d cd 14 98 3e 3d 02 56 be
       -0.18400335 0.09702205 0.2970337 -0.20899291
000090 20 1e ae bd 75 2f 2a be bf 44 c6 bd 7f c0 6f 3e
       -0.0850184 -0.16619666 -0.09681081 0.23413275
0000a0 6a 80 e9 bd 4c 5e c5 bd 0a 4f 71 be ef 2c df bd
       -0.11401446 -0.09637126 -0.23565307 -0.10897242
0000b0 e8 60 38 be 5a 1e 5c 3e be ed 8b 3e ac 66 7b be
       -0.18005717 0.21495953 0.2732982 -0.24550885
0000c0 57 f4 7a bd 10 d3 67 3d 90 18 9f 3d 6f 85 11 3e
       -0.061268177 0.05659777 0.07768357 0.14211057
0000d0 6f a5 ef bc f2 e1 be 3e 92 b9 94 be b9 2a 10 be
       -0.02925369 0.37281758 -0.2904783 -0.14078797
0000e0 54 e1 d8 bd 9e 47 b8 be 7f 19 52 3e 32 1e ba bc
       -0.10589853 -0.3599214 0.20517538 -0.022719476
0000f0 9d 13 9b 3e ff 47 08 be 32 8a 2e 3e d6 a1 ef 3b
       0.302884 -0.13308714 0.17044905 0.0073129935

weight f4 [64, 1, 3, 3]
000000 05 fa 18 3e 53 f0 c3 3e d9 c3 4e be 28 75 1b 3e
       0.14939125 0.3826929 -0.20191897 0.1518141
000010 ce 75 8e 3e a5 4a 85 3e 5b 63 58 be 39 bd 3a be
       0.27824253 0.26033512 -0.21131651 -0.18236245
000020 00 00 00 80 92 5a 2b be f2 b7 18 bd 92 18 e2 3e
       -0.0 -0.16733769 -0.0372848 0.4415937
000030 5c 1d 95 be de 9a c8 bd 5c 77 4e bd f4 86 87 3e
       -0.29123962 -0.097951636 -0.0504068 0.2647015
000040 0d 29 b0 be 11 14 75 3e 63 07 60 be e2 8b 4a be
       -0.3440632 0.23933436 -0.21877818 -0.19779924
000050 35 7b 39 3d 35 00 45 3d cd 72 9b 3e c0 ee 84 3e
       0.045283515 0.0480959 0.30361024 0.25963402
000060 be 5b fd bd ed a6 1b be df d0 07 3d 92 01 6c 3d
       -0.12371014 -0.15200396 0.03315818 0.057618685
000070 f0 f8 9e be 12 11 42 3e 9c d6 65 3e 3f ad e4 3d
       -0.310493 0.18951824 0.22445148 0.111658566
000080 b9 43 99 3e 37 86 17 3e 54 55 2e 3e f3 88 4e 3e
       0.2993448 0.14797293 0.17024738 0.2016943
000090 e3 8d 51 3e f6 b5 9c be 31 42 a1 3d dd ad a6 bd
       0.20464282 -0.30607575 0.07873953 -0.081386305
0000a0 c1 2d b0 3e 21 e4 81 3d e5 34 95 3e e1 bd 32 3e
       0.34409907 0.0634234 0.29141918 0.17455246
0000b0 a2 ef 99 bd 8d 1e 8d 3e 3c 18 92 3e 63 4d 6b 3e
       -0.075164095 0.2756237 0.28534114 0.2297874
0000c0 13 33 9c 3e a9 bb 6e 3e f8 d9 25 be 84 47 cc bd
       0.30507717 0.23313774 -0.1619643 -0.09974578
0000d0 66 55 2c 3e 27 b2 c3 be 18 82 01 be 57 8b 98 be
       0.16829452 -0.38221857 -0.12647283 -0.29793808
0000e0 89 94 8e be 00 00 00 80 e6 95 3e 3e e8 83 b8 3d
       -0.27847698 -0.0 0.18611869 0.09009534
0000f0 69 66 22 be d2 5f 32 be 8a 6e 2f 3e 0c 91 4a be
       -0.15859379 -0.17419365 0.17132011 -0.19781893
000100 00 00 00 80 00 00 00 00 fd b1 a5 be 3f b2 2f 3e
       -0.0 0.0 -0.32362357 0.17157839
000110 f4 7e cc 3e 6d d1 d5 bd db 24 78 be df b6 bb 3e
       0.39940608 -0.104403354 -0.24232809 0.36662957
000120 a6 26 8f be 1b 3b 4b 3e 10 93 9f be 0b a7 22 be
       -0.27959174 0.19846766 -0.31166887 -0.15884034
000130 53 2f a0 be 5f 62 70 bd a1 34 a0 be a3 ef 53 bd
       -0.31286106 -0.058687564 -0.31290153 -0.051742207
000140 9f f7 c4 3d 98 49 31 3e 4b 68 b8 3e d7 cd 09 3e
       0.096175425 0.1731323 0.3601707 0.13457428
000150 b5 90 96 be 87 4b 3c 3d d9 8f a4 3e 5e 8e 47 be
       -0.29407278 0.045970466 0.32140997 -0.19487903
000160 2a eb e7 bd dd 20 55 3d 94 94 94 be ae 56 32 3e
       -0.11324151 0.052033294 -0.29019606 0.17415878
000170 cf e9 05 be a7 9c 69 bd 5e 79 92 be 7f b7 8f 3e
       -0.13077472 -0.05703416 -0.2860822 0.28069684
000180 46 56 3d 3e aa 4e b5 3d db 83 88 3e 02 e2 c0 be
       0.18489942 0.088528946 0.26663098 -0.3767243
000190 8a 9d 12 3d 00 00 00 80 bc 14 92 be 00 00 00 80
       0.035794772 -0.0 -0.28531444 -0.0
0001a0 29 fa 29 3d 25 56 24 3e 00 00 00 00 97 fe 0c 3e
       0.041498337 0.16048487 0.0 0.13768993
0001b0 50 ea 8b 3d b0 ed 14 3e 16 7c 63 be b3 03 22 be
       0.06831801 0.14543796 -0.22215304 -0.15821724
0001c0 30 be 37 3d ab fb 9c 3e f0 5a 10 3e f8 dc 46 3e
       0.04485911 0.30660757 0.1409719 0.1942023
0001d0 8c 16 73 3e 14 0d ce be 00 00 00 00 39 7d 90 be
       0.2373907 -0.40244353 0.0 -0.28220537
0001e0 09 f7 5e be e7 17 7c 3e fa 62 81 3e 21 7e 86 bd
       -0.21773924 0.24618493 0.25270826 -0.06567026
0001f0 a6 6d 6f 3e 32 ee 22 3e b1 e8 ba 3d 31 7e 40 3e
       0.23381671 0.15911177 0.091264136 0.18798138
000200 00 00 00 80 fb e1 6c 3e 00 00 00 00 6b cc 5f bd
       -0.0 0.2313308 0.0 -0.054638308
000210 a0 44 24 3e 6b e0 4e be 70 73 b1 bd 53 f2 3e 3e
       0.16041803 -0.20202796 -0.08664596 0.18647127
000220 b5 5c c3 3e 30 f7 cd 3d a4 85 6c bd 97 64 87 be
       0.38156667 0.10056913 -0.057744637 -0.2644393
000230 26 05 8a be f6 f9 6d 3e 68 36 af be 52 bb 3b 3e
       -0.26957053 0.23239884 -0.34221196 0.18333176
000240 79 b0 a5 be e6 52 72 be e7 2d 19 3d fc ba 63 3e
       -0.323612 -0.23664436 0.03739729 0.22239298
000250 34 25 85 be 2c 90 b2 bd de 67 98 3c 18 b1 a2 3e
       -0.26004946 -0.08718905 0.018604215 0.31775737
000260 00 00 00 00 b4 d3 10 be 00 00 00 00 28 3d a9 3e
       0.0 -0.14143258 0.0 0.3305447
000270 49 96 01 3e d5 0e cc 3d 5b 0f 52 3e 07 26 79 be
       0.12654985 0.099637665 0.2051367 -0.24330913
000280 5d db 37 be bd 57 6f bd 20 c8 62 3e 0a 8c 4c bd
       -0.17954774 -0.058433283 0.22146654 -0.04993824
000290 8c 85 40 be 21 d7 01 bd 56 01 d9 bc 9e e6 e4 3d
       -0.18800944 -0.031699304 -0.026489895 0.11176799
0002a0 ed 5c 5c 3e db 15 4a 3e da f7 b3 be d0 1e 0a 3e
       0.21519823 0.197349 -0.35150033 0.13488317
0002b0 1b a9 c2 3e 4e 65 c7 bd dd c0 ae 3d f9 cf 9c 3c
       0.38019642 -0.09736119 0.085328795 0.019142138
0002c0 60 ad d7 be 00 00 00 00 55 06 96 3e 66 8b 92 be
       -0.42124462 0.0 0.29301706 -0.28621978
0002d0 b8 c4 ba bd da 19 92 3e b3 2e 7d 3e 80 43 44 be
       -0.091195524 0.28535348 0.24724846 -0.19166374
0002e0 25 eb 99 3e 06 12 4f 3e e3 55 f0 3d b3 ce f2 3d
       0.30062214 0.20221719 0.117351316 0.11855831
0002f0 ca a2 da 3d 74 fa 1a 3d 98 a5 b0 3d fb 9e b8 3c
       0.10675581 0.037836507 0.086253345 0.022536745
000300 9c 9e a6 bd c7 5a ae be 8b ea 00 bd a9 9d b3 be
       -0.08135721 -0.34053633 -0.031473678 -0.35081223
000310 e8 ee 8a bd bb 00 ec 3d 52 65 ed 3d 90 56 a4 3d
       -0.06783849 0.11523577 0.11591591 0.08024323
000320 f8 a4 86 3d 63 12 3c bd 92 cd dc be 5d 4c d1 bd
       0.06574434 -0.045915972 -0.43125588 -0.10219643
000330 e5 1f 8d 3e f6 0e 52 be a4 64 d0 bd 78 06 0a 3f
       0.27563396 -0.2051352 -0.10175446 0.5391612
000340 fc 62 ba 3e a7 51 47 be 78 c1 a8 3e af 88 bd be
       0.36403644 -0.19464742 0.32960105 -0.37018344
000350 f5 fb 65 be da 5b b5 3d 05 83 8f be 88 45 a5 be
       -0.22459395 0.0885541 -0.28029647 -0.3227961
000360 4d 65 10 be 38 ca d9 3e 5c e4 a4 3e 92 77 29 be
       -0.14101143 0.42537093 0.32205474 -0.16549519
000370 00 00 00 80 39 e4 30 3d 95 63 ed bc ca f8 e3 be
       -0.0 0.0431864 -0.028978148 -0.44525748
000380 cb 5c 76 be 69 3d 2a 3e b0 46 98 3e ff 03 08 be
       -0.24058835 0.16624989 0.2974143 -0.13282774
000390 b2 ba 30 be db cb 46 3d 71 2d dd 3e c2 d4 a4 be
       -0.17258719 0.048534255 0.43198732 -0.3219357
0003a0 79 6e 97 be a9 d7 dd 3c ad 1a d7 be 85 fa b4 be
       -0.2957647 0.027080374 -0.4201254 -0.3534738
0003b0 f7 6c 2f 3e 00 00 00 00 02 cb 41 3e 0c ef 89 3e
       0.1713141 0.0 0.18925098 0.2694019
0003c0 1a 72 77 3e 50 2f 6e bd d2 32 29 3e 8d dc b9 3d
       0.2416462 -0.05815059 0.16523293 0.0907527
0003d0 9b 76 44 3e e5 6a 8b be 45 5c 80 3e 5e 9a 83 3d
       0.1918587 -0.27229992 0.25070396 0.064259276
0003e0 55 20 91 3e c0 b3 2c 3e 77 d2 a7 3e 8b d5 a8 bd
       0.2834498 0.16865444 0.3277776 -0.08243855
0003f0 b8 f9 56 3e 49 44 9b 3e f9 23 9e 3e de f6 43 be
       0.20993698 0.30325535 0.3088682 -0.19137141

bias f4 [128]
000000 fc fe 3c 3e 87 92 d8 3d 92 b8 82 3d b3 7e 9a bd
       0.18456644 0.10574823 0.0638286 -0.07543697
000010 33 71 9d bd d9 00 a5 be 57 06 13 bb 3f 0d ef 3d
       -0.07687607 -0.3222721 -0.0022434199 0.11672448
000020 06 a4 f3 3d bf b9 64 bd 33 b0 d7 bd 59 ca 05 3d
       0.11896519 -0.055841204 -0.10531654 0.032663677
000030 71 b6 b6 3d 85 2c dc 3b bf 82 58 3b a5 ab 4b bd
       0.08921517 0.0067191743 0.0033036915 -0.04972424
000040 52 29 4e bc 43 46 9f 3d 37 66 81 3c 2c 63 c5 3b
       -0.012583094 0.07777073 0.01579581 0.006023785
000050 78 10 4a 3c ab cf 05 be 6e 50 9a bd 01 4c a3 3c
       0.012333028 -0.130675 -0.07534872 0.019933702
000060 5d ed 1f 3e ae 72 92 bd a5 bd db bd ef 20 03 3d
       0.1561789 -0.0715078 -0.10729531 0.03201383
000070 89 10 50 3e 04 23 f1 bb de d0 18 3d 71 9d 1b 3e
       0.20318808 -0.0073589105 0.037308566 0.15196778
000080 af 0d fd bd 3e ff 0d 3e fb b8 82 3e e4 3c 02 be
       -0.123561256 0.13866898 0.25531754 -0.1271854
000090 95 41 77 be 56 7c 32 be 74 dd 26 3e 5f 60 9e 3e
       -0.24146111 -0.17430243 0.16295415 0.309329
0000a0 8e 65 1e 3e 60 16 25 3e 81 a8 cc bc 2b 86 ee 3d
       0.15468428 0.16121817 -0.024982693 0.11646684
0000b0 59 85 a6 bc 54 62 82 3d ac ce 06 be 01 e0 12 be
       -0.020327257 0.06366411 -0.13164777 -0.14343263
0000c0 38 1f 07 bc f5 0f 30 3d 2b d7 a5 3d 8e 38 d5 3c
       -0.008247189 0.042983968 0.08097681 0.026027944
0000d0 cf 65 44 3e 0a 3b bd bc ee 24 81 bc 70 a8 72 be
       0.19179462 -0.023099441 -0.01576468 -0.23697066
0000e0 f8 31 6f bd b7 8e c9 3d 73 61 91 bd 79 a4 17 be
       -0.058397263 0.09841674 -0.07098665 -0.14808835
0000f0 82 be b3 bd a0 9b 1e ba 4c 1e 8a bd e1 57 c3 bd
       -0.08776571 -0.00060504116 -0.0674406 -0.09538246
000100 dc 74 8a 3e 3f 82 89 bd ab 3a 1b 3c 9e b2 d0 bd
       0.27042282 -0.067142956 0.009474437 -0.101903185
000110 2a fa 00 be f2 7d b6 3d e3 93 66 3d ca dd cf 3c
       -0.1259543 0.08910741 0.05629338 0.025374312
000120 3a c4 20 bb f9 36 e4 3d 46 f1 99 3d 86 6f 92 bd
       -0.0024531023 0.11143298 0.075167224 -0.07150178
000130 8f de 48 3d 0b 0f 29 3e 91 33 0a 3e b8 8f 24 be
       0.049040373 0.16509645 0.13496234 -0.1607045
000140 18 8d 91 bb d4 3a ca bd 70 24 11 3d 16 e6 6c 3d
       -0.0044418685 -0.09874502 0.03543514 0.057836615
000150 ed 0e 56 bd 62 08 84 3e 49 d2 40 bd cf 33 d7 3d
       -0.052260328 0.25787646 -0.047075544 0.105079286
000160 9e 83 bd bd 92 ce 20 3d 53 1e 97 3d 57 84 01 3e
       -0.092536196 0.0392595 0.07378831 0.1264814
000170 06 c3 9f bc 03 dd 1d be 75 75 51 be 9e 88 a9 bd
       -0.019502174 -0.1541634 -0.20454963 -0.08278011
000180 fe 78 43 3e 27 d1 fd 3d 97 20 2a 3e 38 4b 23 3c
       0.19089124 0.12393408 0.16613995 0.009966664
000190 d2 ff 93 bd 1e b4 39 bd 94 2e f1 3c 84 7c 86 3d
       -0.07226528 -0.04533779 0.029441155 0.06566718
0001a0 41 1f 5f 3d 79 58 51 3e 4d 4f a5 bd 15 6f 19 be
       0.054473165 0.20443906 -0.08071766 -0.1498378
0001b0 f0 f9 ea bd 71 2b 4e 3d c5 de 84 bd ba 50 e1 bd
       -0.11473453 0.050334398 -0.064878024 -0.110017255
0001c0 d5 6a 1c be ec 22 19 bd cb 69 ca bd bc f3 14 3d
       -0.15275128 -0.03738682 -0.0988346 0.036365256
0001d0 a6 2b 05 be d9 56 b3 3d e2 2d 0f 3e e5 97 20 bc
       -0.13004932 0.08756799 0.13982347 -0.0098018395
0001e0 20 6b 01 3c af 1e 76 bd 3b e1 90 3d ad 88 9f 3e
       0.007899076 -0.060087856 0.07074209 0.31158963
0001f0 52 aa 2c 3e 95 45 26 3d 41 9d 5c bd 2e 33 4d 3d
       0.16861847 0.040593702 -0.053860907 0.050097637
