models/model.onnx (onnx, 606596 bytes, 26 tensors)

conv1.0.depthwise.weight f4 [4, 1, 3, 3]
00000000: 449b bb3d 0f0a 063d 49b7 033d a2e0 243e
00000010: 171c ac3e dce5 8a3e 2e3e a9bc f191 6e3c
00000020: 80b5 f6bd 1616 b2bd b2f9 33bd 15ee 2abc
00000030: 8683 fb3d 1a0f 3dbe e091 153d f6ad a1be
00000040: 3da9 a1bd 8dc4 48be bc87 1e3d 2be1 a63e
00000050: ac90 79bb 5bdd bf3d 1791 e4bd 1ddc 92be
00000060: d7fc 37be cef2 85be 842b 493e 88e9 2e3e
00000070: a5fc 99be f134 8bbe 49a5 82be 2dcf 9a3e
00000080: f26c 5dbc dab7 16be 5822 81be 84f0 853e
0.09160474 0.032724436 0.032157216 0.16101316 0.3361518 0.27128494 -0.020659532 0.014561162
-0.12046337 -0.08695619 -0.0439393 -0.01043274 0.122809455 -0.18462792 0.03651607 -0.31578034
-0.07893608 -0.19606228 0.038703665 0.32593665 -0.0038080616 0.09368392 -0.11160486 -0.28683558
-0.17967544 -0.26161808 0.19645506 0.17081273 -0.30075565 -0.2718883 -0.25516728 0.30236188
-0.013514744 -0.14718571 -0.25221515 0.2616006

conv1.0.depthwise.bias f4 [4]
00000000: 60d6 4abe bab1 29be ab84 093d 43d0 d23d
-0.1980834 -0.16571704 0.033573788 0.10293629

conv2.0.depthwise.weight f4 [32, 1, 3, 3]
00000000: 7862 90be 5dca 11be 8ffa 9cbe 489e 51be
00000010: 4136 703e 63dd 0d3e f05f 1e3e e076 08be
00000020: 4c33 b9be a62f 62be 9657 f03d d9e7 27be
00000030: 5792 52be 26ad a7bd 1f1c 573b 2c62 683e
00000040: cb4d 843e 3b5d 0c3e 37d4 cf3d 9a70 d8bd
00000050: c249 ef3b aa3a 633e 8d1f 93be 3379 083e
00000060: ebbc a43e 03f5 b6be a681 76be e60b 553e
00000070: 493a ed3d ee07 563d 84e6 b5be a6a3 5fbe
00000080: c9b5 403e 020c 0e3d 115c d93c c4e4 8d3c
00000090: e6e9 a53e f75b 46be b30f 2f3e 0817 833e
000000a0: 0070 8abe d46e a93d 47fb 2cbe 046e 10be
000000b0: 4c8a cd3d 66da e2bd 0f57 a53e 46db 69be
000000c0: 5298 5e3d 9545 a0bd 2f99 9f3e 4c95 833e
000000d0: adf3 67be 6cb1 95be ff7f 283e 624b 53be
000000e0: b659 2d3e 6d9a b1be ed3c b8be da8b 7fbe
000000f0: bde6 173e de11 81be e566 ebbd c5ac 743e
00000100: cb13 62be 60e6 903e ef1c 0dbe bf28 953e
00000110: 7e8c 1fbe 4c4b 85be 2c20 933d 21ab 83be
00000120: 55e5 7e3e d775 48bc f794 99be 93b7 e5bd
00000130: 2614 013e beed 173e 7752 a2be 9bca 513e
00000140: 5b76 a23d f18e 983e d706 63be bb0d 81be
00000150: 2c0a 82be 70a6 143e 7d82 763e 470d b5be
00000160: 1931 d7bd 7d54 82be 15fd 8fbd deef 513e
00000170: 4848 a73d 3e9a b33c a0ea 3f3e c56d e3bc
00000180: 0f07 7f3e 9c0a 8f3e 6669 86be b9a1 a93d
00000190: 31c9 4bbe 4eb6 76be 4c05 cbbd b091 15be
000001a0: cecf aebd 55ca 68be 3248 0e3e 37ec 623e
000001b0: cc79 4c3e d519 71bd 8b9d 7abe 156c 92bd
000001c0: 8abd b1bd 8cc4 76be c2f8 5e3e 7495 c2bd
000001d0: 8f2f 0abc 17c9 5b3e 5855 bd3e ccce 8c3e
000001e0: 7ef3 313e 6367 22bd 134a 9c3e 996e 623e
000001f0: 46a7 d23d da2c 64be 7532 22bd 03ba b23b
00000200: 6f79 5dbe 12fd af3e bf98 88bd d1c3 2fbc
00000210: bf29 d53e 05bf ea3a 56dc 8c3e 1073 bb3d
00000220: fdba 78be 7746 a2be 6be9 763e 2bdc 343e
00000230: 9d7a c1bd 51d7 473d b398 a23e b3ea 9ebe
00000240: 205a 84be 20b1 94bd ed9a 533e 7ad9 9a3e
00000250: 8c6f 59bd 0c00 74be 22aa 9c3e c660 743e
00000260: fbe3 843e acf3 b13e 4fc1 87be caae 92bd
00000270: 24b5 933e 7fb7 05be ddc7 ca3d 0194 2ebd
00000280: 0b79 a93d b599 bd3d 1878 993e de63 a03e
00000290: 3966 71bc b75d 9cbe a501 5cbe 0e44 6c3e
000002a0: 4236 a73b 331f 89bc 21b3 b0be 2177 28be
000002b0: b61a 9ebe ec45 2dbe ad80 7bbe 1298 99be
000002c0: 8c39 803d 3b80 4dbe 533a a9bd 29ed 853e
000002d0: 9441 16be 31e8 a73e 0b42 2fbe fd82 6fbe
000002e0: a2fb a1bd 17b5 19bc ffc0 e0bd 8560 4dbe
000002f0: 38b9 ba3e 9460 54be 2488 1b3d 9c19 94be
00000300: 1235 773e 92ae 673d ab96 5a3c 61b1 bc3c
00000310: 88c8 c43e a61f 89be ba9d 493d 9384 883d
00000320: 9177 09be 210f 63be dbd3 38bd 0ad2 7fbc
00000330: f1c3 353e ef3a 02be 715f 73be 29f9 813d
00000340: 1680 63be a8b0 72bd b56e 413e d874 a9be
00000350: d67d 2b3e d963 303e b8aa b3be c533 e73d
00000360: 88b5 823e 37b1 953d cb8f eebd 14a3 363e
00000370: bd08 f8bc a105 81bd 8966 83be 4f75 93bd
00000380: 80fc 79bd 6e3f 503e 6b52 98bd c399 5d3e
00000390: 0cce 653e a8a6 85be e8ce 8e3e 38f0 223e
000003a0: 69ea 923e 1874 93be 4d64 f93d 4ce2 8cbc
000003b0: 650a 79be cfa3 ecbc 1b97 4abc be32 803e
000003c0: ac70 423d 0b4f 1dbe 4b5c bbbc 9dc3 8a3e
000003d0: 3c68 adbe 652a b4bd 7725 9dbe 8afc febd
000003e0: ed3f b0bd 7032 40be 2d24 e5bd f616 52be
000003f0: b1a2 813e 465f a6bd 80d6 c53a ce4a 903e
-0.28200126 -0.14237352 -0.3065991 -0.20470536 0.23458196 0.13853984 0.15466285 -0.13326597
-0.3617195 -0.22088489 0.11735456 -0.16397037 -0.20563637 -0.08187322 0.0032823158 0.226937
0.258406 0.1370744 0.10147899 -0.10568352 0.007302494 0.22190347 -0.2873501 0.13327484
0.32175383 -0.35733804 -0.24072894 0.2080532 0.11583383 0.052253656 -0.35527432 -0.2183977
0.18819346 0.03467942 0.026533158 0.017320998 0.32405013 -0.1937102 0.17095833 0.2560351
-0.27038574 0.08273092 -0.1689273 -0.14104468 0.10036144 -0.110768124 0.32292983 -0.22837552
0.054344483 -0.07825772 0.31171557 0.25699842 -0.22651549 -0.29236925 0.16455077 -0.20634225
0.16928753 -0.3468813 -0.35983983 -0.24955693 0.14834113 -0.25208944 -0.11494235 0.23894031
-0.22077863 0.28300762 -0.13780569 0.2913265 -0.15580937 -0.2603401 0.07183871 -0.25716498
0.2489217 -0.012235126 -0.29996464 -0.11216655 0.12605342 0.14836785 -0.3170354 0.20487444
0.07932731 0.29796556 -0.22170578 -0.25205788 -0.25398386 0.14516616 0.24073215 -0.35361692
-0.105074115 -0.25455084 -0.070306934 0.20501658 0.081680834 0.021924134 0.18741846 -0.027762303
0.24905036 0.27937782 -0.26252288 0.08282799 -0.19900967 -0.24092981 -0.0991312 -0.14606357
-0.08535729 -0.22733434 0.13894728 0.22160421 0.19968337 -0.058862526 -0.2447416 -0.07149521
-0.0867873 -0.24098414 0.21774581 -0.09501162 -0.00843419 0.21463428 0.36979175 0.27501523
0.17378041 -0.03964938 0.30525264 0.22112502 0.10285811 -0.22282735 -0.0395989 0.005454303
-0.21628354 0.34372765 -0.06669759 -0.010727839 0.41633412 0.0017909711 0.27511853 0.09152806
-0.2429008 -0.31694385 0.2411248 0.17662112 -0.09447215 0.048789326 0.31757125 -0.31038436
-0.2585001 -0.072603464 0.20664568 0.30244046 -0.053084895 -0.23828143 0.3059855 0.23865041
0.25955185 0.3475622 -0.2651467 -0.071622446 0.28849137 -0.1305828 0.09901402 -0.042621616
0.0827504 0.09257833 0.29974437 0.31326193 -0.014733844 -0.3054025 -0.21485002 0.23072836
0.0051029036 -0.01673851 -0.34511665 -0.16451694 -0.30879754 -0.16921204 -0.24560805 -0.29998833
0.06260976 -0.20068447 -0.082630776 0.261575 -0.14673454 0.32794335 -0.17115037 -0.23389812
-0.07909323 -0.009381554 -0.10974311 -0.2005635 0.36469436 -0.20739967 0.03797163 -0.28925788
0.24141338 0.056562968 0.013341586 0.0230338 0.38434243 -0.26781958 0.049222685 0.066659115
-0.13424517 -0.2217374 -0.045123916 -0.015614042 0.17750527 -0.12717794 -0.23766877 0.06346352
-0.2221683 -0.059250504 0.18889888 -0.33096957 0.16747221 0.17225589 -0.35091186 0.11289171
0.25529122 0.07309192 -0.1164852 0.17835647 -0.030277604 -0.06299902 -0.25664166 -0.07200109
-0.06103182 0.20336697 -0.07437595 0.21640687 0.22441882 -0.2610371 0.27892232 0.15911949
0.28694466 -0.2879951 0.12177334 -0.01719775 -0.24320371 -0.028886704 -0.012365128 0.25038713
0.047470734 -0.15362184 -0.022871157 0.27102366 -0.33868587 -0.087971486 -0.30692646 -0.12450512
-0.08605943 -0.1876924 -0.111885406 -0.20516571 0.25319436 -0.08123641 0.0015093833 0.2818207

conv2.0.depthwise.bias f4 [32]
00000000: 16ab 4bbd fdec 973e a6c8 04bc 0fcd 75be
00000010: 3b9a d73c 342d a13d a374 a33d 7f13 4fbd
00000020: bed7 02be f4ec ad3b 3664 83be 147c 85bc
00000030: 4a2d 653e 974f bc3d b0d1 fdbc 43a0 b13d
00000040: d8d2 5bbe 2812 853e 39cd 843e ce94 1dbd
00000050: 16da 15be e507 a3be eed2 83bd 314c 73be
00000060: ecde 8d3e eb6f 90be 99d2 d1bd 6bd5 ffbd
00000070: 4f4a ae3e d917 3d3e db86 16be 8248 aabe
-0.049723707 0.29672995 -0.008104479 -0.24004005 0.02631866 0.0786995 0.07981231 -0.050555702
-0.12777612 0.005307788 -0.25662392 -0.016294517 0.22380558 0.09194868 -0.030983776 0.086731456
-0.2146715 0.25990415 0.25937822 -0.03847199 -0.14633974 -0.3184196 -0.06436716 -0.23759533
0.27709138 -0.28210387 -0.102452464 -0.12491878 0.34041068 0.18466128 -0.14699881 -0.33258444

conv3.0.depthwise.weight f4 [64, 1, 3, 3]
00000000: f5c6 473d 8982 753e 376c 8ebe 8ed8 9a3d
00000010: 3320 293e a0e3 363e 53e8 6abe 4263 4cbe
00000020: fb01 ccbc a0d7 06be 928b d8bc 234e c73e
00000030: 997f 76be 2fc6 93bd 6bd4 c3bd f353 8e3e
00000040: 62ed b0be e18b 4d3e deb0 c5bd 5b16 07be
00000050: 0986 043d ecb9 b33d 8715 883e 5827 713e
00000060: 5c53 f2bd d70f 37be 96d2 1f3d 78b9 9d3d
00000070: 520b 91be 7363 763e 2cbd 763e 18b0 083e
00000080: 7068 ae3e 0257 303e 7f5f 493e 9990 773e
00000090: 83c7 4e3e a922 a0be 6964 a43d 1ab2 cbbd
000000a0: 773b ac3e ee46 8a3d 9a54 903e 8a6d 2d3e
000000b0: 58a6 88bd 31e8 973e c61b 8d3e 9ecc 823e
000000c0: 6639 9c3e 22a9 533e c028 06be c48b c1bd
000000d0: dc95 4e3e 9f35 abbe 9abd 19be 1703 9ebe
000000e0: a80a 8cbe bcba afbb 4a91 563e e4fb e83d
000000f0: 4505 1abe 8a6f 14be 7a72 513e bed1 b7bd
00000100: c1d9 d23c 2607 84bd cd1b 78be 88d8 0f3e
00000110: 5a92 463e 51c0 49bd e022 84be eaef 6e3e
00000120: 5e57 9ebe 9bf9 3d3e 1ce2 adbe 6a9c 35be
00000130: fdc0 a2be d55b 9cbd 976b b7be f336 c1bd
00000140: 44ac 833d 4146 4e3e 0a5e a73e bdfd 123e
00000150: 990d 84be 858d 453d 3905 b33e a17d fcbd
00000160: 8cf9 5fbd 2ca3 db3d 08d2 97be c8c0 283e
00000170: b15a 1ebe 1dc6 31bd 18b6 91be 8469 8e3e
00000180: da42 573e 3871 db3d 483a 913e f535 9fbe
00000190: bb65 d23d ed82 1c3d 1592 6bbe f374 aa3b
000001a0: c1a9 c23c 6652 273e b236 60bb 869c 003e
000001b0: 0df1 de3d 8482 223e b87c 67be 7304 15be
000001c0: bb04 153d 73cc 9f3e f119 1f3e 3450 483e
000001d0: 3d2a 823e 9d10 80be 5171 013e ba5b 89be
000001e0: 52a0 17be ee7c 3b3e 0a24 063e 2f46 b4bd
000001f0: 70cd cb3d 67a1 c43c d7a5 373e 2304 863e
00000200: ee42 c53d 414d a63e fe5c b53d 30bf 6d3d
00000210: 9fad 723e 93ff f5bd b9fb e43b 3acf 923c
00000220: c1d5 533e 346c 7e3d fadf acbd c742 55be
00000230: 006f 3ebe c1ca 7b3e e6a8 9abe a68f 443e
00000240: b07c 92be a798 64be 39cd 0c3d b92e 6b3e
00000250: aeaa 8abe ce3b bdbd e62e 323c 891a 9e3e
00000260: e4b5 d73a 7208 bebd a6aa 13bc 157f 9f3e
00000270: ffcb 073e 5ebd b0b9 5c56 033e e489 41be
00000280: 17bc 1abe 756d 35bd c88b 8c3e f851 bc3c
00000290: ac23 debd 8843 653b 4572 d73c c536 3b3e
000002a0: 7f38 7a3e e682 733e 27da 9abe 196c f73d
000002b0: b648 b83e f6ea e8bd b379 e23c f6dc bd3b
000002c0: 87b3 b8be ad70 3ebd ad7a 953e e20e 6fbe
000002d0: f44c 53bd ec60 9d3e b0ac 853e d03d 2bbe
000002e0: 9976 9d3e 54cb 503e 305a 0b3e 98d7 e53d
000002f0: f025 da3d 460f 0d3d 66cc ca3d 0960 4c3d
00000300: f22d 9fbd 15fd 9dbe 8e2b 2f3c 6225 b5be
00000310: 8224 8abc 15c0 273e 11b2 0b3e 4177 923d
00000320: b7e1 d1bc 0850 b0bb 3982 c0be f946 8dbd
00000330: 1227 a93e 5f39 1ebe 6592 813c a3ec c53e
00000340: bd50 8d3e cd04 3dbe 96c5 823e 3daf 98be
00000350: 97f5 c5bd 122c d63d 0193 26be 47c6 7fbe
00000360: 6a0f 32be 0dcf bd3e 5fbc 8a3e 69c9 07be
00000370: df13 db3c f0f7 613d c9c3 2fbc 7af8 bdbe
00000380: ef48 38be b4d5 1d3e 0c32 803e 3ff1 13be
00000390: 987c fdbd 2361 2abc c11c af3e 354e 71be
000003a0: 8e0f 6bbe f130 253d 0f1d c1be 5f8f aabe
000003b0: 6695 473e 23b2 1a3d d393 1f3e 2ee0 763e
000003c0: bb3a 783e c048 d2bd 49f2 033e 6df3 963d
000003d0: 4c30 3d3e 398e 85be c411 7e3e 56ef 973d
000003e0: f7bb 9d3e 93e4 103e 725e a53e d701 c1bd
000003f0: 4806 133e 3939 853e 0e29 8c3e ba1b 78be
0.048773725 0.23975576 -0.27816936 0.07560836 0.1651619 0.1786027 -0.22940187 -0.19959739
-0.024903288 -0.13168192 -0.02643374 0.389268 -0.24072112 -0.07215535 -0.09562 0.27798423
-0.3455611 0.20072891 -0.09652875 -0.13192122 0.03235439 0.08775696 0.26578924 0.23550165
-0.11832306 -0.17877136 0.03901919 0.07701391 -0.2832895 0.24061374 0.24095601 0.13348424
0.34064054 0.17220691 0.19665335 0.24176253 0.20193295 -0.31276444 0.08026964 -0.099460796
0.33639118 0.0675181 0.28189546 0.16936317 -0.066723526 0.29669335 0.27560252 0.25546736
0.30512542 0.20669988 -0.13101482 -0.09450486 0.20174354 -0.33439347 -0.15013734 -0.30861732
-0.2735188 -0.0053628366 0.20953861 0.11376169 -0.15041073 -0.14495674 0.20453826 -0.08975552
0.025738599 -0.06446676 -0.24229355 0.14047444 0.19391766 -0.049255673 -0.25807858 0.23333707
-0.3092603 0.18552248 -0.3396157 -0.17735448 -0.31787863 -0.07634703 -0.35824272 -0.09434309
0.064293414 0.20143987 0.32688934 0.14354606 -0.25791624 0.048230667 0.34964922 -0.12328649
-0.054681346 0.10724482 -0.2965243 0.1647979 -0.15464284 -0.043401826 -0.2845924 0.27814877
0.21021596 0.10714954 0.28364778 -0.31095853 0.1027331 0.038210798 -0.23004945 0.0052019297
0.023762586 0.16340026 -0.0034212288 0.12559709 0.108858205 0.158701 -0.2260617 -0.14552478
0.036381464 0.3121067 0.1553724 0.19561845 0.2542285 -0.25012675 0.12640883 -0.26827794
-0.14807251 0.18309376 0.13099685 -0.08802449 0.099512935 0.024002744 0.17934357 0.2617503
0.096319064 0.32480815 0.088556275 0.05804366 0.23699044 -0.120116375 0.0069880155 0.017921079
0.2068701 0.06211491 -0.08441158 -0.20826255 -0.1859703 0.24589063 -0.30206984 0.19195423
-0.28610754 -0.22323857 0.034375403 0.22967042 -0.27083343 -0.092399225 0.010875439 0.3087962
0.0016457406 -0.092789546 -0.009012854 0.31151643 0.13261412 -0.00033710425 0.12825912 -0.18900257
-0.15110813 -0.04429384 0.27450395 0.022988304 -0.108466476 0.0034982879 0.026299605 0.18282612
0.24435614 0.23780403 -0.30244562 0.12081165 0.35992974 -0.1137294 0.027645921 0.005794163
-0.36074468 -0.046494175 0.29195157 -0.23345521 -0.05158706 0.30738008 0.26108313 -0.16722798
0.30754545 0.20390064 0.13608623 0.11222762 0.10651767 0.034438394 0.09902267 0.049896274
-0.07772435 -0.3085715 0.010691537 -0.35380083 -0.016863111 0.16381867 0.13642146 0.07151652
-0.025620325 -0.005380634 -0.37599352 -0.068983026 0.3303762 -0.15451573 0.015816877 0.38657102
0.2760066 -0.18458863 0.2554137 -0.29821196 -0.09665983 0.104576245 -0.16267015 -0.2497798
-0.17388692 0.3707203 0.2709684 -0.13260426 0.026742874 0.055168092 -0.010727831 -0.37103635
-0.17996572 0.15413553 0.25038183 -0.14447497 -0.1237728 -0.010399136 0.34201625 -0.2356499
-0.22955152 0.040329877 -0.37717482 -0.33312508 0.19490585 0.03776754 0.15583734 0.24108955
0.24241154 -0.10267782 0.12885393 0.073706485 0.18475455 -0.2608507 0.24811465 0.074186966
0.30807468 0.14149694 0.3229862 -0.09424179 0.14357865 0.2602022 0.27375072 -0.24229327

conv3.0.depthwise.bias f4 [64]
00000000: da64 1d3e fb24 29bc 0cf0 39bd b8fd f5bd
00000010: f491 323e fad6 bbbe f2c8 b53c 1a85 5f3d
00000020: 4c49 3ebe 9c9d 61be d436 72bc cb9a dfbc
00000030: cd47 36be 0763 0a3e c472 803e 249e 25bd
00000040: 78ad 1d3e 9e1c 91be 20e9 9a3d cfea 70be
00000050: c9d3 433e 3491 a43e efe9 843e eada 8abd
00000060: 778f 203d de8f 0b3e d30c 76be 0e7c 91be
00000070: 92fc 0b3d bfe1 b5bd 0f81 abbd 8de3 bfbd
00000080: c98b 26be 4a19 203e 640c 623e b5b3 3bbe
00000090: ebd6 43be c09b 89bd 4826 cdbd 9191 743e
000000a0: ee25 f9bd 3d17 94bc 9a75 4bbe ce24 5bbd
000000b0: a222 6fbe bfa2 153e f5ff 653e 4fed 59be
000000c0: 4757 23bd ca55 27bd 50ca 0f3e c578 993e
000000d0: c2f8 a43b 5727 9b3e f274 a6be b64e 02be
000000e0: 47df a0be fbe8 b4be 3aef ad3e f6b5 64be
000000f0: 82e3 923e 07de 81be 3fa8 1c3e d62c 973c
0.15370503 -0.010323758 -0.045394942 -0.12011284 0.17438489 -0.36687452 0.022190545 0.054570295
-0.18582648 -0.2203278 -0.01478358 -0.02729549 -0.17800827 0.13514338 0.2508756 -0.040434018
0.15398204 -0.28342146 0.07563996 -0.23527072 0.19123758 0.3214203 0.25959727 -0.06780036
0.03919932 0.136291 -0.2402833 -0.2841496 0.034176417 -0.08880948 -0.08374225 -0.09369574
-0.16264261 0.15634647 0.22075039 -0.18330272 -0.19124953 -0.0671916 -0.10017067 0.23883654
-0.12165438 -0.018077487 -0.1986908 -0.053501897 -0.23353055 0.14612864 0.22460921 -0.21281932
-0.039878156 -0.0408533 0.1404202 0.29974952 0.005034537 0.3030345 -0.32511097 -0.12725338
-0.31420347 -0.35334 0.33971578 -0.22335038 0.286892 -0.25364706 0.15298556 0.018453997

upconv3.3.weight f4 [64, 64, 3, 3]
00000000: e737 9e3b f45f 863d 26df 7cbb 8fd8 323d
00000010: 7e4b 0b3d 34a6 9dbc 17a8 563d ccf3 0f3a
00000020: bbad 0dbd 1ef0 56bc 1271 4c3b 0752 60bc
00000030: 8410 45bd 6d2f 36bd 82e2 ecbd 3433 bebd
00000040: d7d9 e3bd 24c2 ccbd 1aef a4bd 7c6a 90bc
00000050: 9374 8c3c 67d9 fbbc 7cef a73d 3b8e e33d
00000060: 005c 0a3d 0b2a b93d 6585 323d b79c 873c
00000070: cbdf 87bc cb2c 62bd 4ca6 e6bc d6ed 5abd
00000080: 5e20 cabd c419 323c 9408 94bd 1bd9 d1bd
00000090: 808a 733d aa83 633d 015e 3f3d 86f4 ba3d
000000a0: 45c0 fb3d 8687 323d c76d 2d3d bd39 983d
000000b0: ebe0 cf3d 2e5f e23c 3999 223d 2fb9 433d
000000c0: 9782 8d3d be77 9f3d 4bbe 923d 9a8a a23d
000000d0: 32ee bd3d da68 843d d231 d2bc fdeb a83d
000000e0: 4814 5c3d 76fd 24bd 3dc9 bf3d 1faf 253e
000000f0: e4dd 1ebe c1a3 5cbd 93bf 423d 9c7e f43d
00000100: 2562 6f3d 3a1f 34bd b0e5 e33d 7a5c 2dbd
00000110: 52f9 a1bd 1778 823c 1e8c c0bd 664f a2bd
00000120: 2275 5dbd bb45 f7bd 5ccd 07be bd8e 903b
00000130: 04e5 bcbd 03c1 60be 6948 0d3e 441b 8f3d
00000140: a825 ddbd 5624 61bd 6fd6 1dbd e301 b53c
00000150: 10eb 1a3d aa0a bd3d a341 b93c 67d2 853d
00000160: c2fb b23d a3f6 583d 2f58 513d e728 873c
00000170: ede2 113c b58f c43d 6569 b13d a55a 073d
00000180: a24a 703d 2585 a73d b52a a83d e9d1 563d
00000190: 2d44 e63c eadc 9e3c ce46 c33d 3963 b33d
000001a0: 7ca6 a13d 82b7 5f3d 6de3 a13d 64f1 ae3d
000001b0: e367 e3bc bb98 23bd cfb0 18bd e68d cabd
000001c0: 5050 c3bd 911f d4bd 54f1 f1bd e9a3 fcbd
000001d0: 7cff bbbd 4548 83bd 1170 96bd 1ee7 bd3a
000001e0: f64b 3a3d dac7 49bd 9c2f 96bd 8c15 d63d
000001f0: 0082 243d 1e57 273d 5c8c 34bc 5acc 8b3b
00000200: 75af c4bc 7342 bdbd 2996 8cbd f044 c5bc
00000210: b60a 68bd d885 b5bd ba93 a7bd f929 14be
00000220: 1e95 87be 0f8f 84bd fca9 8ebd 0e63 5ebd
00000230: 8cca 6c3d 0faa d53d bcbd 0a3e 68e0 4e3e
00000240: 06e6 eb3d c3fe 943d c0fb 363d 0059 fbbc
00000250: 4d91 213d 53cf 74bd 5ede 77bc 983a 2b3c
00000260: 2ae7 a13c 5767 1d3d 9973 493d 8617 443d
00000270: 75ed ed3d 4a9b dc3d 08ea 483d 8c64 b03d
00000280: f54e 6b3d cd07 083d 3f55 db3d ccc6 943d
00000290: 3dae 373d c274 d73d 6fa5 b83d 7b70 c03d
000002a0: edf6 933d 6345 313b 21c2 853d bed8 a83d
000002b0: 5f31 1e3d 9b87 843c 5f12 ba3d 88da 0f3e
000002c0: aca3 813d 6c4b 173e 094b 903d a4ff bf3d
000002d0: 6512 b9bd cb2a a1bd 93bb 79bd 0473 30bd
000002e0: 334e 143c c9b2 5a39 4c69 863d 16c5 b63d
000002f0: e17a 6e3d 14f1 263d b6db 113d 56a6 bb3c
00000300: f54e c23d 95a1 893d 6034 b03d 2ad4 b83d
00000310: 81f4 d73d 7f78 953d 3c68 22bd cec5 623c
00000320: 29bb a43d c747 b03c 4847 b43d b0a4 2e3d
00000330: 4b96 96bd 582d 52bd 45ed 19bc 9cea 073b
00000340: 2df7 fa3c 3ff6 f03c a239 89bd 7c23 4fbd
00000350: 3c2b 5fbc 09eb b1bd 0056 11bd b0cf 7eba
00000360: d63f a6bb 737b 2c3d 6494 473d 703f 0a3d
00000370: 87ff c63d e0e7 ab3d 55a9 453d de15 743d
00000380: 77f3 773d ced5 d43d 3f17 403d e3f5 073c
00000390: 747f e13d ef09 c9bc 54c9 4bbb 18a1 d93c
000003a0: 159a 48bd 515d eabd 0d71 76bc 17c9 a8bd
000003b0: f4f4 d1bc ddda 1abd 1246 70bd 19d5 94bd
000003c0: cbd4 453b 759e 77bd 2d36 d0bc 209e 0bbd
000003d0: 83e5 0abd 3fae 363a cbbd c3bd 0d6e 04bd
000003e0: 2340 47bc 8c25 3abd 5daf 4fbd b48e c3bd
000003f0: 13b8 75bd 0535 38bd 6e59 c2bc 72f8 85bd
0.0048284414 0.0656127 -0.0038585155 0.043663558 0.03400754 -0.01924429 0.052406397 0.00054913457
-0.03458951 -0.013118772 0.0031195325 -0.013691432 -0.048111454 -0.044478822 -0.115666404 -0.0928711
-0.11125534 -0.09997967 -0.080534175 -0.0176289 0.01714543 -0.030743314 0.08199975 0.11111113
0.033779144 0.09041222 0.043584246 0.01655422 -0.016586205 -0.0552185 -0.028155468 -0.053449474
-0.09869455 0.010870401 -0.07228199 -0.10246488 0.059458256 0.055545487 0.04672051 0.091286704
0.12292532 0.043586276 0.04234102 0.07432888 0.101503216 0.027633276 0.039696906 0.047784027
0.06909674 0.07786511 0.07165202 0.079365924 0.09273948 0.06465311 -0.025658522 0.08248136
0.05373028 -0.04028078 0.09364555 0.16180085 -0.15514332 -0.053867105 0.04754598 0.11938211
0.058443207 -0.043975092 0.11127794 -0.04232452 -0.07908882 0.015926404 -0.09401725 -0.079253
-0.054066785 -0.12073847 -0.13261932 0.004411547 -0.09223369 -0.21948628 0.13797154 0.069876224
-0.10798198 -0.054966293 -0.038534578 0.022095626 0.03782183 0.0923055 0.022614306 0.06534272
0.08739425 0.052969586 0.05110949 0.016498996 0.008904201 0.095977224 0.086626805 0.03304543
0.058664925 0.08179692 0.08211271 0.05244628 0.02810868 0.01939245 0.09534989 0.087591596
0.078930825 0.054618366 0.07904706 0.08542135 -0.027759498 -0.039940577 -0.037277993 -0.09890346
-0.09536803 -0.10357583 -0.11813608 -0.12335951 -0.09179589 -0.06410269 -0.07345594 0.0014488434
0.0454826 -0.04926286 -0.073332995 0.104533285 0.04016304 0.040854566 -0.011019792 0.004266304
-0.024009446 -0.0924119 -0.06864578 -0.024080724 -0.05665084 -0.08863419 -0.081824735 -0.14469136
-0.26480955 -0.06472599 -0.06966016 -0.054293685 0.05781035 0.10432827 0.1354894 0.20202792
0.11518483 0.072751544 0.04467368 -0.030682087 0.03944521 -0.059768032 -0.0151287 0.010450982
0.019763548 0.03842863 0.04918251 0.047873996 0.11617557 0.107718065 0.049051315 0.08612928
0.057448346 0.033210564 0.10709619 0.0726448 0.0448439 0.10520317 0.09015929 0.09396454
0.07224832 0.0027049414 0.06531168 0.08244465 0.038621303 0.016177943 0.09085535 0.14048207
0.06330046 0.14774865 0.07045562 0.093749315 -0.090367116 -0.0786949 -0.0609699 -0.043078437
0.009051847 0.00020856703 0.065630525 0.0892431 0.058222655 0.040757254 0.035609923 0.022906464
0.09487716 0.067202725 0.0860374 0.09024842 0.10544682 0.072983734 -0.039650187 0.013841106
0.080435105 0.021518601 0.08802658 0.042637527 -0.07352885 -0.051312774 -0.009394948 0.0020739203
0.03063544 0.029414294 -0.06700446 -0.05057095 -0.013621148 -0.086874075 -0.035482407 -0.0009720279
-0.005073528 0.042109918 0.0487255 0.033751905 0.09716707 0.08393836 0.04825719 0.059591167
0.06053492 0.103923425 0.04689717 0.00829837 0.11010638 -0.02454087 -0.0031095343 0.026566073
-0.04897507 -0.1144358 -0.015041602 -0.0824148 -0.025629498 -0.03780638 -0.058660574 -0.07267208
0.003018665 -0.06045385 -0.025416458 -0.034086347 -0.033910286 0.0006968714 -0.095576845 -0.032331515
-0.0121612875 -0.045445964 -0.05070435 -0.09548703 -0.05999 -0.04497244 -0.023724284 -0.06541528

upconv3.3.bias f4 [64]
00000000: 869a 323c c555 753e 5209 f9bd 0c64 a63e
00000010: 1bcf 8bbe cc45 11be dfe9 5fbd 5c3f da3d
00000020: 5959 8f3d 40b3 2ebe 443b b4be 26b5 5abe
00000030: 2163 d63d 3c3f d83c 60d3 ad3e 3d45 013d
00000040: 5734 2e3e 39cc 1dbe bff5 663d 6a6b 443d
00000050: abc1 33be c77e c0be 554d 833d bdba 723e
00000060: 5a63 b1be 1293 0d3d b9e8 6d3e 2c09 483e
00000070: 08b6 7a3e 5dd3 913e 0336 b4be 5de4 e3ba
00000080: 8320 55bd bbd3 163d 1a3f 123e 3143 90bd
00000090: 024f cdbe a755 36be 72b0 703d e122 97be
000000a0: 4916 a3be fdc0 6e3e 5688 5cbe a949 d93d
000000b0: 512e 4cbd 6f41 9ebd dcee 56be a509 a13e
000000c0: 117d 39be 374c 523d 5a07 05be 191a 4c3d
000000d0: 314b 27be 3e49 7ebd 3fee c3be c5a7 e8bc
000000e0: 0520 a3be 76e7 483d 9c65 0abd ae6a 873e
000000f0: 8753 b23e 4ff2 16be 602b bcbe d136 c43d
0.010901099 0.239585 -0.12159981 0.32498205 -0.27306446 -0.14186782 -0.054666396 0.10656616
0.069994636 -0.17060566 -0.35201466 -0.21358165 0.10468126 0.02639734 0.3395033 0.03156017
0.17012154 -0.15409936 0.056386705 0.047954 -0.17554347 -0.37596723 0.06411234 0.23704048
-0.34646112 0.034564085 0.23233308 0.19534749 0.24483502 0.2848157 -0.35197458 -0.0017386783
-0.05203296 0.036823016 0.14281884 -0.07044066 -0.4009934 -0.17806111 0.05876202 -0.29518798
-0.3185294 0.23315807 -0.21536383 0.10609753 -0.04984886 -0.07727324 -0.20989555 0.3145267
-0.18114115 0.051342215 -0.12991086 0.049829576 -0.16337277 -0.062081568 -0.38267705 -0.028400311
-0.31860366 0.049048863 -0.03378831 0.26448578 0.3482935 -0.14740871 -0.36751842 0.09580768

upconv2.3.weight f4 [32, 32, 3, 3]
00000000: f41c 4e3c d7c6 48bc a30f a63d 01b9 783d
00000010: 2260 87bd 55d2 083e cfd6 093d dbaf b3bd
00000020: 129a 333d 183e 243c c69b b33d ed84 b53d
00000030: 7fd3 a53d cf24 0c3e 3158 ea3d 57ca 1c3d
00000040: 77c3 9e3d ec27 a73d 5d56 603c 0441 24bc
00000050: 4b47 b3bc 11f4 4e3b 2ecd a53d c03f 083d
00000060: e762 2a3d 121d 9fbd 4b2c 203d 6601 afbd
00000070: a8ec e7bc ca54 cebc 935e 00be bcd2 9cbc
00000080: 214e 0fbe f404 75bc 17db 2bbd 2bba 08bd
00000090: af82 4d3d df4e 41bb 2e98 f43c accf 593d
000000a0: 70d0 e13d 795a 0c3e ad03 3a3d f4d9 0b3e
000000b0: c952 e03d 873c f73c 263f 61bd 6e0f dc3b
000000c0: ae2d 8b3c d13a 50bd 0f27 203c e47c bd3c
000000d0: f58f d3bd 2e06 0a3d 0208 03bd 5ca6 39bd
000000e0: a9a2 fabb 1217 89bd 80cb 0fbd 0d76 a8bd
000000f0: d9ae 83bc b3b7 02be 85de 8cbd 26ce a6bd
00000100: a109 bebc 0d55 38bd dc2b b7bd b0be 01be
00000110: f5da 8bbd 29b5 e3bd 0fb4 9cbd ac2a ccbd
00000120: b65c 64bc 57d6 733d 004d 8abb 084f 663d
00000130: 9234 5dbb 5380 5e3d f30b c03d 9ca8 763d
00000140: f26c cc3d f71a 8a3b bd5d c3bc fec5 41bd
00000150: 1f48 46bd c15e 60bd 8113 f1bd dd31 dfbd
00000160: 8e7c 05be 4105 bdbd a725 9c3d 66ef eb3d
00000170: 9a88 a43d e19e 863d f95a d63d c4d2 753d
00000180: 7b7c 3d3d 3ed3 153e c809 c83d b3c7 7ebd
00000190: 8932 edbc be11 4abb 3fcf 21bd a1b6 c5bd
000001a0: b27f 7ebd 9a2a ca3c 8b27 18bb faba 2b3d
000001b0: 3abc a83d 54d7 893d 48f5 653c 2362 053e
000001c0: 13c7 183e 5b48 b93d 0a92 623d e85d 0f3e
000001d0: 9a3a 953d 63e9 49bd 2cd0 9abd d3e8 e3bc
000001e0: 6471 7abd a326 7dbd c143 4abd cbb6 21bd
000001f0: 41ae 30bc 938d a6bd 42f1 30bd f15a 84bc
00000200: be9d 9ebd bf72 0dbd f227 aebb 1bbe 0fbd
00000210: 52bf 57bb 6424 ee3c c26b 04be 6f22 593d
00000220: 4a3d e23c 5006 3c3c 8553 d93d b0af 133e
00000230: 006b dc3d 6734 853c 3c9b 893d 13b8 f83d
00000240: cd98 49bc 6844 9dbc 64a7 d9bc 794e e8bd
00000250: a0f1 44bd 47f3 40bd 65f9 b5bd c14b edbd
00000260: 804c 15be c0c2 b4bc f343 f03c 390c c0bc
00000270: 00d3 94bd e600 a8bd 4f24 623d 8bf1 05bd
00000280: ac1f 4cbd 55f7 0ebd 37a4 143d dc7e 90bd
00000290: f46c 5fbc 4d1c afbd 4ba9 49bd efa4 f5bd
000002a0: 35e7 80bd 86ca fabd 3a54 e3bd 5b15 d93c
000002b0: fbbe 03bd 74e6 7cbd 12a7 cbbd 67e1 a9bd
000002c0: bb1e e1bb 8667 d53d 6233 fe3d b155 b33d
000002d0: be69 f4bc 1181 ab3b bf5b cf3c 0fa4 ed3d
000002e0: e4b9 2b3d ed09 283d a544 cc3d 5951 163e
000002f0: ae85 d93d cc5a 483c 148d 08be 0d72 a4bc
00000300: 5332 53bc ff86 e2bd 8463 3f3c 3fc9 91bd
00000310: bc48 c5bd 0308 03be fdbd 103d f356 95bd
00000320: 63c2 a4bd 87e5 b0bd c711 17be 4bca e7bd
00000330: 0968 05bd 41ca c4bd fa25 93bd 5d5f 1cbc
00000340: 2a20 aebd 8a0f fbbc 23b5 28bd c556 ebbd
00000350: 56f1 c4bd bfb0 cbbc 61e1 ccbd 16b4 e8bd
00000360: e4fc a8ba c026 13bd 6065 a43c 221f cfbd
00000370: 11b6 1abe 8478 f4bd eaa0 a03c 1843 54bb
00000380: 2f3e 883c a136 c73b ef87 703d 33f4 44bb
00000390: fc00 863d e53e c93d 3e5a 753d 0efb 5b3d
000003a0: 72a5 40ba 2ef5 523c c9e4 b3bd 9169 aabd
000003b0: c22a 9ebd f09c d1bd e084 c6bd cb74 04be
000003c0: bcc1 98bd 68ba 05be 1f4f 0fbe 96de edbc
000003d0: cc51 4cbb 6cc2 2c38 92d6 fe3c 2087 9d3d
000003e0: d78d 0e3e 64a2 a13d 717b 233d a517 913d
000003f0: 1f34 2e3c 6141 a7bd 75f9 6b3c ff94 a5bd
0.012580145 -0.012254438 0.08108451 0.06072331 -0.06610133 0.13361485 0.033652123 -0.08773776
0.043848105 0.01002457 0.08769946 0.08863244 0.0809698 0.13685916 0.114426024 0.038278904
0.07752126 0.08161911 0.013692466 -0.010025267 -0.021884581 0.003157858 0.080957755 0.03326392
0.041598227 -0.077692166 0.03910474 -0.085451886 -0.028311089 -0.025186915 -0.12536077 -0.019143455
-0.13994648 -0.014954794 -0.041956987 -0.03338067 0.050173458 -0.0029496474 0.029857721 0.053176567
0.110260844 0.13706388 0.04541366 0.13657361 0.1095329 0.030180229 -0.054991864 0.0067157065
0.016989555 -0.05083734 0.009774937 0.023130842 -0.10330192 0.0336973 -0.03199006 -0.04532467
-0.007648785 -0.066938534 -0.035106182 -0.082256414 -0.016074585 -0.12765388 -0.0687838 -0.081447884
-0.02319795 -0.045002986 -0.089439124 -0.12670398 -0.06828872 -0.11118538 -0.07651531 -0.099690765
-0.01393812 0.059530582 -0.004220605 0.056227714 -0.0033753258 0.0543216 0.09377279 0.060219392
0.09981717 0.0042146402 -0.023848409 -0.04730796 -0.048408624 -0.054777864 -0.11771298 -0.108981825
-0.13035795 -0.09229518 0.07624369 0.11520271 0.08033867 0.065732725 0.104665704 0.060015455
0.046261292 0.14631364 0.097674906 -0.062202167 -0.028954761 -0.003083333 -0.039504286 -0.09653974
-0.0621335 0.024678517 -0.0023216929 0.04192636 0.08239026 0.06730524 0.01403553 0.13025717
0.14919691 0.09047004 0.055315055 0.14000666 0.07286568 -0.04929484 -0.07559237 -0.02782098
-0.061143294 -0.061804425 -0.04938102 -0.039480966 -0.010783733 -0.08132472 -0.04319883 -0.016156645
-0.07744931 -0.03453326 -0.0053148204 -0.035093408 -0.0032920432 0.029070087 -0.12931731 0.053011354
0.027617116 0.011476114 0.10611633 0.14422488 0.10762596 0.016260339 0.06719062 0.12144484
-0.012304497 -0.019197658 -0.026569076 -0.113430925 -0.048081994 -0.047107007 -0.08885459 -0.115867145
-0.14579964 -0.02206552 0.029329276 -0.023443328 -0.072668076 -0.08203296 0.055210408 -0.032701056
-0.049834892 -0.034903843 0.03628942 -0.070554465 -0.013636816 -0.0855032 -0.049233716 -0.11994349
-0.06294099 -0.122456595 -0.11100049 0.02649944 -0.032164555 -0.061743215 -0.099439755 -0.08294945
-0.0068701184 0.10420136 0.12412144 0.08756579 -0.029835578 0.005233892 0.025312303 0.11603557
0.041925326 0.04102509 0.099740304 0.14679469 0.106212005 0.012228679 -0.13335067 -0.020073915
-0.012890416 -0.11060905 0.011681441 -0.07118463 -0.096330136 -0.12796025 0.035337437 -0.07291975
-0.08044889 -0.08637529 -0.14752875 -0.11317881 -0.03256992 -0.09608889 -0.07184978 -0.009544221
-0.085022286 -0.030647058 -0.04118837 -0.11491159 -0.09616344 -0.024864553 -0.10003925 -0.11362474
-0.001289275 -0.035925627 0.02006787 -0.1011336 -0.15108515 -0.11937049 0.01960798 -0.0032388624
0.016631214 0.0060795103 0.058723386 -0.003005278 0.065431565 0.09826449 0.059900515 0.05370622
-0.0007348872 0.012875838 -0.08783872 -0.083209164 -0.07722999 -0.102350116 -0.09693313 -0.12935178
-0.07458827 -0.1305939 -0.13995026 -0.029036801 -0.0031176684 4.1189065e-05 0.031108174 0.07691789
0.13921295 0.07892302 0.039912645 0.07084588 0.010632544 -0.08166767 0.014402737 -0.080850594

upconv2.3.bias f4 [32]
00000000: 0ac2 9c3e a98e 4bbe 781d 6abd d49f 44be
00000010: 91a3 6cbe 6504 c73e 7f8d bf3d d0dd 323e
00000020: a539 10be 5951 6d3e 5f24 b8be 6dad 4f3e
00000030: ca76 abbe 3158 d83d d60d a1be cf2a 49be
00000040: 0add 723e 0633 0f3e 4614 b33e 25f3 433e
00000050: 8494 3abe 0e63 1f3b ffde 823e ef7b 3f3e
00000060: 98fb ab3e 58be abbb 0a5d 5b3e 0968 9ebe
00000070: c7eb a23c d323 ecbe f310 d6be 7ed7 343d
0.3061679 -0.1987864 -0.05715701 -0.19201595 -0.2310927 0.3887054 0.0935316 0.17467427
-0.1408449 0.23175563 -0.3596525 0.20281 -0.33489066 0.10563696 -0.31455868 -0.19645236
0.23717132 0.13984308 0.34976405 0.19135721 -0.18220717 0.0024320516 0.25560758 0.1869962
0.33590388 -0.0052411966 0.2142221 -0.30938748 0.019887818 -0.46121082 -0.41809806 0.044150822

upconv1.3.weight f4 [2, 2, 3, 3]
00000000: 98c1 5c3e 688a f33e 8aa7 9c3d 2316 9d3e
00000010: 3b55 453f 827c 1f3f 466b d73e 45af 983e
00000020: eb87 f83e 5eb7 32be 8a0e 50bf 750f bfbe
00000030: 2ab0 1dbf 267a 30bf aa67 08bf c32f edbe
00000040: ad6f 2cbf 4300 70be 6d4c 843e 607d da3e
00000050: 8374 743e 29d1 1f3f 218d 5f3f a424 f43e
00000060: bbe4 8c3e b46d a23e 016b 3f3e 7177 09bf
00000070: ecf4 11bf 784d febe a438 e0be b908 67bf
00000080: 0e65 20bf 1f87 96be 5feb 22bf 2ea9 4bbe
0.21558225 0.47566533 0.07649143 0.3068095 0.77083176 0.6229936 0.4207403 0.2982122
0.48541197 -0.17452762 -0.81272185 -0.3731648 -0.6159693 -0.68936384 -0.5328318 -0.46325502
-0.67357904 -0.234376 0.25839558 0.4267378 0.2387257 0.6242853 0.8732472 0.47684205
0.27518257 0.31724322 0.18693163 -0.5369788 -0.57014346 -0.4966848 -0.43793213 -0.90247685
-0.626542 -0.29399964 -0.636404 -0.19888756

upconv1.3.bias f4 [2]
00000000: 803a 70bf dfca 853f
-0.93839264 1.0452536

out.0.weight f4 [2, 2, 1, 1]
00000000: 72dc b53f b5fc 35bf 99a3 5dbf 5ab4 993f
1.42079 -0.71088725 -0.86577755 1.2008164

out.0.bias f4 [2]
00000000: 8558 b8be cecd 473a
-0.36005035 0.0007621915

onnx::Conv_87 f4 [32, 4, 1, 1]
00000000: a410 a0bf 4e79 5940 30ec c7c0 0a77 0041
00000010: 0af6 5ac0 3737 f5c0 1b4f 8fc1 a49b 783f
00000020: f070 c241 bb2b 233e f38e f840 fa8d 2842
00000030: ba36 ed3f 3592 94c0 b849 7940 e38d 49c0
00000040: ac20 933d c62b 87bf b924 3240 d464 30c1
00000050: c7cf 2340 af0a 01c0 e31d 7340 6a54 c6c0
00000060: 69d7 95c1 7b3f dfc1 358f c740 ebbb 9f41
00000070: d467 ba40 c3ce c8be fbfe b040 4567 92c0
00000080: 28f0 1ec1 953e 0dc1 e607 ddc0 bdb3 23c1
00000090: 5991 3ac2 9152 0ec2 964d 42c0 70cc c3c1
000000a0: 9fc9 84c0 00f7 1540 263e 38bf d59e 4d40
000000b0: 4792 0342 1e85 8c41 911e 0b42 c0af b840
000000c0: 08c9 c640 8192 8c40 c846 03bf 6a17 07c1
000000d0: a795 6a40 a221 9e41 e5bd c541 c9bc b3c1
000000e0: 89d9 aec1 d336 cbc1 0d36 b841 ba44 dd40
000000f0: 94b7 0a41 931e d940 3007 ffc0 4ba4 a9c0
00000100: 45a1 5ec1 0aa7 4dc2 fabb 3842 1277 0a42
00000110: 291a 26c1 3d2b 7f3f b078 09bf e031 91c0
00000120: e386 2441 fe93 f940 46e3 3041 6c90 32c1
00000130: f24a 92c1 9724 da40 fbf4 24c1 37ef c8c1
00000140: 1c18 e53f feb6 0ec0 fcd5 fdbe 3825 aec0
00000150: b162 62c1 8170 05c0 b7d8 c2c0 f8b9 86c0
00000160: bbb6 1e40 5855 57c0 0839 06c0 aac6 01c0
00000170: 8256 f6c0 da71 1e40 416b a7c0 3166 9ebf
00000180: fd08 9f40 c6bc ea3f f81b 54c0 6272 b5c0
00000190: 3dbd 67c1 8b59 27c1 4d0c e2c1 8b46 4c41
000001a0: 29db c041 65b5 d5c0 65ed 6342 7d8b ed41
000001b0: 2cf2 82c0 9fa4 c2c0 58ff 11c0 7b19 15c1
000001c0: 3bb8 cbc0 1f33 7340 c11f 273f 9d23 2ac0
000001d0: e25d cb40 6622 673d be4d b5c0 f523 bcbe
000001e0: e1b7 81c0 de62 41c1 7035 24c1 35c2 8640
000001f0: 8a5d 68c0 e4ad ba40 23af c940 a10b 30c0
-1.2505078 3.3980289 -6.2475815 8.029062 -3.421267 -7.66299 -17.913626 0.9711249
24.305145 0.1593465 7.76745 42.13865 1.8532326 -4.6428475 3.8951244 -3.149285
0.07183966 -1.0560234 2.7834914 -11.024616 2.5595567 -2.016277 3.7986991 -6.1978045
-18.73018 -27.905996 6.2362313 19.966757 5.8251743 -0.39220247 5.5311255 -4.575106
-9.933632 -8.827779 -6.907214 -10.231381 -46.64194 -35.58063 -3.0359855 -24.474823
-4.149612 2.3432007 -0.7196983 3.2128193 32.89285 17.564999 34.77985 5.771454
6.21204 4.392884 -0.5127988 -8.443216 3.665384 19.766422 24.717722 -22.46718
-21.856218 -25.40177 23.026392 6.9146395 8.669819 6.784982 -7.9696274 -5.3013053
-13.914372 -51.413124 46.18357 34.61628 -10.381387 0.9967535 -0.5369978 -4.5373383
10.282931 7.7993155 11.055487 -11.160259 -18.286594 6.8169665 -10.30981 -25.116804
1.7897983 -2.229919 -0.4957732 -5.4420433 -14.149095 -2.0849917 -6.0889544 -4.2102013
2.479903 -3.364584 -2.097231 -2.0277505 -7.69806 2.475699 -5.2318425 -1.2374936
4.969847 1.8338859 -3.314207 -5.6702127 -14.483701 -10.459361 -28.256006 12.767222
24.107012 -6.678393 56.98183 29.69311 -4.092062 -6.0825953 -2.28121 -9.318721
-6.366239 3.7999952 0.6528283 -2.6584237 6.3552103 0.05642929 -5.66574 -0.36746183
-4.053696 -12.0866375 -10.263046 4.211207 -3.6307092 5.833727 6.302629 -2.7507098

onnx::Conv_88 f4 [32]
00000000: 1b05 963f bb35 10c0 4be8 0140 3edc c7bf
00000010: 6932 0ebf b4ae 39bf 0af0 10c1 2553 083d
00000020: 114c 5ac0 4c38 5bc1 d75c 343f 1584 ef40
00000030: 14f2 b43f 5a03 c440 0fe2 07c1 3dfa 1640
00000040: f268 7cc1 6621 9bbd 0d7c 2040 ef97 533f
00000050: 594b 4dbf acd9 a6bf 082e 94bf 3ea9 003f
00000060: e5dd 083f 2f2d 6dc0 d20b 5abd e0b9 0fc0
00000070: ddcf 863f f248 003e f3af 81c0 dc9e ea3f
1.1720308 -2.2532794 2.029803 -1.5614088 -0.5554567 -0.725322 -9.058603 0.033282418
-3.4108927 -13.701244 0.7045416 7.4848733 1.4136376 6.125409 -8.49269 2.3590233
-15.775621 -0.075747296 2.5075715 0.8265371 -0.80193096 -1.3035178 -1.1576548 0.50258243
0.53463584 -3.7058828 -0.05323393 -2.24572 1.0532185 0.12527826 -4.052728 1.832973

onnx::Conv_90 f4 [64, 32, 1, 1]
00000000: eb2f 2ebf bb5b e13c c828 003f b817 d9be
00000010: 85cc 8ebe 4268 83be a798 113f 1efe 1abd
00000020: 6559 92bf e1be ff3e d63d 573d 1caa 033e
00000030: 5df0 1c3d 02cd 013f ec29 0f3f d34f a53e
00000040: 7181 bcbe 0369 6abd 6125 2b3e 2102 253f
00000050: 45d2 b43e 7d14 203e d0ac 463e 35cb 803e
00000060: 0110 a9be e20f c5be 0e12 713f 1b94 443e
00000070: 9585 a33e 3f38 0b3e f548 0cbe dd0b c43e
00000080: a999 98be b0af a1be 89f1 58be 9e21 0ebf
00000090: 87fc 0b3f 1e97 083f c870 6d3d 60e4 60be
000000a0: c5ee 96be 76e7 8fbe c6ce 1c3e 85ca 8e3e
000000b0: 206b a53b 2c7c f23e 23fb 193f c1eb 663f
000000c0: 95cd 4c3e 8900 c0be b4d1 85be c474 e9be
000000d0: a549 3b3e db98 1d3f 0f6a e1be adeb 92bf
000000e0: c20e cc3c 8fb3 eabe 5ca8 8abe 75d6 583e
000000f0: 2294 6e3e e3a1 9d3c 8c17 8d3e ad25 c0bd
00000100: 6a73 1fbf 4bd4 893e 5006 bcbe 4a46 473d
00000110: 5da2 96be 4652 0ebf 9711 98bc 0832 1fbf
00000120: 5cbe e6be 9313 063f 6733 bcbe d2b0 4bbd
00000130: b0ae 8c3e 59e7 ae3d ef17 cfbe c26c 953e
00000140: 4586 103f 500c 9bbd 69b4 1e3f 465c 353f
00000150: e90a 313f db7b 913e 70fa 623e 0cc5 893e
00000160: b8e6 0dbf c855 e8be 91fb 14bf c47e c23e
00000170: 57b7 cebe 133b 163f 47d0 a3be ecc0 f6be
00000180: ee69 c5be 39ea 653f 17ad a43f e4ee fa3e
00000190: ebf4 48bf dc96 3dbf 0f34 d03e db18 11bf
000001a0: c02d aabd 98f6 843f dc4a b33e f20d 19bf
000001b0: d4da 01bf e5ad cd3e 416c 1bbf 03c1 5b3e
000001c0: 7c14 08be 7a5b 753c 8854 01bf 4a8d 2bbf
000001d0: eed2 dcbe 44f5 12bf 0c64 113f d9c2 f53e
000001e0: 5104 4ebf d4bf febe c858 dfbe a242 3f3f
000001f0: a3d9 ec3e b068 3abf b44e cbbe 601b 16be
00000200: 3cf2 89be 1dd4 3b3d b86a 813e 2ff9 d53e
00000210: fbf8 923e 2bce 95bd c299 963d 7be2 c7be
00000220: 8217 fbbc 15c9 62be 305d c2be e6ad 0b3f
00000230: 1c6c e5be 59f4 63be ee75 22be 5e55 5e3e
00000240: 79c8 e1bd 4781 29bf 1592 59be 7bcd bd3e
00000250: b962 d33d 5840 d53e fac8 8abe cddc 123f
00000260: 3e62 e03d d40e 753e 181c f2bd 7dfa aabd
00000270: 1ad5 00bf b08e 8d3e 3687 91bd c67d 0ebf
00000280: d1b7 4b3f e8f8 e6be d933 c83e a728 c23e
00000290: ad39 8a3e c0ad 7ebd 7a0d ee3e f0ed 193f
000002a0: 83f5 dabe c46e b8bc fd49 35bf 85f4 0ebe
000002b0: e6db 133f 5502 ae3e 193f 223f 74d7 31bf
000002c0: 402a 84bf bf25 3bbe 52f1 a43e b521 383f
000002d0: 3fb2 4dbf 525e 21be acb7 273f 1aa6 013f
000002e0: 2ade d5be 55bf 643c 2e43 823f 74a6 33be
000002f0: daef 453e 64c1 573f bedf 48bf c411 b4bf
00000300: 6380 0fbd c2f0 fdbd cd1d e33e 6936 8d3e
00000310: 6cfc d73e 87d7 8d3e 7594 0d3f d574 3cbd
00000320: 4158 f3be 7a7a 163f 7359 b23e 40da 10bf
00000330: 9fb2 94bd c9eb cd3e 6926 58be 8ff9 9cbe
00000340: c3f9 c5be 96bc 33bf 3eb7 1dbf d669 0c3f
00000350: 2c4f 7b3e 0f81 f0be e594 903e 9735 6a3e
00000360: 88c6 2dbf 902c bd3b d724 06bf 7ec9 d93e
00000370: 453d 36bf 8f61 4cbe ea1b c03e e626 b03e
00000380: ecc9 213e dc7a 39bd 4ca6 16bf c39e f7bd
00000390: fe3d ef3e 45a8 fb3e dc29 763e b5b3 263f
000003a0: 8341 91be 6644 81bd 4095 373f 216a 0e3f
000003b0: 363d 6bbf 8b47 21bf 2741 353f 648e 4bbf
000003c0: e4a8 3cbf 7892 62bd b0f8 b43f 2403 4d3e
000003d0: e938 04bf 2bb1 a73f 1a45 653e b586 fabe
000003e0: 3d71 63be 03f5 19bd ccf2 d43e 40a0 853e
000003f0: 5a09 203f 7c54 333f b4f9 8fbd b859 82bf
-0.68041867 0.02750956 0.5006223 -0.42400908 -0.2789041 -0.2566548 0.56873554 -0.03784
-1.1433531 0.49950317 0.052549206 0.1285786 0.038315166 0.5070344 0.5592334 0.32287464
-0.36817506 -0.057229053 0.16713478 0.64456373 0.35316673 0.15632816 0.1940186 0.25155035
-0.33020023 -0.3848868 0.94168174 0.19197123 0.31937853 0.13595675 -0.13699706 0.382903
-0.29804733 -0.3157935 -0.21185888 -0.55520046 0.546822 0.53355587 0.057968885 -0.21962118
-0.29479042 -0.28106278 0.15313253 0.27888885 0.0050481707 0.4736036 0.6014883 0.9020348
0.20000298 -0.37500408 -0.26136553 -0.45596898 0.18289812 0.61561364 -0.4402623 -1.1478173
0.02490938 -0.45840117 -0.27081573 0.21175559 0.23298696 0.019242233 0.27557027 -0.09382186
-0.6228548 0.2691978 -0.36723566 0.048651017 -0.29420748 -0.5559429 -0.018563075 -0.62185717
-0.45067108 0.5237362 -0.36757967 -0.049729176 0.27477026 0.0854022 -0.40447947 0.29184538
0.5645488 -0.07570708 0.61994034 0.70843923 0.6915727 0.28414807 0.22165847 0.26908147
-0.55430174 -0.45377946 -0.5819636 0.3798734 -0.40374252 0.5868389 -0.3199484 -0.48194063
-0.3855738 0.8981052 1.2865323 0.49010384 -0.78498715 -0.7405832 0.40664718 -0.5667855
-0.08309507 1.0387754 0.3501805 -0.59786904 -0.5072453 0.40171733 -0.6071206 0.21460347
-0.13289064 0.014975423 -0.5051961 -0.67012465 -0.43129677 -0.57405496 0.56793284 0.4800022
-0.80475336 -0.49755728 -0.43622422 0.7471105 0.46259794 -0.7281599 -0.39708483 -0.1465888
-0.26942623 0.045856584 0.25276732 0.41791674 0.28705582 -0.07314714 0.07353546 -0.39039978
-0.030650858 -0.22147019 -0.3796172 0.5456222 -0.44809043 -0.2226118 -0.15865299 0.21712252
-0.11024565 -0.66212887 -0.21247132 0.37070832 0.10321564 0.41650653 -0.27106458 0.57368165
0.10956238 0.23931438 -0.11821765 -0.08348558 -0.5032517 0.27647924 -0.071058676 -0.55660665
0.79577357 -0.45111775 0.39102057 0.3792164 0.26997128 -0.06217742 0.46494657 0.6012869
-0.42765436 -0.022513755 -0.7081602 -0.13960464 0.57757413 0.33986154 0.6337753 -0.6946938
-1.0325394 -0.18276118 0.32215363 0.7192643 -0.80350107 -0.15758637 0.65514636 0.50644076
-0.4177106 0.013961633 1.0176752 -0.17543966 0.19329777 0.84279466 -0.78466403 -1.4067922
-0.03503455 -0.123994365 0.44358674 0.27580574 0.4218477 0.27703497 0.5530465 -0.046009857
-0.4752827 0.58780634 0.3483387 -0.56583023 -0.07260632 0.40218952 -0.21108402 -0.30659148
-0.38667116 -0.70209634 -0.6160773 0.5484899 0.2454192 -0.46973464 0.28238598 0.22872005
-0.6788106 0.0057731345 -0.52399963 0.4253654 -0.7118724 -0.1995909 0.37521297 0.34404677
0.15799683 -0.045283183 -0.588475 -0.12090828 0.46726984 0.49151817 0.24039406 0.6511796
-0.28370294 -0.06311874 0.7171211 0.5563069 -0.91890275 -0.6299979 0.7080254 -0.79514146
-0.73695207 -0.055315465 1.4138393 0.2002073 -0.5164934 1.3100942 0.22389641 -0.48930898
-0.22211166 -0.037587177 0.4159149 0.26098824 0.6251427 0.7005079 -0.07030049 -1.018363

onnx::Conv_91 f4 [64]
00000000: 09ab 853e 4441 babf 5a6b 7f3f 30e9 babb
00000010: f261 b13f 06b8 e13e 7827 0d40 f056 903c
00000020: 6825 38bf 2bfd ba3e 3a46 b2bf bd00 bebf
00000030: 07b4 2b3e fc61 b4be 7b19 5f3f 38a4 0440
00000040: 3e27 a13e cdbd 7a3f 8197 9b3e 932f 393e
00000050: bb78 bcbd 6aab ae3f 1ee2 db3f 4b0e 5f3f
00000060: aa4d 1840 1a13 3240 c61b 0840 16ca 723e
00000070: 283c a93c 6fc7 99bf 1baa f83f 9bbc d4bf
00000080: abe2 2b3f f0c4 02bf 7a52 8dbf 95aa 65bf
00000090: d5e5 e83f 608b b2bf 4cda 07bf 0ecb cb3f
000000a0: 6fc6 3f3f d6a2 dbbe 6250 d0be 1d68 733f
000000b0: 2e4f a73f 8a44 203f 94c8 043e 5fe1 3b3f
000000c0: 8ded 93bf 03de bdbd 01e7 a03f 0cef 50bf
000000d0: 2d09 9a3f 0369 04be 6d18 4cbf 2e95 3bbf
000000e0: ae54 ffbe 924d 2c3f dbed e73e 7c47 c33d
000000f0: 2bb4 2bbf 1f6e b1bf 310f 113f 3c8b c0bf
0.26107052 -1.4551167 0.9977318 -0.0057040676 1.3858016 0.4408571 2.205534 0.01761958
-0.7193208 0.36521277 -1.3927681 -1.4843975 0.16767894 -0.35231006 0.87148255 2.072523
0.31475252 0.97945863 0.30389026 0.18084554 -0.09202715 1.3646061 1.717838 0.87131184
2.3797402 2.7824159 2.1266952 0.23709902 0.020658568 -1.2013987 1.9426912 -1.6620058
0.6714274 -0.5108175 -1.1040795 -0.8971341 1.8195139 -1.3948784 -0.5306747 1.5921342
0.7491216 -0.4289767 -0.40686327 0.9508074 1.3071039 0.6260458 0.1296714 0.73390764
-1.155687 -0.09270861 1.2570497 -0.81614757 1.203405 -0.12930684 -0.7972477 -0.73274505
-0.49869293 0.6730586 0.45298657 0.09535119 -0.6707179 -1.3861731 0.56663805 -1.5042491

onnx::Conv_93 f4 [128, 64, 1, 1]
00000000: d635 eb3d 4498 6d3e 3302 2e3e 4de3 b03d
00000010: 64c6 79be a62a 88ba a131 7e3e 965f babd
00000020: 47a5 053e ba9c 54bd 10c1 a03e f6e7 c43e
00000030: fd84 853e 21fd 6ebc 6a8b 69bc 3569 b83d
00000040: d21e b03d 5843 72be cf59 ce3d 8a68 b7bd
00000050: bd89 56b8 4bb4 02be 5c41 65be f09b 05be
00000060: ea43 06be 980d c3bd 3305 c73e e585 283e
00000070: 66f9 423d 9526 343e 7266 133e e8d3 98bd
00000080: 77ed 333e 244b 80bd bc14 0fbe bc55 7a3e
00000090: 93a2 df3e d433 803e ae90 be3e e72e 4f3d
000000a0: 99f9 363d 6e54 f3bd e559 843e 44e3 e7bd
000000b0: d6cc 05be 44b2 3abc 9656 713d 2f18 e2bd
000000c0: abe6 533d 0adb 11bf f0f8 8e3e e4fa ee3c
000000d0: 3b1b a53c 07aa 93be b8c4 02bf 3006 4c3d
000000e0: 70be 363d 9cee 5abe acf0 ee3d df72 63be
000000f0: 39a2 b0bd 832e fe3d 5c13 2d3d 39c1 2c3d
00000100: a83c d93d 136d 53be d49e 193f 536b 81be
00000110: 0f51 f5be 1f21 c43d ddce 4bbe 5274 e0bd
00000120: 1eb2 49be 866d a7be bb84 cabc a1ea 7fbc
00000130: d91c f3bd 3a07 9f3e 1460 b3be 53a6 07bf
00000140: 6fab af3e c2ad a7be 1aaf cf3a 5c1f f8bd
00000150: 25b4 3e3e c811 b83d c2f1 003e c4a1 69bf
00000160: b4d0 453f cd3e 953d a718 66be 537d 8a3d
00000170: 3502 02be f44f 2fbe e956 4c3e 5dc3 7dbe
00000180: fca7 d23e 3b4e a33c bd18 d63e deb9 ee3e
00000190: ce93 583e 614e 363e 4452 66bd ba70 513e
000001a0: 4a85 21be 20be 36be 72ce 86be 8a3e 9f3e
000001b0: 4502 4cbd 3ea5 a43e 8bad 03be 1091 2cbe
000001c0: 7e82 4fbd b1ec 973e 6d92 3dbe 1317 66be
000001d0: c0a5 c13e 2044 d8be ca17 d73d 2755 95be
000001e0: 7824 baba ed7e a93d e63b 4f3f d955 013f
000001f0: 7afe ee3e 0800 ba3e f48d dabe 1e41 e8be
00000200: b664 d63e a055 d83e 6c8d ccbe 0cd7 033e
00000210: e0ce 3a3e 6ef9 b33e 8e71 c7bd 4b36 c63e
00000220: 0e07 0abe 0dc8 d6be 8a25 b2bd 1656 53be
00000230: 86ec d43e ca2b bfbe d3c1 f6be 9cfa f2be
00000240: 3212 5c3e a583 85bd 2e25 973e bce5 e33e
00000250: 5eb9 a8be c8e8 50be e5d5 333e 88ec 1a3e
00000260: cb7a 10bf feb9 18bf 2a83 84be d206 843e
00000270: 962c ae3d 3ce9 59be 20da d4be 3684 5a3e
00000280: 7c7c 9dbe 2b1b bf3e a3b3 39be e3d3 a33d
00000290: 9fc2 143f 8a8f 90be f24b b23d bdba 113f
000002a0: d55d ca3c 9099 3dbe 51c9 e43e 204d bcbe
000002b0: cc2b 5a3e f2c5 af3e 0d83 20be b6ea bcbe
000002c0: 08c0 72bc b98a e4bd fd6c ffbe bf73 173d
000002d0: 6d15 9c3d 6ba7 55bf 4b34 64be 18ab 93be
000002e0: 2fc7 08bf 15a9 35be f1ae 0a3f 37bb 653f
000002f0: 8921 0ebe 6b8c 063f d622 51be 72e1 5d3d
00000300: 3b45 3d3e bda9 13be 032e 34be 73ff a0bc
00000310: 8295 2b3e e54e e53d 25e2 74be f9fe 933e
00000320: cd36 203c 408b 893a a00a 50be 2e3f 0fbc
00000330: caa7 8cbe 4516 283e ba2d 52be 9cae 553e
00000340: 3b8e 5b3e aaf9 453d 6648 1ebe 9c96 72be
00000350: 7fa1 83bc 257a 5dbd 2ed1 183e 7c5c a93e
00000360: 0d6d 8d3e 24dd 04be 9062 09be a3dd 93be
00000370: 772b 2abe b8e6 b83c ac5a c0be 3943 253e
00000380: 4505 d8be e4ae 1a3e af77 a3be 1f8f 85be
00000390: 0730 c83e b349 093e ebc6 73be a5f6 bb3e
000003a0: 5c08 513e 2624 e13d 30b5 6cbe 4f01 3abe
000003b0: 319b ce3c 21ba 66be d815 82bd c689 0cbd
000003c0: 5722 193e 5490 393d eaf5 43bd 7efd e2bd
000003d0: bb6f 573e c882 3e3e 7287 b1be 0ed7 8e3e
000003e0: 2e78 753d 1bdb 4dbe 5d35 e6bd d4b5 343e
000003f0: d72a c43e 3918 8f3e c9cb 25be d109 e93d
0.11484878 0.23202616 0.16993026 0.08637104 -0.24392086 -0.0010388687 0.2482362 -0.09100263
0.1305133 -0.05190728 0.31397295 0.38458222 0.26078025 -0.014586718 -0.01425443 0.09004442
0.085996285 -0.23658502 0.100757234 -0.08955486 -5.1149855e-05 -0.12764089 -0.22388214 -0.13047767
-0.13111845 -0.09524077 0.38871154 0.16457327 0.047601126 0.17592843 0.14394549 -0.07462293
0.17571054 -0.06264332 -0.13972753 0.24446768 0.43678722 0.25039542 0.37219757 0.05058184
0.04467163 -0.11881338 0.25849834 -0.11322644 -0.1306642 -0.011395041 0.058920465 -0.11039769
0.051733654 -0.5697485 0.279243 0.029172368 0.020154586 -0.28840658 -0.5108142 0.04981059
0.04461521 -0.21380085 0.11666998 -0.22211789 -0.086246915 0.12411215 0.04225479 0.04217646
0.106072724 -0.20647077 0.6000798 -0.25277194 -0.47913405 0.0957663 -0.19903131 -0.10959686
-0.19696853 -0.32700747 -0.024721494 -0.015619905 -0.11870737 0.310602 -0.3503424 -0.52988166
0.3431048 -0.32749754 0.0015845031 -0.12115356 0.18623407 0.089877665 0.12592223 -0.9126246
0.7727158 0.07287369 -0.22470342 0.06762185 -0.12696154 -0.17120343 0.19955029 -0.24781556
0.41143787 0.019934764 0.4181575 0.4662618 0.21150133 0.17803337 -0.0562308 0.20453158
-0.15773502 -0.17845964 -0.2632938 0.311024 -0.049806852 0.3215732 -0.1285917 -0.16852212
-0.050661556 0.2967277 -0.18512888 -0.2246974 0.3782177 -0.42239475 0.10502584 -0.2916653
-0.0014201542 0.08276162 0.8095077 0.5052162 0.46678525 0.3632815 -0.42686427 -0.4536218
0.4187371 0.42252827 -0.39951646 0.12875003 0.18242979 0.35151237 -0.09738456 0.38713297
-0.13479254 -0.41949502 -0.08698566 -0.20638308 0.41586703 -0.37338096 -0.4819475 -0.47456825
0.21491316 -0.0651925 0.29520553 0.4451121 -0.32953924 -0.20401299 0.17562063 0.15129292
-0.5643737 -0.596588 -0.2588132 0.25786453 0.08504598 -0.21280378 -0.41572666 0.21339497
-0.30759037 0.37325415 -0.18134932 0.079993986 0.5810947 -0.28234512 0.08705892 0.56925565
0.024702946 -0.1851561 0.44684842 -0.36777592 0.2130577 0.34330708 -0.15674992 -0.3689782
-0.014816292 -0.11159272 -0.4988784 0.03697562 0.07621274 -0.83458585 -0.22285573 -0.28841472
-0.5342893 -0.17740281 0.5417319 0.8973879 -0.1387998 0.5255801 -0.20423445 0.05417008
0.1848344 -0.14420219 -0.17595677 -0.019653058 0.16756251 0.111966886 -0.23914392 0.28905466
0.0097786905 0.001049377 -0.20316553 -0.008743091 -0.27471763 0.16414745 -0.20525256 0.2086739
0.21440975 0.0483338 -0.15457305 -0.23690265 -0.016068218 -0.054071564 0.14923546 0.33078372
0.27622262 -0.12974983 -0.13416505 -0.28880033 -0.16618143 0.022570953 -0.37569177 0.16138925
-0.4219152 0.15105778 -0.3192725 -0.26085755 0.39099142 0.1340702 -0.2380635 0.36711612
0.20413345 0.10993223 -0.23115993 -0.18164562 0.025220485 -0.2253194 -0.063518226 -0.03431108
0.14954506 0.045303658 -0.047841944 -0.11083506 0.21038716 0.18604577 -0.3467365 0.2789845
0.059929065 -0.20103113 -0.11240647 0.17647487 0.38313934 0.27948168 -0.16191019 0.113788255
